weights/disc_tcnwgan_minmax.model (torch, 22709 bytes, 21 tensors)

bias f4 [16]
000000 d5 e1 16 3e 4c 40 14 3f be 1d f2 be 5d ee 35 bf
       0.14734586 0.5791061 -0.47288316 -0.7106684
000010 c8 b4 99 3d e3 db f8 3e 39 a1 73 3d fc 7c f0 3e
       0.075051844 0.4860526 0.059479926 0.46970356
000020 51 c2 cd be a7 a8 04 3f 4a f5 ac be 67 e0 17 bf
       -0.40187314 0.51819843 -0.3378089 -0.59326786
000030 96 07 d1 be 6d 51 ad 3b ad 4b b2 3d b8 ce a6 3e
       -0.408261 0.0052892477 0.0870584 0.3257959

weight_g f4 [16, 1, 1]
000000 42 9f 29 3f 0c bb 51 3f d8 b1 e6 3f b2 34 d9 3e
       0.66258633 0.81926036 1.8023024 0.42423016
000010 f2 63 e5 3e a9 72 ca 3f 7c 38 36 40 aa e5 81 3f
       0.44802815 1.5816242 2.8471975 1.0148213
000020 08 11 ef 3f 4a fa 3b 3f 7c d2 2b 3f 6f c3 aa 3f
       1.8677073 0.73428786 0.6711805 1.3340892
000030 ac bf cd 3e e1 50 28 40 5e 51 3c 40 7b 73 c9 3f
       0.40185297 2.6299365 2.9424663 1.5738367

weight_v f4 [16, 4, 2]
000000 f4 fe 86 bd c0 22 90 be d8 c7 e6 3d 5c b0 37 3e
       -0.06591597 -0.28151512 0.11268586 0.1793837
000010 bb b8 a5 be 2e a8 27 be 4a ce b8 be 61 b3 a2 bd
       -0.323675 -0.16372749 -0.36094886 -0.0794437
000020 9c 99 8f 3e 8f bb 43 be cb 5c bd bd 25 4b dc 3d
       0.28046882 -0.19114517 -0.092462145 0.1075652
000030 14 89 87 3d dc 76 a6 be 74 f0 15 3e 4d c9 23 be
       0.066179425 -0.32512558 0.14642507 -0.15994759
000040 ea 1e 0b 3e eb 8d 43 be ec 33 29 3e 9e 59 a7 3d
       0.13586012 -0.19097106 0.16523713 0.0817139
000050 64 47 94 3e 06 d3 49 be 3f 04 fe 3d 7c 4e 8a be
       0.28960717 -0.19709405 0.12403154 -0.27013004
000060 89 5b 34 3f 55 a3 ff bd 0e ae 61 3d a3 dc c3 3b
       0.7045217 -0.12482325 0.055097632 0.0059772297
000070 d5 e4 2d 3e 9c ef aa bd 29 36 13 3f 04 44 5e 3d
       0.16981824 -0.08346483 0.57504517 0.054264084
000080 52 82 2e 3d 6e e0 52 be 39 3f 72 be 5a e0 09 3d
       0.042604752 -0.20593426 -0.2365693 0.033661224
000090 af e4 23 be 63 01 96 bd e4 74 0b bd fc 24 4a be
       -0.16005205 -0.07324483 -0.034047022 -0.19740671
0000a0 27 6c e6 be 10 aa a1 be 5d dc 68 be ec d3 75 3e
       -0.4500439 -0.3157506 -0.22740312 0.24006623
0000b0 75 5a 40 3e ca 83 8c 3e 4f db e4 3c 6a e6 d7 3d
       0.18784507 0.27444297 0.027936606 0.10541995
0000c0 bd 9b 57 3e 62 db 5d be 4b 38 87 3c 9b fe 14 bd
       0.21055503 -0.21665719 0.016506335 -0.036375623
0000d0 18 c0 8a be 18 6f 87 3e ea 67 d9 3d 99 ec a8 bd
       -0.2709968 0.26451945 0.10615523 -0.082482524
0000e0 01 78 1b be ff 22 e1 bd 4f f7 bb 3d 9f c6 63 3e
       -0.15182497 -0.10993003 0.0917803 0.22243737
0000f0 22 c9 fe bd b2 a4 f6 bd 38 1e 5e 3d a0 33 8b 3d
       -0.12440707 -0.12043132 0.054228038 0.06796956
000100 88 68 a6 bd b9 67 5c be 19 e6 d2 bd 6e bd a8 3d
       -0.081254065 -0.21523942 -0.10297794 0.08239256
000110 85 17 a6 3e c1 95 63 3d de 9f 7d be 3e d1 89 3e
       0.3243982 0.05556274 -0.24768016 0.26917452
000120 be ec 3d 3e 52 aa 80 3e 2a 98 d6 bd 1b 57 2d be
       0.18547341 0.25129944 -0.10478242 -0.1692776
000130 e3 58 6b be 4a 5f e4 bd fc 18 f5 bd 16 e7 83 3d
       -0.22983126 -0.111509874 -0.11967656 0.064405605
000140 07 5b 81 3e 50 58 90 be 69 68 98 bd 09 b9 da bd
       0.2526476 -0.28192377 -0.0744179 -0.10679824
000150 56 bf aa be 90 2a aa be aa 99 86 be fc 1f a6 bd
       -0.33349103 -0.33235598 -0.2628911 -0.08111569
000160 48 ec 2e 3e 20 e1 61 be 1f 08 9c 3e 36 00 fd 3d
       0.17082322 -0.22058535 0.30474946 0.12353556
000170 f6 42 04 bd 25 77 db be eb 21 90 3e a1 26 45 3d
       -0.03229042 -0.42864338 0.28150877 0.048132543
000180 51 e1 1f bd 94 6b 5e bd 06 bf 20 3c 14 fb 3e 3e
       -0.039033238 -0.054301813 0.009811169 0.18650466
000190 be 82 22 3c 3e c1 77 3e 8c d4 4e 3b 67 98 9e bd
       0.009918867 0.2419481 0.0031559793 -0.07743912
0001a0 62 12 00 3e 7f ba a9 be 14 bd 96 bd 24 5a 92 3d
       0.12507012 -0.33150098 -0.073602825 0.07146099
0001b0 02 b6 04 be 5d 18 10 3e 1d eb cf 3e 63 0f 59 be
       -0.12960055 0.14071794 0.40609065 -0.21197276
0001c0 b3 94 e5 bd a2 76 88 be 02 c3 82 be 21 2e 39 3e
       -0.11210003 -0.2665301 -0.25539404 0.18084003
0001d0 1a 3b 5d 3e 29 dd 82 be d6 7c 16 3e 3d 8c a6 3e
       0.21604577 -0.25559357 0.14696059 0.32528868
0001e0 ff 83 9f 3e 53 30 9f 3e bf 82 a8 3d ae 0a 1c 3e
       0.31155393 0.31091556 0.08228063 0.15238449
0001f0 00 d1 b6 bd dd 94 ad be 8c 71 62 be ab 29 38 be
       -0.08926582 -0.33902636 -0.22113627 -0.17984645

weight f4 [16, 4, 2]
000000 68 06 8e bd 09 a4 97 be 14 cc f2 3d e0 40 41 3e
       -0.06934816 -0.29617336 0.11855331 0.18872404
000010 c0 59 ae be ff 62 30 be b2 6d c2 be 21 2c ab bd
       -0.3405285 -0.17225264 -0.37974316 -0.08358026
000020 c2 8d d9 3e 6b 44 94 be 1d 71 0f be 42 df 26 3e
       0.42490965 -0.2895845 -0.14007993 0.16296104
000030 ff 55 cd 3d 6a 31 fc be 5c 28 63 3e cd 22 78 be
       0.10026168 -0.4925645 0.22183365 -0.24232025
000040 00 e6 e4 3e fc df 20 bf 52 32 0b 3f 21 ac 89 3e
       0.44706726 -0.62841773 0.5437366 0.26889136
000050 6b f7 73 3f 72 08 26 bf 34 f8 d0 3e 11 8f 63 bf
       0.95299405 -0.64856637 0.40814364 -0.88890177
000060 af b7 a2 3e 96 a2 66 bd 69 9b cb 3c 96 b4 30 3b
       0.31780764 -0.056307398 0.024854379 0.0026963106
000070 d2 e2 9c 3d a9 37 1a bd 3b d0 84 3e db 86 c8 3c
       0.0766045 -0.037650738 0.25940117 0.024478367
000080 c6 48 3c 3d cc 85 63 be 41 af 82 be 89 c2 14 3d
       0.04596784 -0.22219008 -0.25524333 0.036318336
000090 9d d4 30 be ad d8 a1 bd 02 77 16 bd e4 19 5a be
       -0.17268606 -0.07902656 -0.03673459 -0.21298939
0000a0 75 57 79 bf 1f f0 2e bf eb fa fb be 85 01 05 3f
       -0.97399074 -0.68335146 -0.49214873 0.51955444
0000b0 95 25 d0 3e 4e 0d 18 3f b4 a5 77 3d 78 a0 69 3e
       0.40653673 0.593953 0.06046076 0.2281512
0000c0 c4 26 98 3f 9c 8f 9c bf 59 d8 be 3d 47 49 52 be
       1.188683 -1.2231326 0.09318609 -0.20535766
0000d0 f3 d3 c3 bf b2 25 bf 3f 81 6b 19 3f 12 6a ee be
       -1.5299057 1.4933379 0.5992966 -0.465653
0000e0 6e 4e da be 00 11 9e be 1f f8 83 3e 59 eb 1f 3f
       -0.42637962 -0.30872345 0.2577524 0.6246849
0000f0 f6 e1 b2 be 80 2a ad be 70 f2 1b 3e e2 76 43 3e
       -0.3493802 -0.33821487 0.15229201 0.19088319
000100 d4 01 8b be dc 1c 38 bf f6 2b b0 be 71 f4 8c 3e
       -0.27149832 -0.71919036 -0.3440854 0.27530244
000110 28 be 8a 3f 3c 1c 3e 3e b1 dc 53 bf 80 3f 66 3f
       1.0839281 0.18565458 -0.82758623 0.89940643
000120 4a 5b 94 3e 73 02 c9 3e 7a a0 27 be e2 66 87 be
       0.28975898 0.3925968 -0.1636981 -0.2644568
000130 6d d6 b7 be a2 63 32 be 35 74 3f be 34 11 ce 3d
       -0.3590578 -0.1742082 -0.18696673 0.10061875
000140 a6 57 80 3e e1 36 8f be cf 36 97 bd 77 02 d9 bd
       0.2506687 -0.27971557 -0.07383501 -0.10596173
000150 f6 68 a9 be 5a d5 a8 be c5 8b 85 be e1 d2 a4 bd
       -0.3308789 -0.32975274 -0.26083198 -0.080480345
000160 34 7e ad 3e 69 08 e0 be 95 c1 1a 3f bd ee 7a 3e
       0.33885348 -0.43756416 0.6045163 0.24505134
000170 2a 2e 83 bd d9 ab 59 bf 48 f4 0e 3f 09 8a c3 3d
       -0.064052895 -0.85027844 0.55841494 0.095478125
000180 94 3a 47 bd 98 94 8a bd da 4e 48 3c d8 fb 6d 3e
       -0.04863985 -0.06766623 0.012225831 0.23240602
000190 bf 81 4a 3c 88 5d 9a 3e f5 dd 80 3b b7 a0 c5 bd
       0.012360035 0.30149484 0.0039327093 -0.096497945
0001a0 dd 26 08 3f c6 6f b4 bf a6 3f a0 be de 95 9b 3e
       0.531843 -1.409661 -0.3129856 0.30387777
0001b0 6b 15 0d bf a3 2f 19 3f 31 09 dd 3f 1e c1 66 bf
       -0.55110806 0.5983831 1.726843 -0.90138423
0001c0 50 26 02 bf f8 b8 9a bf 0b 42 94 bf 2e f5 51 3f
       -0.5083971 -1.2087698 -1.1582655 0.8201474
0001d0 03 d5 7a 3f b1 5f 94 bf 8d 9f 2a 3f 11 d5 bc 3f
       0.9798128 -1.1591703 0.66649705 1.4752523
0001e0 1f e6 3f 3f 77 81 3f 3f 5b b8 4a 3e 44 b8 bb 3e
       0.7496051 0.7480692 0.19796889 0.3666402
0001f0 16 ee 5b be 01 d2 50 bf fb 34 08 bf b8 8c dd be
       -0.21477541 -0.8157044 -0.5320584 -0.43271422

bias f4 [16]
000000 1d 46 24 3f 16 d1 b8 3e be b2 ae 3e 4e 1c 3d 3f
       0.64169484 0.3609702 0.34120744 0.73871315
000010 93 48 a5 3e 54 66 fe 3e e4 b0 ce 3e 89 32 ed 3e
       0.32281932 0.49687445 0.40369332 0.46327618
000020 28 87 00 3f 0e bd 01 3f 2a aa 0f 3f 24 18 15 3f
       0.5020623 0.506791 0.56119025 0.5823996
000030 3a b8 00 3f 27 54 5b 3f 1f cb 0e 3f 44 1a f5 3e
       0.5028111 0.8567528 0.5577869 0.47871602

weight_g f4 [16, 1, 1]
000000 6b 75 4a 40 29 5d 43 40 a6 9d 3f 40 ce d3 44 40
       3.1634166 3.052561 2.993997 3.0754275
000010 1c f1 39 40 88 70 49 40 c2 76 46 40 22 27 4d 40
       2.9053411 3.1474934 3.1009984 3.2055135
000020 5d 16 47 40 ba d7 4b 40 dc 77 49 40 eb 50 4a 40
       3.11074 3.185042 3.1479406 3.1611888
000030 0b 46 50 40 ab 3b 43 40 2b 95 4d 40 49 fc 4b 40
       3.254275 3.0505168 3.2122295 3.1872733

weight_v f4 [16, 16, 2]
000000 0d 55 29 38 0d 55 29 b8 21 cd ef 3c fc 6a f7 3c
       4.037195e-05 -4.037195e-05 0.029272618 0.030202381
000010 e3 fc 0c 3e 0e df 0d 3e a0 bb 62 bc 54 46 69 bc
       0.13768344 0.1385462 -0.013838679 -0.014237959
000020 0d 55 29 b8 0d 55 29 38 a6 b7 a4 bd e5 29 ac bd
       -4.037195e-05 4.037195e-05 -0.08042841 -0.08406428
000030 b6 9e 6e 3e 1f b3 72 3e 1e 59 0d be 9e ab 0a be
       0.23302731 0.23701142 -0.13803527 -0.1354203
000040 95 09 ad bc fa 21 cb bc 07 b8 cd bd 39 0b d1 bd
       -0.021122733 -0.024796475 -0.10044866 -0.10207219
000050 0d 55 29 38 0d 55 29 b8 e3 01 fd bc 3d cd 03 bd
       4.037195e-05 -4.037195e-05 -0.030884689 -0.032178152
000060 0a 71 46 bc d8 ba 37 bc 7f db e1 3d 7b 24 e5 3d
       -0.012111912 -0.011213981 0.11028194 0.11188599
000070 cb 47 39 3e 39 70 3b 3e 0b 2a a1 3d f2 85 a5 3d
       0.18093793 0.18304528 0.07869347 0.08082189
000080 79 37 c3 b7 79 37 c3 b7 35 e2 c8 3c 46 21 d4 3c
       -2.3271643e-05 -2.3271643e-05 0.024521926 0.025894772
000090 40 55 cc 3d f4 e5 c8 3d 91 5e af bb fe 36 0f bc
       0.09977198 0.09809485 -0.0053518494 -0.0087411385
0000a0 79 37 c3 37 79 37 c3 37 e8 ea 64 bd 38 6f 7e bd
       2.3271643e-05 2.3271643e-05 -0.055888087 -0.062117785
0000b0 b2 eb 2d 3e da 36 31 3e 02 1c d4 bd e3 43 bf bd
       0.16984442 0.1730608 -0.103569046 -0.0933912
0000c0 ef 8a ab bb 65 6f 71 bc 33 25 95 bd 99 40 94 bd
       -0.005235068 -0.014736031 -0.07282486 -0.072388835
0000d0 79 37 c3 37 79 37 c3 b7 9e 24 c5 bc bf 20 c3 bc
       2.3271643e-05 -2.3271643e-05 -0.024065312 -0.023819325
0000e0 c9 04 0e bc c9 a7 0d bc 35 11 a7 3d 56 8e a8 3d
       -0.008668133 -0.00864596 0.08157579 0.082302734
0000f0 a9 81 08 3e be 11 0a 3e 80 22 81 3d aa 80 92 3d
       0.13330711 0.1348333 0.063054085 0.07153447
000100 42 43 30 b8 42 43 30 b8 0e ea f6 3c 4e 94 04 3d
       -4.202431e-05 -4.202431e-05 0.030140903 0.032367997
000110 3f d3 f0 3d ac 05 eb 3d 9f b9 d0 bb bc 15 35 bc
       0.11759042 0.11475691 -0.006369784 -0.011052545
000120 42 43 30 b8 42 43 30 38 f3 5d 83 bd 42 29 96 bd
       -4.202431e-05 4.202431e-05 -0.06414404 -0.07332088
000130 1a f3 48 3e 6f af 4d 3e d7 e4 f4 bd 26 c0 d9 bd
       0.19623986 0.20086454 -0.1195771 -0.106323525
000140 43 7f a5 bb be 85 86 bc 86 92 ae bd 93 f8 ac bd
       -0.005050571 -0.016421195 -0.08524041 -0.08445849
000150 42 43 30 b8 42 43 30 b8 fe 28 e3 bc 98 5b e3 bc
       -4.202431e-05 -4.202431e-05 -0.027729508 -0.027753636
000160 be ea 1a bc 92 b5 1c bc d7 4d c1 3d c3 3b c3 3d
       -0.009455381 -0.009564774 0.09438675 0.09532883
000170 2e ae 1d 3e 99 f7 1f 3e 9c a3 91 3d a7 68 a7 3d
       0.15398476 0.15621795 0.07111284 0.08174258
000180 b1 59 3a b8 b1 59 3a b8 fe 7f ec 3c 90 a4 f2 3c
       -4.4429387e-05 -4.4429387e-05 0.028869625 0.029619485
000190 68 eb 0c 3e 6d 72 0c 3e 97 6b 66 bc b1 a2 6f bc
       0.13761675 0.13715525 -0.014063737 -0.014626191
0001a0 b1 59 3a b8 b1 59 3a 38 ae a0 9e bd 47 dd a4 bd
       -4.4429387e-05 4.4429387e-05 -0.07745491 -0.08050018
0001b0 a8 61 6e 3e 9e 8c 71 3e 64 58 0c be 3c 53 0a be
       0.2327944 0.23588797 -0.13705593 -0.13508314
0001c0 28 31 9c bc 40 7c af bc 54 ff cc bd 95 f0 cf bd
       -0.019066408 -0.021421552 -0.100096375 -0.10153309
0001d0 b1 59 3a b8 b1 59 3a b8 3b 1a fb bc 33 34 02 bd
       -4.4429387e-05 -4.4429387e-05 -0.030652156 -0.031788062
0001e0 d8 21 3b bc 37 f0 27 bc dd 60 e1 3d 2b 7c e4 3d
       -0.011421643 -0.010250143 0.11004803 0.11156496
0001f0 f3 6c 38 3e 1b 16 3b 3e 8f ef a0 3d 65 3c a2 3d
       0.18010311 0.18270151 0.07858192 0.079216756
000200 cb 61 26 b8 cb 61 26 38 5f 95 f6 3c 35 02 02 3d
       -3.966856e-05 3.966856e-05 0.030100523 0.031740386
000210 e3 e3 df 3d 54 3b da 3d 0e f9 8e bb 1c 69 13 bc
       0.10932138 0.10655847 -0.0043631857 -0.008997228
000220 cb 61 26 b8 cb 61 26 38 51 25 67 bd 97 b3 87 bd
       -3.966856e-05 3.966856e-05 -0.056432072 -0.06626051
000230 1b 71 38 3e eb 84 3c 3e 5a f4 de bd 1c c8 c5 bd
       0.18011896 0.18410079 -0.1088645 -0.096573085
000240 17 ac 55 bb bc de 78 bc 52 22 9d bd 72 3a 9b bd
       -0.0032603794 -0.015189823 -0.07672562 -0.07579507
000250 cb 61 26 b8 cb 61 26 b8 a9 3f ca bc d6 d1 ce bc
       -3.966856e-05 -3.966856e-05 -0.024688559 -0.025246542
000260 2e 0e 06 bc 44 7e 0e bc 2f 93 b1 3d b8 42 b3 3d
       -0.008182092 -0.008697096 0.08670651 0.0875296
000270 ea 1b 11 3e 0c c7 12 3e b2 7a 8e 3d 18 12 a4 3d
       0.14170805 0.14333743 0.06956996 0.080112636
000280 1b 29 f7 b7 23 ee 57 b8 0b dc 62 3d 77 ea ae 3d
       -2.9463836e-05 -5.1481777e-05 0.05538563 0.08540814
000290 83 27 12 be 2b b6 99 bd 31 a5 6f bd 9a 71 50 bd
       -0.14272885 -0.07505449 -0.05850715 -0.05088959
0002a0 c0 1b 52 38 b7 5e 58 37 71 1f 87 bc 83 74 0e bd
       5.0093746e-05 1.2896656e-05 -0.016494485 -0.034779083
0002b0 bf 9c b1 bd a8 d4 f7 bd 9e 3c fb 3d 64 9d dc 3d
       -0.08672475 -0.12101108 0.12267421 0.107722074
0002c0 af 64 18 be 18 53 15 be 1e 81 8c 3d 16 70 8d 3d
       -0.14882158 -0.14582479 0.06860565 0.06906144
0002d0 f5 9e 5e 37 58 6a 5d b8 4d a7 91 bc dd a0 53 bc
       1.3269241e-05 -5.2789546e-05 -0.01777997 -0.012916771
0002e0 4e 87 41 bd e0 c9 80 bd 48 ac cc bc 9d e9 0e bd
       -0.047248177 -0.062885046 -0.024984494 -0.03489076
0002f0 d2 1a 93 bd 36 91 7d bd 34 0b 38 3d 69 23 86 3d
       -0.0718285 -0.061906062 0.04493256 0.06549723
000300 9e a6 1f b8 9e a6 1f 38 54 79 ff 3c f1 b0 08 3d
       -3.806373e-05 3.806373e-05 0.031185783 0.03337187
000310 d6 b8 05 3e a1 01 03 3e 80 2d 17 bc a5 d3 6f bc
       0.1305879 0.1279359 -0.009227157 -0.014637862
000320 9e a6 1f b8 9e a6 1f b8 9b a5 a2 bd ab 95 b4 bd
       -3.806373e-05 -3.806373e-05 -0.07941743 -0.088176094
000330 53 a9 61 3e e5 a7 66 3e 64 d6 0b be fd 73 f9 bd
       0.22037248 0.22524984 -0.13656002 -0.12180326
000340 db b1 04 bc 3d 52 a7 bc 5a 34 c7 bd c0 dd c5 bd
       -0.008099045 -0.020424956 -0.09726782 -0.09661436
000350 9e a6 1f 38 9e a6 1f b8 8c b4 02 bd 71 4d 03 bd
       3.806373e-05 -3.806373e-05 -0.031910464 -0.032056276
000360 7a a4 3c bc db 41 3a bc c4 1b d9 3d cd 3e db 3d
       -0.011513824 -0.01136824 0.10600999 0.10705338
000370 e2 85 30 3e cd 57 33 3e 57 3c 98 3d 03 66 ae 3d
       0.17238572 0.17513962 0.07433384 0.08515551
000380 43 d7 3a b7 15 e5 c8 b6 4f 2c 7b 3d f2 03 c0 3d
       -1.1136583e-05 -5.987133e-06 0.061321553 0.093757525
000390 92 ae 19 be 97 fc 9f bd 3b 94 7e bd 58 ad 5a bd
       -0.15008 -0.078118496 -0.062153082 -0.05338797
0003a0 76 20 35 38 6c e3 f1 b6 86 91 6d bc 50 54 0b bd
       4.3183994e-05 -7.208835e-06 -0.0145000275 -0.034015954
0003b0 8e 8f b8 bd 4b 77 01 be 74 84 06 3e fa b1 eb 3d
       -0.09011756 -0.12643163 0.13136464 0.11508556
0003c0 f5 a0 1f be 3e ad 1c be e2 a2 95 3d 2a 0c 98 3d
       -0.15588744 -0.15300462 0.07306458 0.07424195
0003d0 34 03 ca b6 94 cc 05 b8 97 e6 a2 bc 77 ac 62 bc
       -6.020442e-06 -3.19002e-05 -0.019885344 -0.013835064
0003e0 a3 ef 4d bd a5 b9 87 bd ff 3b db bc 4c 0f 16 bd
       -0.050277364 -0.06627206 -0.026762007 -0.036635682
0003f0 32 ef 9a bd 5e dc 84 bd 64 35 53 3d aa 87 96 3d
       -0.07565154 -0.06487344 0.05156459 0.073500946

weight f4 [16, 16, 2]
000000 1c 67 69 39 1c 67 69 b9 86 44 25 3e 56 84 2a 3e
       0.00022259023 -0.00022259023 0.16139421 0.16652045
000010 6b 55 42 3f 2a 8d 43 3f d9 42 9c bd 08 c5 a0 bd
       0.7591159 0.76387274 -0.07629938 -0.07850081
000020 1c 67 69 b9 1c 67 69 39 b3 0a e3 be 37 4e ed be
       -0.00022259023 0.00022259023 -0.443441 -0.46348736
000030 1a 74 a4 3f e5 43 a7 3f 8c d4 42 bf ac 23 3f bf
       1.2847931 1.3067595 -0.7610557 -0.74663806
000040 89 82 ee bd 08 ff 0b be 4e c7 0d bf ef 11 10 bf
       -0.11645991 -0.13671505 -0.5538224 -0.56277364
000050 1c 67 69 39 1c 67 69 b9 7e 5e 2e be f9 ab 35 be
       0.00022259023 -0.00022259023 -0.17028233 -0.17741384
000060 5c c3 88 bd 81 3f 7d bd 62 a8 1b 3f fa eb 1d 3f
       -0.06677887 -0.06182814 0.60803807 0.61688197
000070 a5 62 7f 3f 0d 2e 81 3f ed 24 de 3e 0d 27 e4 3e
       0.99759895 1.0092179 0.43387547 0.44561043
000080 3f 2f 31 b9 3f 2f 31 b9 fa 53 36 3e 1a 89 40 3e
       -0.00016897636 -0.00016897636 0.17805472 0.188023
000090 73 75 39 3f 61 57 36 3f aa 2b 1f bd 70 fc 81 bd
       0.7244484 0.7122708 -0.03886 -0.06346977
0000a0 3f 2f 31 39 3f 2f 31 39 c4 c5 cf be b0 ee e6 be
       0.00016897636 0.00016897636 -0.4058057 -0.4510398
0000b0 0c db 9d 3f 52 d8 a0 3f 53 84 40 bf 19 99 2d bf
       1.2332473 1.2566016 -0.7520191 -0.67811733
0000c0 84 b2 1b bd 41 22 db bd 68 5e 07 bf ec 8e 06 bf
       -0.038012043 -0.10699893 -0.5287843 -0.5256183
0000d0 3f 2f 31 39 3f 2f 31 b9 d6 ee 32 be 9f 1a 31 be
       0.00016897636 -0.00016897636 -0.17473921 -0.17295311
0000e0 83 e6 80 bd 1a 92 80 bd 9f a2 17 3f 8b fc 18 3f
       -0.062939666 -0.06277867 0.59232515 0.5976035
0000f0 78 cb 77 3f b9 a1 7a 3f c8 69 ea 3e 5d f8 04 3f
       0.96794844 0.9790302 0.4578383 0.5194147
000100 77 68 87 b9 77 68 87 b9 0e af 3d 3e 0e b3 4b 3e
       -0.0002582704 -0.0002582704 0.1852381 0.19892523
000110 8d 01 39 3f 4e 8c 34 3f a1 58 20 bd d0 1c 8b bd
       0.7226799 0.7052659 -0.039147023 -0.06792605
000120 77 68 87 b9 77 68 87 39 37 d6 c9 be 7a b6 e6 be
       -0.0002582704 0.0002582704 -0.39421245 -0.45061094
000130 7b 5f 9a 3f d0 02 9e 3f b9 21 3c bf 9d 47 27 bf
       1.2060388 1.2344608 -0.73488957 -0.6534365
000140 86 46 fe bc 56 af ce bd 08 1c 06 bf 1a e1 04 bf
       -0.031039488 -0.100920364 -0.5238652 -0.5190598
000150 77 68 87 b9 77 68 87 b9 22 82 2e be 01 a9 2e be
       -0.0002582704 -0.0002582704 -0.17041829 -0.17056657
000160 0f 05 6e bd 05 c6 70 bd e0 7f 14 3f 51 fb 15 3f
       -0.058110293 -0.058782596 0.5800762 0.58586603
000170 fe 43 72 3f 72 c7 75 3f d3 c3 df 3e 38 9b 00 3f
       0.94635 0.96007454 0.4370409 0.50236845
000180 45 2d 7b b9 45 2d 7b b9 d8 62 1f 3e a8 86 23 3e
       -0.0002395409 -0.0002395409 0.1556505 0.15969336
000190 1c f1 3d 3f 0c 4e 3d 3f ed 49 9b bd d0 7f a1 bd
       0.7419603 0.73947215 -0.075824596 -0.078857064
0001a0 45 2d 7b b9 45 2d 7b 39 65 cf d5 be 68 37 de be
       -0.0002395409 0.0002395409 -0.41759792 -0.43401647
0001b0 74 a7 a0 3f fe c9 a2 3f f4 2a 3d bf e4 71 3a bf
       1.2551103 1.2717893 -0.73893666 -0.72830033
0001c0 f7 86 d2 bd 3e 88 ec bd c5 27 0a bf 6a 23 0c bf
       -0.10279649 -0.11549424 -0.53966933 -0.5474154
0001d0 45 2d 7b b9 45 2d 7b b9 2e 3a 29 be 9d 7f 2f be
       -0.0002395409 -0.0002395409 -0.165261 -0.17138524
0001e0 0e 3b 7c bd 19 5c 62 bd 0e e4 17 3f 0b fc 19 3f
       -0.061579756 -0.055263612 0.5933236 0.6015021
0001f0 1e 95 78 3f 3a 2b 7c 3f d3 eb d8 3e 71 ac da 3e
       0.97102535 0.9850346 0.4236742 0.42709687
000200 a7 dd 86 b9 a7 dd 86 39 20 e0 47 3e be c3 52 3e
       -0.00025723616 0.00025723616 0.1951909 0.20582482
000210 14 7b 35 3f e7 e4 30 3f 1f c8 e7 bc d9 f9 6e bd
       0.7089093 0.6909928 -0.028293667 -0.058343742
000220 a7 dd 86 b9 a7 dd 86 39 ac 5c bb be 64 fe db be
       -0.00025723616 0.00025723616 -0.3659414 -0.42967522
000230 36 81 95 3f 4f cf 98 3f ea b8 34 bf 58 51 20 bf
       1.1680057 1.1938266 -0.70594656 -0.6262412
000240 c4 32 ad bc 9c ba c9 bd 41 bd fe be 55 a6 fb be
       -0.021142371 -0.09850046 -0.49753764 -0.4915034
000250 a7 dd 86 b9 a7 dd 86 b9 48 f0 23 be ce a4 27 be
       -0.00025723616 -0.00025723616 -0.16009629 -0.16371462
000260 39 53 59 bd 0f 01 67 bd 47 f0 0f 3f 12 4e 11 3f
       -0.053057883 -0.056397494 0.5622601 0.5675975
000270 ab 3e 6b 3f 1e f3 6d 3f 45 fb e6 3e 08 fe 04 3f
       0.918925 0.9294909 0.45113578 0.5195012
000280 18 47 6c b9 28 6c ce b9 de de d8 3e cd 36 27 3f
       -0.00022533198 -0.00039371965 0.42357534 0.65317994
000290 0d b8 8b bf 85 f1 12 bf e5 17 e5 be 02 44 c7 be
       -1.0915543 -0.5739978 -0.44744793 -0.38919073
0002a0 66 db c8 39 c7 d7 ce 38 54 2c 01 be c0 2e 88 be
       0.00038310437 9.863037e-05 -0.12614566 -0.26598167
0002b0 b0 ca 29 bf 18 eb 6c bf a9 2c 70 3f 9c e6 52 3f
       -0.663249 -0.92546225 0.93818146 0.8238313
0002c0 e6 ae 91 bf e6 bf 8e bf 58 51 06 3f ca 35 07 3f
       -1.13815 -1.1152313 0.5246787 0.5281645
0002d0 8f d1 d4 38 89 aa d3 b9 7c 3d 0b be 5f 4f ca bd
       0.00010147981 -0.00040372115 -0.13597673 -0.0987842
0002e0 d6 01 b9 be 53 3c f6 be 32 a9 43 be b2 9e 88 be
       -0.36134213 -0.480929 -0.19107512 -0.26683575
0002f0 a6 a0 0c bf fc 66 f2 be a7 f0 af 3e 65 3b 00 3f
       -0.5493263 -0.47344196 0.3436329 0.5009063
000300 47 ec 61 b9 47 ec 61 39 ec c2 34 3e bd 6e 41 3e
       -0.00021545692 0.00021545692 0.17652482 0.188899
000310 1c 3b 3d 3f 51 63 39 3f bf ee 55 bd b0 b0 a9 bd
       0.7391832 0.7241717 -0.05222964 -0.082856536
000320 47 ec 61 b9 47 ec 61 b9 a6 29 e6 be e7 8b ff be
       -0.00021545692 -0.00021545692 -0.4495365 -0.49911425
000330 df aa 9f 3f 87 33 a3 3f 89 e2 45 bf 58 80 30 bf
       1.2474021 1.27501 -0.7729879 -0.6894584
000340 f7 c6 3b bd 03 c7 ec bd a3 f2 0c bf 3a 00 0c bf
       -0.045844045 -0.11561396 -0.55057734 -0.54687846
000350 47 ec 61 39 47 ec 61 b9 3d f6 38 be 99 ce 39 be
       0.00021545692 -0.00021545692 -0.18062682 -0.18145217
000360 80 79 85 bd 74 c9 83 bd a5 9d 19 3f b4 20 1b 3f
       -0.06517315 -0.064349085 0.6000617 0.60596776
000370 7f cc 79 3f 17 ca 7d 3f 03 6e d7 3e de ca f6 3e
       0.9757766 0.9913649 0.4207612 0.4820165
000380 55 c2 ab b8 bc ad 38 b8 00 e6 e6 3e 17 84 30 3f
       -8.1901126e-05 -4.403082e-05 0.4509735 0.68951553
000390 d9 46 8d bf 96 12 13 bf 8b 07 ea be 8b 06 c9 be
       -1.1037246 -0.57450235 -0.4570888 -0.39262804
0003a0 9b 81 a6 39 fa 5c 5e b8 58 64 da bd 2d 15 80 be
       0.0003175855 -5.3015516e-05 -0.1066367 -0.25016156
0003b0 be a9 29 bf f3 07 6e bf 80 51 77 3f 82 ab 58 3f
       -0.6627463 -0.9298088 0.96608734 0.846367
0003c0 59 be 92 bf a2 07 90 bf c2 8e 09 3f 37 c6 0b 3f
       -1.146434 -1.1252329 0.53733456 0.54599327
0003d0 c3 b4 39 b8 6f ff 75 b9 5e c0 15 be 6c 60 d0 bd
       -4.4275785e-05 -0.00023460177 -0.14624164 -0.10174641
0003e0 1e 50 bd be f8 89 f9 be ad 89 49 be 6c f2 89 be
       -0.36975187 -0.48738074 -0.19681425 -0.26942766
0003f0 97 6d 0e bf cb 45 f4 be eb 28 c2 3e 13 61 0a 3f
       -0.5563597 -0.47709498 0.37921843 0.54054374

weight f4 [16, 4, 1]
000000 cf 37 07 3f f5 be a2 3e 30 32 13 3f 23 2d c9 3c
       0.5281953 0.31786314 0.57498455 0.024557656
000010 d4 99 4f be f6 db 3e bf bb 6f 20 bd 61 fc 27 bf
       -0.20273525 -0.74554384 -0.039169054 -0.65619475
000020 8c 03 26 bf 71 13 23 bf 91 41 77 bc 1f 4f fe be
       -0.6484916 -0.6370154 -0.015091316 -0.4966974
000030 38 bc b2 3d 73 d2 b6 bd 43 28 17 3f 02 d1 6f bc
       0.08727306 -0.08926859 0.5904581 -0.014637234
000040 98 70 df bd a0 dd aa 3e 4d b3 5d 3c 41 7e e1 be
       -0.109101474 0.3337221 0.013531518 -0.44041637
000050 b5 d5 84 bc e9 95 40 3e 33 b7 ae 3e 76 c2 34 3d
       -0.016215185 0.18807186 0.34124145 0.044130765
000060 ad ee 6c be 9c 17 25 bf 54 0f ba be bc 8a 28 bf
       -0.23137923 -0.6448915 -0.3633982 -0.6583669
000070 95 7a 01 be ca 7e 46 3f e4 bf 1b 3f 4f 9d 2d 3f
       -0.12644418 0.77537215 0.60839677 0.6781816
000080 dc 4d ec be 09 fb 33 bf 24 6d 0c bf 7c 21 14 bf
       -0.46153152 -0.70304924 -0.54854035 -0.57863593
000090 09 93 38 bd 09 95 1e be 5e 4b f2 3e 84 3b 35 3f
       -0.0450621 -0.1548654 0.47323126 0.7079394
0000a0 1b c7 f5 3d f8 e1 97 be 66 da 56 3d 5b 39 7f bf
       0.12000867 -0.29664588 0.052454375 -0.9969689
0000b0 ad 80 18 3e 13 b3 91 be 36 3e 1a 3f d3 70 e4 be
       0.14892836 -0.28456935 0.60251176 -0.44617328
0000c0 56 95 83 bd 0b aa 18 3f 66 84 3e be b1 5f 6b 3f
       -0.06424968 0.59634465 -0.18605193 0.9194289
0000d0 90 50 3b 3f 36 8d f4 3d 62 3f 4b 3f ce 9f 4d 3f
       0.73169804 0.11940996 0.7939359 0.8032197
0000e0 a9 e1 72 be 73 a2 a6 be ba d4 8f be ad 1d 9c bd
       -0.23718895 -0.32545814 -0.28091985 -0.07622848
0000f0 a3 2d df be f0 d3 6c bf 27 3e 60 be 1a 12 7b bf
       -0.43589506 -0.9251089 -0.21898709 -0.98074496

bias f4 [16]
000000 e0 f7 69 3f 36 2f 12 3f c2 3d 8e 3f f8 4a 9a 3f
       0.9139385 0.5710329 1.1112597 1.2054129
000010 82 5f 3e 3f 71 ba 4c bf f0 cb a6 3e e3 9d 86 bf
       0.74364483 -0.79971987 0.32577467 -1.0516933
000020 77 d3 36 3f 9b c0 4f bf 3b 59 b2 3e 1a 85 97 3f
       0.7141642 -0.8115327 0.34833702 1.1837494
000030 3a b2 60 bf 8a 97 90 3f 3d 4f 49 3f ae a2 05 be
       -0.8777195 1.1296246 0.78636533 -0.13050339

bias f4 [16]
000000 9b 31 2e 3f 6a aa 7b 3f 09 8e 69 3f 8e 9c 3e be
       0.6804444 0.98306906 0.91232353 -0.18614408
000010 78 01 7e 3f c0 d2 ad bd f4 8b 18 3f 53 14 69 3f
       0.9922099 -0.08487463 0.5958855 0.9104664
000020 1c 37 1a 3f 62 89 72 3f bf 4f 8d 3f 3c 41 7b 3f
       0.6024034 0.9474088 1.1039962 0.98146415
000030 2b 8a 6b 3f 3b 78 22 3f 82 1d e3 3e a4 e1 00 3f
       0.920077 0.6346471 0.4435845 0.503443

weight_g f4 [16, 1, 1]
000000 46 18 4c 40 d4 90 51 40 41 83 50 40 79 78 1d 3f
       3.1889815 3.2744646 3.258011 0.6151195
000010 a4 67 50 40 68 ba 03 3f 16 c3 4f 40 b9 f5 48 40
       3.2563257 0.5145631 3.246282 3.1399977
000020 b5 55 51 40 6b c2 52 40 e6 54 4e 40 a7 15 4e 40
       3.2708561 3.2931163 3.2239318 3.2200716
000030 d4 82 4a 40 7a 03 4b 40 98 7e 4d 40 6f cf 4e 40
       3.164235 3.1720872 3.2108517 3.2314107

weight_v f4 [16, 16, 2]
000000 1d 04 6d bd 9a 97 72 bd a0 40 be bd 91 8a bd bd
       -0.05786525 -0.05922661 -0.0928967 -0.09254945
000010 d2 38 b4 bd 97 1a b4 bd 59 46 7a bd a8 4c 7d bd
       -0.087999 -0.08794134 -0.061102245 -0.061840683
000020 52 ed 95 bd a3 b0 96 bd b2 7c d8 3d 15 c4 d9 3d
       -0.07320656 -0.073579095 0.10570659 0.10633103
000030 e8 df cb bd a9 d0 ca bd 3a 27 f8 3d c8 c4 f8 3d
       -0.09954816 -0.0990308 0.12116857 0.12146908
000040 62 e0 cd bd f3 cd cc bd 79 c5 e7 3d 8e 7d e8 3d
       -0.10052563 -0.10000219 0.11316962 0.11352073
000050 c1 08 bb bd 2b c6 bb bd dd 79 91 bd dd e5 92 bd
       -0.09132529 -0.09168657 -0.07103322 -0.07172749
000060 cf ba ec 3d 7d 30 ef 3d 5b 85 20 bd c6 be 27 bd
       0.115590684 0.1167917 -0.039189678 -0.04095342
000070 2e e4 b0 bd e8 02 b1 bd 27 90 e5 bd 4a 8b e4 bd
       -0.08637272 -0.086431324 -0.112091355 -0.1115938
000080 e7 bb fb 3d b6 05 00 3e 8c b2 b9 3d b4 6f bd 3d
       0.12291699 0.12502179 0.09067258 0.09249821
000090 3e b7 b9 3d 4b fc bb 3d 29 e7 eb 3d 4e c7 ef 3d
       0.09068154 0.091789804 0.115187 0.11707936
0000a0 17 b9 cb 3d c1 33 d0 3d 79 81 db bd 73 c1 db bd
       0.099474125 0.10166121 -0.10718054 -0.10730257
0000b0 f0 4a b5 3d bc bd b8 3d 85 cd cc bd 91 0b cd bd
       0.08852184 0.09020564 -0.10000137 -0.10011972
0000c0 e4 58 b4 3d 5e a0 b7 3d c4 56 d8 bd 6b a8 d9 bd
       0.08806017 0.089661345 -0.10563424 -0.10627826
0000d0 97 e3 c7 3d 8c b0 cb 3d 7b 28 e6 3d 7f 33 e9 3d
       0.09760206 0.09945783 0.1123819 0.11386775
0000e0 97 94 d9 bd 81 fa d8 bd 7f 72 04 3e 82 3d 06 3e
       -0.106240444 -0.10594655 0.12934302 0.13109401
0000f0 5c 47 d1 3d d5 8f d4 3d ef 48 aa 3d 73 56 ad 3d
       0.10218689 0.10378996 0.08314692 0.084637545
000100 09 ce e7 3d 5e 2c ec 3d 1f 81 ad 3d a8 a4 b0 3d
       0.11318595 0.115319 0.084718935 0.08625156
000110 b1 f9 ac 3d 8e cc b0 3d f6 1a d9 3d e5 28 dd 3d
       0.08446062 0.08632766 0.106008455 0.10798816
000120 3d 25 bc 3d d3 c0 c0 3d 62 4b cd bd 22 5e cd bd
       0.0918679 0.09411778 -0.10024144 -0.1002772
000130 ea 50 a9 3d f7 29 ad 3d 2c d0 bf bd b0 b4 bf bd
       0.08267386 0.0845527 -0.093658775 -0.09360635
000140 94 fa a7 3d a7 eb ab 3d 67 e2 ca bd 94 a5 cb bd
       0.08202091 0.083945565 -0.09906464 -0.09943691
000150 91 c9 b9 3d 58 08 be 3d e7 28 d4 3d 47 f6 d7 3d
       0.09071649 0.09278935 0.10359364 0.105450206
000160 b5 7f cb bd 52 49 cb bd d7 8a f5 3d 49 63 f9 3d
       -0.099364676 -0.09926094 0.11989372 0.1217714
000170 d8 8d c2 3d 38 26 c6 3d 5f 57 9f 3d e7 54 a2 3d
       0.09499711 0.096752584 0.077803366 0.0792635
000180 51 10 61 bd b2 ce 30 be 89 42 ef bd b2 6c 06 be
       -0.0549472 -0.17266348 -0.116826124 -0.13127401
000190 13 d2 4d 3d 8d e1 1f 3e 63 94 82 bb 68 6c 92 3c
       0.05024917 0.15613385 -0.003984974 0.017873958
0001a0 0d cf 4e 3d 50 da 1e be 32 96 d5 bd df 83 e0 3d
       0.050490428 -0.15512967 -0.10429038 0.109626524
0001b0 02 83 a0 bd 47 ed 1a be 2e cd 2e be 35 92 3f 3d
       -0.07837488 -0.15129577 -0.17070457 0.046770293
0001c0 ea 8c 60 3d cf 49 e1 3d be a9 fd 3d 0d b5 17 be
       0.054821886 0.11000406 0.123858914 -0.14815159
0001d0 37 ad 2f 3d b0 a4 14 be 78 76 82 3d 14 68 7c bd
       0.0428898 -0.14515948 0.06370252 -0.061622694
0001e0 39 e4 e8 3c ee fb fa 39 78 22 30 be 0a 73 13 be
       0.028429138 0.00047871418 -0.17200649 -0.14399353
0001f0 a7 83 36 be 9d 30 19 bd 34 3a da 3a 0c 9e 29 3e
       -0.17823659 -0.037399877 0.0016649426 0.16564196
000200 fe 1c f2 3d f3 3c f6 3d a5 18 b7 3d 11 40 ba 3d
       0.11821936 0.12023344 0.089402474 0.09094251
000210 d3 32 b6 3d 78 2b b9 3d 9f 54 e2 3d 52 00 e6 3d
       0.08896413 0.09041494 0.110512964 0.1123053
000220 29 e2 c4 3d 3b e5 c8 3d 5e 0b d7 bd 46 4d d7 bd
       0.09613449 0.09809347 -0.10500215 -0.105127856
000230 98 a9 b2 3d 87 32 b6 3d 7e 1d ca bd 09 de c9 bd
       0.08723754 0.08896356 -0.098689064 -0.09856803
000240 87 9d b1 3d fb 0c b5 3d 03 73 d5 bd 38 05 d6 bd
       0.08672624 0.088403665 -0.10422327 -0.10450214
000250 cc 02 c4 3d 82 77 c7 3d 67 94 dd 3d 21 4a e1 3d
       0.09570846 0.09739591 0.10819321 0.11000467
000260 fd d5 d5 bd 9d 72 d5 bd fb a2 fe 3d 15 51 01 3e
       -0.10441206 -0.104222514 0.1243343 0.12628587
000270 42 dc cb 3d b8 de cf 3d f3 fc a7 3d e1 2d ab 3d
       0.0995412 0.10149902 0.08202543 0.0835836
000280 2f 0b 1c 3c eb b4 45 3d 2b d6 f4 bd eb ca 2e 3e
       0.009524151 0.04826824 -0.11954912 0.17069595
000290 1b 22 65 3d 57 d1 10 be 76 15 4e bd 23 cf 7c bd
       0.05594073 -0.14142357 -0.050313435 -0.06172098
0002a0 6d 98 ba bc 04 13 8f bd 79 0a 7c 3d 5d 9b 85 3d
       -0.02277776 -0.06986049 0.061533425 0.06523774
0002b0 51 21 83 3d 40 c7 0b be e9 eb 0a be 60 5e 11 be
       0.06402839 -0.13650227 -0.13566555 -0.14196157
0002c0 b3 82 80 bb fa 86 9b bd 5d 45 ce bb 53 51 32 bd
       -0.0039218306 -0.07594104 -0.00629489 -0.043534588
0002d0 ca 41 4f 3d e8 81 92 bc 2b 3b 35 be a4 eb bf bd
       0.05059985 -0.01788421 -0.17698352 -0.09371117
0002e0 0c 9d d6 bd f2 7e 05 3e 33 fa 60 bd df f6 e3 bd
       -0.10479173 0.13036707 -0.05492611 -0.11131071
0002f0 f3 ad 8c 3c 77 50 28 3e 88 39 68 3d d2 1a a4 3d
       0.01717279 0.16436945 0.05669549 0.08012928
000300 21 cb 8e bd 92 da 91 bd 03 20 eb bd 8a c7 ea bd
       -0.069723375 -0.07121767 -0.11480715 -0.1146384
000310 9d 9a de bd 3f 75 de bd b3 b8 96 bd 51 ce 98 bd
       -0.10869334 -0.10862207 -0.07359447 -0.07461227
000320 cd 7b b6 bd 49 6f b8 bd 0c 45 04 3e 97 64 05 3e
       -0.08910332 -0.09005601 0.12916964 0.13026653
000330 d4 fd fb bd 23 d7 fb bd af dd 18 3e 0f 49 19 3e
       -0.12304273 -0.122968934 0.14928316 0.14969276
000340 6c d6 fe bd c4 9a fe bd b5 17 0e 3e 25 22 0f 3e
       -0.124432415 -0.12431863 0.13876231 0.13977869
000350 0a 1c e7 bd 38 5d e7 bd 30 6c b1 bd 08 f3 b2 bd
       -0.11284645 -0.11297077 -0.08663213 -0.08737761
000360 78 89 11 3e 5b d1 12 3e 2f 55 3f bd be 7a 46 bd
       0.14212596 0.14337675 -0.046712097 -0.0484569
000370 4c 07 d9 bd da 6d d9 bd dc 46 0f be b1 bf 0e be
       -0.10597095 -0.10616656 -0.13991874 -0.13940312
000380 16 18 b3 3d 4f 89 b6 3d 82 60 85 3d 96 0e 87 3d
       0.087448284 0.08912908 0.06512548 0.06594579
000390 6f f4 83 3d ac 4c 86 3d 2e 18 a8 3d 49 af aa 3d
       0.064431064 0.06557593 0.08207737 0.08334214
0003a0 d4 66 91 3d 74 85 95 3d 28 ed 9d bd ba fa 9d bd
       0.07099691 0.07300845 -0.077112496 -0.07713838
0003b0 ff cf 81 3d 8a d8 83 3d d8 45 93 bd 94 d6 92 bd
       0.063385 0.06437786 -0.07191056 -0.07169834
0003c0 9f a5 80 3d 85 f1 82 3d 05 28 9c bd d5 4d 9c bd
       0.0628159 0.063937224 -0.076248206 -0.07632033
0003d0 23 0a 8f 3d a9 cb 91 3d 0f e6 a3 3d 9e 85 a6 3d
       0.06984355 0.07118923 0.080028646 0.08130954
0003e0 ca ad 9c bd 81 b3 9b bd d9 2e bd 3d 54 f2 bf 3d
       -0.07650335 -0.07602597 0.09237451 0.09372392
0003f0 77 2f 95 3d 1a d6 97 3d 54 34 72 3d 58 2b 77 3d
       0.07284444 0.074138835 0.059131935 0.06034407

weight f4 [16, 16, 2]
000000 b1 06 b5 be f8 48 b9 be 36 4f 11 bf 29 c4 10 bf
       -0.35356668 -0.36188483 -0.5676149 -0.56549317
000010 ff a5 09 bf e8 8e 09 bf 1d 27 bf be 82 76 c1 be
       -0.53768915 -0.5373368 -0.3733453 -0.37785727
000020 20 05 e5 be 7b 2f e6 be c1 58 25 3f ce 52 26 3f
       -0.44730473 -0.449581 0.6458855 0.649701
000030 b3 b6 1b bf 87 e7 1a bf 4b 88 3d 3f a1 00 3e 3f
       -0.6082565 -0.6050953 0.7403609 0.7421971
000040 1c 3e 1d bf 82 6c 1c bf 39 05 31 3f d1 91 31 3f
       -0.61422896 -0.6110307 0.69148594 0.69363123
000050 f6 d9 0e bf a1 6a 0f bf 8f 38 de be 96 64 e0 be
       -0.5580133 -0.5602208 -0.43402526 -0.4382674
000060 b5 ce 34 3f a4 af 36 3f e1 33 75 be 79 1e 80 be
       0.7062791 0.71361756 -0.23945571 -0.2502325
000070 c5 1a 07 bf 3e 32 07 bf 72 55 2f bf 36 8e 2e bf
       -0.5277522 -0.5281104 -0.68489754 -0.68185747
000080 31 55 2f 3f cb 55 32 3f 9c 56 01 3f 44 f1 03 3f
       0.68489367 0.6966216 0.5052278 0.5154002
000090 e0 59 01 3f 94 ee 02 3f 74 4e 24 3f 7b 01 27 3f
       0.50527763 0.5114529 0.6418221 0.65236634
0000a0 a3 e4 0d 3f 4a 03 11 3f c3 e2 18 bf 53 0f 19 bf
       0.55426997 0.56645644 -0.5972101 -0.5978901
0000b0 73 8a fc 3e 18 ac 00 3f 2c a5 0e bf 63 d0 0e bf
       0.49324378 0.50262594 -0.5572078 -0.5578672
0000c0 47 39 fb 3e ac ca ff 3e 1b ae 16 bf 48 99 17 bf
       0.49067137 0.49959314 -0.58859414 -0.59218264
0000d0 06 39 0b 3f af de 0d 3f 20 4e 20 3f b6 6c 22 3f
       0.54383886 0.55417913 0.6261921 0.6344713
0000e0 78 8b 17 bf 26 20 17 bf c3 7f 38 3f 2a ff 3a 3f
       -0.5919719 -0.5903343 0.7206995 0.730456
0000f0 40 c3 11 3f a3 0c 14 3f f8 34 ed 3e 9f 75 f1 3e
       0.5693855 0.5783178 0.46329474 0.4716005
000100 7a a8 2c 3f 75 e9 2f 3f c3 3b 01 3f 46 92 03 3f
       0.67444575 0.687156 0.50481814 0.5139507
000110 e4 d6 00 3f fd af 03 3f 94 b5 21 3f ad ba 24 3f
       0.503279 0.5144041 0.6316769 0.64347345
000120 85 23 0c 3f 20 92 0f 3f 7d e9 18 bf 74 f7 18 bf
       0.547417 0.56082344 -0.59731275 -0.59752584
000130 48 3a fc 3e d8 fa 00 3f e1 de 0e bf 68 ca 0e bf
       0.49263215 0.5038276 -0.55808836 -0.557776
000140 4d 3c fa 3e c1 0d 00 3f ef 1d 17 bf 4f af 17 bf
       0.4887413 0.50020987 -0.5903005 -0.59251875
000150 e1 61 0a 3f 5c 8b 0d 3f 90 06 1e 3f 93 db 20 3f
       0.540556 0.5529077 0.61728764 0.62835044
000160 1a 93 17 bf 98 6a 17 bf f1 e3 36 3f 32 c1 39 3f
       -0.59208834 -0.59147024 0.7144156 0.7256042
000170 83 e9 10 3f 0c 97 13 3f 4c 5e ed 3e b3 d2 f1 3e
       0.5660631 0.57652354 0.46361005 0.47231063
000180 50 13 5c bd 7f e3 2c be fb f4 e9 bd f9 71 03 be
       -0.053729355 -0.16883658 -0.114236794 -0.12836446
000190 41 42 49 3d 64 56 1c 3e f7 5e 7f bb 9b 2d 8f 3c
       0.04913545 0.1526733 -0.0038966516 0.017477801
0001a0 a0 39 4a 3d fd 54 1b be 50 da d0 bd fb 89 db 3d
       0.04937136 -0.15169139 -0.1019789 0.10719677
0001b0 45 f4 9c bd 3a 7e 17 be 5c ed 2a be 3d 53 3b 3d
       -0.07663778 -0.14794245 -0.16692108 0.04573368
0001c0 d3 92 5b 3d 87 4b dc 3d 77 0a f8 3d 45 58 14 be
       0.05360682 0.10756593 0.12111371 -0.14486797
0001d0 6e c8 2b 3d 4a 59 11 be 75 24 7f 3d ee cf 76 bd
       0.04193919 -0.14194217 0.062290628 -0.06025689
0001e0 ce ba e3 3c db 6b f5 39 16 3b 2c be 6b 2e 10 be
       0.027799036 0.000468104 -0.16819414 -0.14080207
0001f0 13 78 32 be 6b cb 15 bd fc 63 d5 3a a4 db 25 3e
       -0.17428617 -0.036570948 0.0016280408 0.16197067
000200 e5 05 2c 3f 29 f4 2e 3f 51 17 02 3f ff 54 04 3f
       0.67196494 0.6834131 0.5081683 0.51692194
000210 07 74 01 3f 79 90 03 3f 2f cf 20 3f d9 6a 23 3f
       0.5056767 0.5139232 0.6281614 0.6383491
000220 0f e3 0b 3f cd bc 0e 3f 5a ca 18 bf 2e f9 18 bf
       0.5464334 0.5575684 -0.59683764 -0.5975522
000230 b5 e1 fd 3e d1 73 01 3f aa 9a 0f bf 94 6d 0f bf
       0.49586263 0.50567347 -0.56095374 -0.5602658
000240 c9 64 fc 3e 40 a3 00 3f 36 a8 17 bf 18 10 18 bf
       0.49295643 0.502491 -0.59241045 -0.5939956
000250 5b 44 0b 3f f3 b8 0d 3f 0d 6f 1d 3f d7 11 20 3f
       0.5440118 0.55360335 0.61497575 0.6252722
000260 89 ee 17 bf ed a7 17 bf c5 eb 34 3f bf c2 37 3f
       -0.5934835 -0.5924061 0.70672256 0.71781534
000270 18 d8 10 3f 66 b1 13 3f 97 b6 ee 3e 74 3f f3 3e
       0.5657973 0.57692564 0.4662368 0.47509348
000280 cd 72 17 3c 72 e2 3f 3d 65 a0 ed bd 31 a5 29 3e
       0.009243679 0.046846814 -0.116028585 0.16566922
000290 b7 62 5e 3d 97 8d 0c be d6 03 48 bd 42 5d 75 bd
       0.05429336 -0.13725887 -0.048831783 -0.05990339
0002a0 b9 19 b5 bc 68 dc 8a bd 63 9e 74 3d 20 ac 81 3d
       -0.022106992 -0.067803204 0.05972136 0.06331658
0002b0 82 89 7e 3d 7e a9 07 be 9c d4 06 be 79 16 0d be
       0.062142856 -0.1324825 -0.13167042 -0.13778104
0002c0 c5 73 79 bb 7d f2 96 bd 54 32 c8 bb 06 11 2d bd
       -0.0038063389 -0.0737047 -0.006109515 -0.042252563
0002d0 52 27 49 3d 6a 31 8e bc e7 e4 2f be ca 44 ba bd
       0.049109764 -0.017357547 -0.17177163 -0.09095152
0002e0 1f 4b d0 bd 8c 90 01 3e 24 5a 5a bd 4b 40 dd bd
       -0.10170578 0.12652797 -0.05330862 -0.108032785
0002f0 65 89 88 3c 93 5b 23 3e d5 62 61 3d ab 45 9f 3d
       0.016667077 0.15952902 0.055025894 0.0777696
000300 aa 65 b4 be 6c 43 b8 be 94 85 14 bf b2 4d 14 bf
       -0.35233814 -0.3598894 -0.58016324 -0.57931054
000310 d2 9c 0c bf 37 85 0c bf b6 69 be be da 0b c1 be
       -0.5492679 -0.5489077 -0.37190026 -0.37704355
000320 15 8a e6 be 1a 01 e9 be 1e 1a 27 3f 61 85 28 3f
       -0.45027223 -0.45508653 0.65274227 0.6582852
000330 05 2d 1f bf 95 14 1f bf 44 1f 41 3f eb a6 41 3f
       -0.6217807 -0.6214078 0.7543833 0.7564532
000340 41 f9 20 bf 91 d3 20 bf fe 82 33 3f 98 d3 34 3f
       -0.6288033 -0.62822825 0.70121753 0.70635366
000350 3d fc 11 bf 69 25 12 bf 46 25 e0 be 0c 13 e2 be
       -0.5702551 -0.57088333 -0.43778437 -0.44155157
000360 f7 dc 37 3f 32 7b 39 3f 09 b8 71 be 65 bf 7a be
       0.7182154 0.72453606 -0.2360536 -0.24487074
000370 3a 17 09 bf 02 58 09 bf fb 01 35 bf 38 57 34 bf
       -0.53551066 -0.53649914 -0.70706147 -0.70445585
000380 04 48 27 3f 1d 7f 2a 3f c6 28 f9 3e 31 4c fc 3e
       0.6534426 0.6660021 0.4866392 0.4927688
000390 a7 80 f6 3e f3 e1 fa 3e d8 01 1d 3f 35 6d 1f 3f
       0.4814503 0.4900051 0.6133094 0.6227601
0003a0 aa cf 07 3f bb a8 0b 3f 82 82 13 bf 2f 8f 13 bf
       0.53051245 0.5455434 -0.57621014 -0.57640356
0003b0 20 80 f2 3e 8b 4c f6 3e 16 8f 09 bf 29 27 09 bf
       0.47363377 0.48105273 -0.53733957 -0.5357538
0003c0 bc 52 f0 3e fa 9c f4 3e 43 db 11 bf 94 fe 11 bf
       0.4693812 0.47776014 -0.5697519 -0.5702908
0003d0 dc 9a 05 3f d9 2d 08 3f 91 16 19 3f d5 89 1b 3f
       0.5218942 0.5319496 0.5980006 0.6075719
0003e0 35 58 12 bf 6e 6e 11 bf 6b b4 30 3f 3c 49 33 3f
       -0.57165843 -0.5680913 0.69025296 0.7003362
0003f0 69 58 0b 3f 49 d2 0d 3f 9d 3a e2 3e cc dd e6 3e
       0.5443178 0.55398995 0.44185343 0.45091093

bias f4 [4]
000000 88 a1 d1 bd 51 57 43 3d 42 98 66 bd 97 df d6 bd
       -0.10235888 0.047690693 -0.056297548 -0.10491865

weight_g f4 [4, 1, 1]
000000 ea 6a 4b 40 47 78 4b 40 6e 06 54 40 dc e9 4f 40
       3.1784005 3.1792161 3.3128924 3.2486486

weight_v f4 [4, 16, 2]
000000 cb 1d b8 3d 98 fa ba 3d 41 75 c1 bd 7c da c3 bd
       0.089900576 0.09129828 -0.094461925 -0.09563157
000010 6b e1 bd bd 75 47 c1 bd 6f d7 d9 37 6f d7 d9 b7
       -0.09271511 -0.094374575 2.5968735e-05 -2.5968735e-05
000020 bd 09 be bd 46 11 c0 bd 6f d7 d9 37 6f d7 d9 b7
       -0.09279201 -0.09378295 2.5968735e-05 -2.5968735e-05
000030 d8 58 bc 3d 1a 61 bf 3d 28 18 b8 bd 34 f6 ba bd
       0.09196633 0.093446925 -0.089889824 -0.09128991
000040 3b 46 be 3d 95 56 c0 3d 2b e3 c0 bd ac 65 c3 bd
       0.09290739 0.09391514 -0.09418329 -0.09540877
000050 aa de bb bd d2 e8 be bd e0 13 bb bd d0 96 be bd
       -0.09173329 -0.09321751 -0.0913465 -0.09306109
000060 ab 32 b9 bd a4 57 bc bd 5a 36 b7 3d 22 43 ba 3d
       -0.09042867 -0.091964036 0.089459136 0.09094836
000070 78 71 ba 3d f0 63 bd 3d f7 8a ba 3d b0 41 bd 3d
       0.09103674 0.09247577 0.09108537 0.092410445
000080 73 5f b5 3d 21 cd b7 3d 80 de c0 bd f3 12 c4 bd
       0.08856096 0.08974672 -0.094174385 -0.09573927
000090 f8 02 bf bd b4 94 c1 bd 62 bb df 37 62 bb df b7
       -0.09326738 -0.09452191 2.6670928e-05 -2.6670928e-05
0000a0 ff fb bc bd dc 68 c1 bd 62 bb df 37 62 bb df b7
       -0.09227752 -0.094438285 2.6670928e-05 -2.6670928e-05
0000b0 97 a7 b9 3d af e8 bc 3d 24 68 b7 bd 18 ff ba bd
       0.09065168 0.092240684 -0.0895541 -0.091306865
0000c0 a6 d8 ba 3d 47 5d bd 3d 71 88 bf bd 78 58 c4 bd
       0.09123354 0.09246307 -0.09352196 -0.095871866
0000d0 bc c9 bb bd 24 62 bf bd 2b 5a bb bd a2 fa be bd
       -0.09169337 -0.09344891 -0.091480576 -0.09325148
0000e0 ec 71 b9 bd f5 33 bc bd 3a f7 b4 3d 01 7a b7 3d
       -0.09054932 -0.091895975 0.08836217 0.08958817
0000f0 dd 01 b8 3d 1a a3 ba 3d a1 57 b7 3d 94 d9 ba 3d
       0.089847304 0.091131404 0.08952261 0.09123531
000100 cf 94 d8 3d a2 6e db 3d 75 e0 e3 bd 5e ce e7 bd
       0.10575258 0.10714461 -0.11126796 -0.11318658
000110 65 75 e1 bd 30 29 e5 bd 4c 58 df 37 4c 58 df 37
       -0.11008719 -0.111894965 2.6624788e-05 2.6624788e-05
000120 32 68 e0 bd 57 56 e4 bd 4c 58 df 37 4c 58 df b7
       -0.10957374 -0.111492805 2.6624788e-05 -2.6624788e-05
000130 80 07 de 3d 79 0b e2 3d bf d8 d8 bd aa 54 dc bd
       0.10841274 0.110373445 -0.10588216 -0.10758336
000140 a8 3f df 3d d8 ca e2 3d fc 54 e3 bd fc 51 e7 bd
       0.10900813 0.110738456 -0.11100194 -0.11294934
000150 15 ec dd bd df 0c e2 bd 84 88 dd bd 2f df e1 bd
       -0.10836045 -0.11037611 -0.10817054 -0.11028897
000160 19 50 db bd 74 f6 de bd 75 f3 d7 3d 0e 89 db 3d
       -0.10708637 -0.10886851 0.105444826 0.107195005
000170 7c 7d db 3d 11 f2 de 3d 4a f8 db 3d f2 ca de 3d
       0.107172936 0.10886014 0.10740717 0.108785525
000180 1c be c5 3d 4d 56 c8 3d 0e 04 cf bd 0c cd d2 bd
       0.09655401 0.097820856 -0.10108195 -0.10293016
000190 0c 1b cd bd 52 d4 d0 bd 50 ac c3 b7 50 ac c3 b7
       -0.100149244 -0.10196747 -2.332605e-05 -2.332605e-05
0001a0 4c e8 cb bd 91 eb ce bd 50 ac c3 37 50 ac c3 37
       -0.099564165 -0.101035245 2.332605e-05 2.332605e-05
0001b0 4b de ca 3d b3 f5 cd 3d ee 03 c6 bd 31 fd c8 bd
       0.0990568 0.10056629 -0.09668718 -0.098139174
0001c0 b3 fc cb 3d 59 d8 ce 3d f9 2a cf bd bd 2b d2 bd
       0.09960308 0.10099859 -0.10115618 -0.10262249
0001d0 1b 15 ca bd 08 4d ce bd a3 c8 c9 bd ba 68 cd bd
       -0.09867307 -0.10073286 -0.098527215 -0.10029741
0001e0 54 cf c7 bd c3 c8 ca bd c3 62 c5 3d d6 6a c7 3d
       -0.097563416 -0.099015735 0.09637978 0.09737174
0001f0 8f be c7 3d dc 8d cb 3d ac 08 c9 3d 49 a3 cb 3d
       0.09753143 0.09939167 0.09816107 0.099432535

weight f4 [4, 16, 2]
000000 4a 97 15 3f ac ea 17 3f 4d 2e 1d bf 8a 20 1f bf
       0.58433974 0.59342456 -0.61398774 -0.62159026
000010 34 46 1a bf 18 09 1d bf f3 fd 30 39 f3 fd 30 b9
       -0.6026337 -0.61342 0.00016879271 -0.00016879271
000020 f7 66 1a bf 13 0d 1c bf f3 fd 30 39 f3 fd 30 b9
       -0.6031336 -0.6095745 0.00016879271 -0.00016879271
000030 3e 07 19 3f f0 7d 1b 3f b5 92 15 bf 1b e7 17 bf
       0.59776676 0.6073904 -0.5842698 -0.59337014
000040 1d 98 1a 3f 63 45 1c 3f 9b b7 1c bf a1 c1 1e bf
       0.60388356 0.61043376 -0.6121766 -0.62014204
000050 fa a3 18 bf 36 1c 1b bf 37 ff 17 bf 95 d9 1a bf
       -0.5962521 -0.6058992 -0.593738 -0.60488254
000060 3e 78 16 bf 44 06 19 bf 3e db 14 3f 9d 55 17 3f
       -0.58777225 -0.59775186 0.5814704 0.5911501
000070 43 7b 17 3f 41 e0 19 3f fa 8f 17 3f 6d c4 19 3f
       0.5917246 0.6010781 0.59204066 0.60065347
000080 4e 47 14 3f 8d 43 16 3f 5a ad 1d bf 19 4c 20 bf
       0.579213 0.58696824 -0.6159264 -0.62616116
000090 96 28 1c bf 4f 42 1e bf 99 e8 36 39 99 e8 36 b9
       -0.6099943 -0.6181993 0.00017443522 -0.00017443522
0000a0 50 80 1a bf 77 1e 1e bf 99 e8 36 39 99 e8 36 b9
       -0.6035204 -0.61765236 0.00017443522 -0.00017443522
0000b0 70 c7 17 3f 85 70 1a 3f fd f0 15 bf 43 e0 18 bf
       0.5928869 0.6032794 -0.58570844 -0.59717196
0000c0 d6 c0 18 3f d8 cf 1a 3f b5 95 1c bf ee 84 20 bf
       0.59669244 0.60473394 -0.61165935 -0.62702835
0000d0 ee 85 19 bf 65 76 1c bf b8 2a 19 bf c6 21 1c bf
       -0.59969985 -0.61118156 -0.5983081 -0.60989034
0000e0 90 9b 17 bf c6 dc 19 bf 1a f2 13 3f 98 ff 15 3f
       -0.59221745 -0.601025 0.5779129 0.5859313
0000f0 a9 6e 16 3f 0f 95 18 3f 7e e3 15 3f 98 c1 18 3f
       0.58762604 0.59602445 0.5855025 0.596704
000100 41 5a 1b 3f c0 65 1d 3f 6a 74 23 bf f3 45 26 bf
       0.6068459 0.61483383 -0.6384951 -0.64950484
000110 5d b8 21 bf 36 60 24 bf 3d 34 20 39 3d 34 20 39
       -0.6317194 -0.64209306 0.0001527825 0.0001527825
000120 45 f7 20 bf f9 c8 23 bf 3d 34 20 39 3d 34 20 b9
       -0.62877303 -0.63978535 0.0001527825 -0.0001527825
000130 a8 42 1f 3f 04 24 22 3f fb 8a 1b bf c0 0a 1e bf
       0.62211084 0.63336205 -0.6075894 -0.61735153
000140 91 22 20 3f 49 ad 22 3f 5f 10 23 bf bb ec 25 bf
       0.62552744 0.6354566 -0.63696855 -0.6481435
000150 fd 2e 1f bf 05 25 22 bf 93 e7 1e bf 3f 04 22 bf
       -0.62181073 -0.6333774 -0.62072104 -0.6328773
000160 d9 4f 1d bf 0f ee 1f bf 84 e6 1a 3f b4 78 1d 3f
       -0.6144996 -0.62472624 0.6050799 0.61512303
000170 67 70 1d 3f e9 ea 1f 3f 7e c8 1d 3f d9 ce 1f 3f
       0.6149964 0.6246782 0.6163405 0.62425
000180 6c a7 18 3f 2b a8 1a 3f 12 d0 1f bf 1d bc 22 bf
       0.59630466 0.60412854 -0.62426865 -0.6356829
000190 90 56 1e bf 79 36 21 bf 6e 0e 17 b9 6e 0e 17 b9
       -0.61850834 -0.62973744 -0.00014405858 -0.00014405858
0001a0 c2 69 1d bf 29 bd 1f bf 6e 0e 17 39 6e 0e 17 39
       -0.614895 -0.6239801 0.00014405858 0.00014405858
0001b0 68 9c 1c 3f 5b ff 1e 3f 52 dd 18 bf 01 29 1b bf
       0.61176157 0.6210839 -0.5971271 -0.6060944
0001c0 82 79 1d 3f 54 ae 1f 3f 1c ee 1f bf 96 3f 22 bf
       0.6151353 0.6237538 -0.624727 -0.63378274
0001d0 18 01 1c bf c7 42 1f bf 10 c6 1b bf 87 92 1e bf
       -0.6093917 -0.6221127 -0.60849094 -0.61942333
0001e0 f8 3f 1a bf c9 8b 1c bf e7 60 18 3f 65 f2 19 3f
       -0.6025386 -0.61150795 0.5952286 0.6013549
0001f0 07 33 1a 3f f1 23 1d 3f de 31 1b 3f 7b 34 1d 3f
       0.6023411 0.6138297 0.60622966 0.61408204

weight f4 [4, 16, 1]
000000 e8 5d 0a c0 1a d8 17 c0 ca a2 1d c0 3c 95 f9 bf
       -2.1619816 -2.3725648 -2.4630609 -1.9498668
000010 b9 9e 11 c0 63 17 1c 40 b2 3a 14 c0 04 67 28 40
       -2.2753127 2.4389274 -2.3160825 2.6312876
000020 a4 a1 12 c0 6c 80 13 40 1f 76 24 c0 5f b5 0a c0
       -2.2911158 2.3047132 -2.5697095 -2.16732
000030 07 e5 2b 40 53 b7 93 bf 37 d5 26 c0 2f 53 24 c0
       2.6858537 -1.1540321 -2.6067636 -2.5675771
000040 99 29 ee bf 8e e4 27 c0 af 33 30 c0 3c b8 f0 bf
       -1.8606445 -2.6233249 -2.7531545 -1.8806224
000050 25 85 12 c0 cb 96 23 40 89 ff 28 c0 84 86 2b 40
       -2.2893765 2.5560787 -2.6405966 2.6800852
000060 c0 e8 0d c0 ca a6 11 40 32 e3 2c c0 26 3a 09 c0
       -2.217331 2.275805 -2.701367 -2.144174
000070 28 f1 30 40 cd 90 cb bf 18 39 28 c0 d0 d8 14 c0
       2.764719 -1.5903565 -2.6284847 -2.3257332
000080 6a 27 09 c0 54 97 25 c0 0e 28 23 c0 4a d1 0d c0
       -2.1430306 -2.5873613 -2.5493197 -2.215899
000090 67 27 03 c0 dc 18 25 40 55 f5 1c c0 48 aa 2d 40
       -2.04928 2.5796423 -2.4524739 2.7135181
0000a0 08 59 2b c0 c7 ed 29 40 b7 32 19 c0 47 6e 0e c0
       -2.677309 2.6551378 -2.3937204 -2.2254808
0000b0 1d 2b 16 40 88 11 a9 bf b7 2f 25 c0 93 d3 24 c0
       2.3463814 -1.3208475 -2.5810373 -2.5754135
0000c0 41 75 db bf df a6 28 c0 b8 fe 12 c0 17 29 f7 bf
       -1.7145158 -2.635185 -2.2967968 -1.9309415
0000d0 01 d9 0a c0 7d e5 10 40 da 25 1c c0 ce 2a 21 40
       -2.1694949 2.2640069 -2.4398103 2.5182376
0000e0 6b 27 21 c0 94 d2 16 40 05 1e 32 c0 9d 76 1c c0
       -2.518031 2.3566027 -2.7830822 -2.4447396
0000f0 ef c5 1b 40 6c 9f a3 bf 04 b9 24 c0 cf 55 2e c0
       2.433956 -1.2783027 -2.5737925 -2.7239873

bias f4 [4]
000000 f6 cb 49 be e0 32 f5 bd ba 4f 01 3e ca c9 0b be
       -0.19706711 -0.11972594 0.1262807 -0.13651195
