weights/disc_tcngan_minmax.model (torch, 208391 bytes, 23 tensors)

bias f4 [16]
0.27322447 -0.07172346 -0.007755028 -0.13911667 0.1571031 -0.043146994 0.012749943 -0.22278939
-0.3868303 -0.089826696 -0.26903132 -0.2842554 -0.01808966 0.21413076 0.3132217 0.112442546
00000000: 14e4 8b3e c0e3 92bd e41d febb 9a74 0ebe
00000010: a3df 203e e7ba 30bd 23e5 503c e722 64be
00000020: 9f0e c6be 0ff7 b7bd 79be 89be ec89 91be
00000030: c430 94bc 1845 5b3e 985e a03e 4748 e63d

weight_g f4 [16, 1, 1]
0.6443732 0.37720504 0.51522887 0.3105056 0.96631634 0.5413115 0.6225697 0.78316873
0.520294 1.0083864 0.40025097 0.6386008 0.49629962 0.880191 0.69939774 0.5776584
00000000: a4f5 243f 0521 c13e 0ae6 033f 97fa 9e3e
00000010: 8260 773f 6493 0a3f ba60 1f3f bf7d 483f
00000020: fd31 053f ce12 813f b2ed cc3e 587b 233f
00000030: fc1a fe3e 3354 613f bb0b 333f 6ce1 133f

weight_v f4 [16, 4, 2]
-0.26900402 -0.17794706 -0.096634805 0.19735242 0.063296646 0.23090082 -0.009719949 -0.014437271
0.03775809 0.09762348 -0.056897998 0.29730457 0.1332907 -0.13040239 -0.13411948 -0.035776608
-0.039694313 -0.055224843 -0.31097278 0.1569962 0.07415402 -0.16519517 -0.061801013 -0.34437478
-0.0045341463 -0.15077652 -0.1063913 0.07618798 0.1561548 -0.015000204 -0.23476954 -0.13055071
-0.10391841 -0.050738133 -0.07213235 -0.03897595 -0.16459513 0.16600162 -0.10947944 0.2722665
0.14231187 -0.018579802 0.3206268 -0.11077682 -0.33701593 -0.045156375 -0.29671082 -0.22579537
-0.08859349 0.038893204 0.15444122 -0.096770704 0.119791955 0.16916195 0.1877966 -0.43713722
-0.23917134 0.1879457 0.37811235 -0.21951671 0.3000199 -0.2142279 -0.29275507 -0.20800869
0.13874458 0.4817452 0.046212688 0.01971945 -0.018655831 0.011924964 -0.2713954 0.12228578
-0.07626085 -0.32468992 -0.13079031 0.13004449 0.12832579 -0.138807 0.41662052 0.036942087
-0.30506623 0.121680655 -0.02881366 -0.15361498 -0.07632051 -0.15466477 0.0993421 0.08376008
-0.42888018 -0.43499216 -0.13557018 0.21635845 -0.064411685 0.15664819 0.23448415 -0.31156954
-0.20800187 0.089346156 0.13301012 -0.31975922 0.24029233 0.06996802 0.020271255 -0.19816801
-0.10245829 0.11604393 -0.1996099 -0.3830146 -0.04793364 0.10670424 -0.024103517 0.26585993
-0.016958658 -0.19069424 -0.32569027 0.19108588 0.05376023 0.13631856 0.1369162 -0.15291473
0.18365955 0.038367696 -0.30551344 0.055060923 -0.07005682 0.065249145 -0.28098187 -0.28269544
00000000: e5ba 89be c137 36be 78e8 c5bd c116 4a3e
00000010: aca1 813d 4471 6c3e 6c40 1fbc 4e8a 6cbc
00000020: 3aa8 1a3d d2ee c73d e00d 69bd 4e38 983e
00000030: 5b7d 083e 3488 05be 9e56 09be 7e8a 12bd
00000040: 8196 22bd 7233 62bd d337 9fbe 9dc3 203e
00000050: 10de 973d ec28 29be 0f23 7dbd e451 b0be
00000060: 2d93 94bb 2965 1abe afe3 d9bd 7208 9c3d
00000070: 0be7 1f3e 6ac3 75bc 6d67 70be 16af 05be
00000080: 2dd3 d4bd cad2 4fbd 20ba 93bd 3fa5 1fbd
00000090: a08b 28be 54fc 293e c236 e0bd 8466 8b3e
000000a0: 34ba 113e ab34 98bc 3229 a43e f5de e2bd
000000b0: 5a8d acbe e4f5 38bd 7bea 97be e736 67be
000000c0: 8170 b5bd 7b4e 1f3d d725 1e3e b82f c6bd
000000d0: 7c55 f53d ca38 2d3e c04d 403e 73d0 dfbe
000000e0: 55e9 74be d674 403e f197 c13e fdc8 60be
000000f0: 359c 993e 8f5e 5bbe fee3 95be 3b00 55be
00000100: 0f13 0e3e 4fa7 f63e 8449 3d3d af8a a13c
00000110: 1dd4 98bc ed60 433c 56f4 8abe f870 fa3d
00000120: a62e 9cbd c23d a6be e5ed 05be 622a 053e
00000130: d667 033e 6c23 0ebe 494f d53e 9650 173d
00000140: a431 9cbe b533 f93d a00a ecbc 3f4d 1dbe
00000150: ed4d 9cbd 7160 1ebe df73 cb3d 688a ab3d
00000160: 2f96 dbbe 4bb7 debe e9d2 0abe 128d 5d3e
00000170: 46ea 83bd 6268 203e 9d1c 703e 0b86 9fbe
00000180: 71fe 54be 1efb b63d ce33 083e 7bb7 a3be
00000190: 310f 763e 654b 8f3d e70f a63c 8eec 4abe
000001a0: a7d5 d1bd 71a8 ed3d 8a66 4cbe 7d1a c4be
000001b0: 1156 44bd c187 da3d bd74 c5bc cb1e 883e
000001c0: e2ec 8abc 5a45 43be e0c0 a6be 04ac 433e
000001d0: b033 5c3d 1897 0b3e c333 0c3e ae95 1cbe
000001e0: 4011 3c3e 7227 1d3d 426c 9cbe 9087 613d
000001f0: f379 8fbd 58a1 853d dbdc 8fbe 75bd 90be

weight f4 [16, 4, 2]
-0.37831149 -0.2502543 -0.13590151 0.2775449 0.08901669 0.32472536 -0.013669566 -0.020303732
0.035988215 0.09304748 -0.05423096 0.2833687 0.12704283 -0.12428991 -0.12783277 -0.034099612
-0.038568884 -0.05365909 -0.30215597 0.152545 0.07205158 -0.1605115 -0.060048807 -0.33461094
-0.0038085908 -0.12664922 -0.08936654 0.06399636 0.13116686 -0.012599867 -0.19720165 -0.109659955
-0.25037435 -0.1222452 -0.17379107 -0.09390616 -0.39656493 0.39995366 -0.26377276 0.6559815
0.123305716 -0.016098415 0.27780616 -0.09598225 -0.2920065 -0.039125614 -0.25708425 -0.19563976
-0.09876014 0.04335644 0.1721643 -0.10787574 0.13353883 0.18857433 0.20934743 -0.48730144
-0.2529017 0.1987353 0.39981905 -0.23211874 0.31724346 -0.22652632 -0.30956155 -0.21995007
0.12326729 0.4280054 0.04105755 0.017519698 -0.016574727 0.010594706 -0.24112059 0.10864451
-0.12889817 -0.5487998 -0.22106537 0.21980476 0.21689978 -0.23461542 0.70418346 0.06244053
-0.2886589 0.115136325 -0.027263978 -0.14535314 -0.07221577 -0.14634646 0.0939992 0.07925523
-0.34808692 -0.3530475 -0.11003121 0.17560042 -0.052277688 0.1271385 0.19031157 -0.25287545
-0.19739242 0.08478892 0.12622574 -0.30344942 0.22803585 0.066399194 0.019237287 -0.18806015
-0.16591246 0.18791193 -0.32323176 -0.6202221 -0.07761976 0.17278801 -0.039031237 0.43051153
-0.024068777 -0.2706451 -0.4622398 0.27120093 0.07629985 0.19347174 0.19431996 -0.21702607
0.19382481 0.040491283 -0.3224231 0.058108453 -0.07393435 0.068860576 -0.29653373 -0.29834217
00000000: 0bb2 c1be 5521 80be c429 0bbe 5d1a 8e3e
00000010: 624e b63d 6742 a63e 51f6 5fbc 0354 a6bc
00000020: 6168 133d ad8f be3d 4821 5ebd b415 913e
00000030: 8417 023e b58b febd 98e6 02be 09ac 0bbd
00000040: 68fa 1dbd a2c9 5bbd 30b4 9abe c234 1c3e
00000050: c78f 933d 205d 24be bdf5 75bd 2052 abbe
00000060: 8d99 79bb 55b0 01be ce05 b7bd 8610 833d
00000070: 9b50 063e ac6f 4ebc 3bef 49be 6695 e0bd
00000080: 1131 80be b15b fabd 49f6 31be df51 c0bd
00000090: 8f0a cbbe bac6 cc3e 390d 87be 67ee 273f
000000a0: b587 fc3d d3e0 83bc 9c3c 8e3e 5892 c4bd
000000b0: e081 95be 2e42 20bd 8ca0 83be ca55 48be
000000c0: c242 cabd 8696 313d d74b 303e f5ed dcbd
000000d0: 67be 083e a119 413e 2c5f 563e 937f f9be
000000e0: 557c 81be 4481 4b3e 15b5 cc3e 89b0 6dbe
000000f0: bc6d a23e 84f6 67be da7e 9ebe 973a 61be
00000100: 9073 fc3d 8623 db3e f62b 283d 7885 8f3c
00000110: b9c7 87bc 6b95 2d3c 51e8 76be 0381 de3d
00000120: e2fd 03be 257e 0cbf f65e 62be 8014 613e
00000130: fa1a 5e3e 063f 70be 5e45 343f a4c1 7f3d
00000140: 19cb 93be 98cc eb3d b558 dfbc 74d7 14be
00000150: dde5 93bd d9db 15be a782 c03d 9150 a23d
00000160: 7338 b2be a4c2 b4be 0b58 e1bd 99d0 333e
00000170: 2121 56bd 9830 023e 09e1 423e e478 81be
00000180: 3d21 4abe d0a5 ad3d 5241 013e b95d 9bbe
00000190: 3b82 693e 4dfc 873d 8497 9d3c d792 40be
000001a0: f5e4 29be fc6b 403e a27e a5be e0c6 1ebf
000001b0: 1cf7 9ebd 57ef 303e 38df 1fbd 026c dc3e
000001c0: e22b c5bc ff91 8abe b2aa ecbe d9da 8a3e
000001d0: 1943 9c3d 751d 463e d0fb 463e 153c 5ebe
000001e0: 037a 463e 30da 253d a414 a5be 2103 6e3d
000001f0: e46a 97bd c606 8d3d 45d3 97be 4ec0 98be

bias f4 [16]
0.041538164 0.0075760554 -0.10988787 -0.17896119 -0.083603814 -0.13928269 0.12416072 0.058702104
-0.12701063 -0.129795 0.029623471 0.11826423 -0.11699301 -0.07617821 0.07650029 0.000783409
00000000: ec23 2a3d 8f40 f83b e40c e1bd 9a41 37be
00000010: 7a38 abbd 1fa0 0ebe fa47 fe3d 9e71 703d
00000020: 130f 02be fbe8 04be ecac f23c 8434 f23d
00000030: 089a efbd 5203 9cbd 2fac 9c3d b05d 4d3a

weight_g f4 [16, 1, 1]
0.5616891 0.7377472 0.73772705 0.6043149 0.53455704 0.51625067 1.323576 0.7187894
0.5828637 0.58718157 0.67344403 1.1165599 0.6359007 0.6743163 0.66480166 0.6513198
00000000: dbca 0f3f 00dd 3c3f aedb 3c3f 62b4 1a3f
00000010: bbd8 083f 0129 043f f06a a93f 9502 383f
00000020: 8e36 153f 8851 163f d466 2c3f 6feb 8e3f
00000030: 63ca 223f fe9f 2c3f 7130 2a3f e5bc 263f

weight_v f4 [16, 16, 2]
-0.004143225 0.06778683 0.009543849 0.014592518 -0.02197773 5.462272e-30 -0.07039414 -6.422791e-08
-0.28060547 -0.2946988 -0.029267062 -2.7054272e-16 0.0017222376 0.09168797 -0.06477358 -0.037678964
-0.08222457 -0.0066617676 -0.16917285 -0.13654855 0.032340065 -0.044316895 0.082590714 -2.243147e-09
0.07555347 -0.027755655 0.00889633 0.0049790293 -0.07070787 0.05793114 5.0344333e-08 0.006860647
-0.004062089 -0.06653495 0.036723044 0.015516417 -0.0058583505 0.005829609 -0.0058489763 -0.005859392
0.36624324 0.3359328 0.0063102557 -0.015948445 -0.030753661 -0.106301725 -0.005478548 0.0058654775
0.029730663 0.0541039 0.4265232 0.3506946 -0.0053869355 -0.005870315 -0.0058672777 -0.0057058665
0.045209337 0.05731283 -0.05790212 0.11747963 0.06590538 -0.068318576 0.01391871 0.0055812076
0.12507553 0.038656868 0.014629875 0.061447617 -2.5816692e-17 0.062386427 0.022424782 -0.085868776
0.29114455 0.22807863 3.130432e-29 8.0611363e-16 0.20466346 -0.10197038 -0.08696028 -0.005904073
0.15250978 0.14766374 0.2562869 0.30186978 -0.08901921 3.8461534e-15 -0.011866235 -0.08447117
-0.10929789 -0.063506 -0.1067493 -0.14375776 0.103603505 0.011326151 -0.08487982 8.413555e-09
0.11713365 0.1595736 0.03159722 -0.11959684 -0.099772185 -0.19750963 -0.2157288 -0.16729887
-0.058813654 -0.14385784 0.09095421 -0.06735428 0.11153492 0.09880638 -0.20938952 0.10275169
-0.02247746 0.049796224 -0.100596 0.036060464 0.17801724 0.08999305 -0.20222256 -0.136855
-0.16145515 -0.017358435 0.086041816 -0.22199316 0.111928545 0.04270127 0.10480022 0.16448435
-0.1598291 -0.12866595 -0.12859264 -0.06328004 -0.026151469 0.06907239 0.14466675 -0.022753574
0.09971095 -0.19011652 -0.079065494 0.1419794 -0.12956153 -0.03228409 0.13188507 -0.024687428
0.12700143 -0.04366135 -0.07408242 -0.1874028 0.12762997 -0.08250155 -0.02521271 0.1502594
0.1190382 0.06037362 0.21216407 0.022805404 0.033797264 0.005979532 -0.022599412 0.10731971
-0.064936854 -0.09768838 0.063167416 -0.052051995 -0.17275012 -0.08073868 -0.13270865 -0.14619629
-0.20542479 -0.13567843 -0.143337 -0.12908415 0.06253186 0.049663145 0.2017601 0.08728592
-0.10363487 0.15170415 -0.0316958 -0.023541914 0.12768732 0.08622874 0.15689574 -0.11363071
-0.0031470603 0.24124293 -0.069802366 0.13926965 -0.0024725643 -0.03405874 -0.20209931 -0.1331588
-0.08050367 0.0054301536 -0.04433991 -0.12810314 -2.9494714e-14 7.446041e-29 -3.6439797e-20 4.3067577e-15
0.26416227 0.2532621 2.0964097e-28 -5.658885e-25 -0.12441991 0.12933572 -2.293243e-07 3.0110834e-13
0.06534402 -0.14407535 0.2970604 0.41396827 3.1989973e-13 8.5645754e-15 -1.3848088e-20 -7.7019027e-22
3.58986e-22 -0.0003803358 0.015572547 -0.0025538504 -0.058620483 0.100802645 1.6047537e-30 1.4384277e-07
-0.25564602 -0.22169603 -0.0035195192 0.09409827 0.0054764687 -0.005477983 0.008208913 -0.0054949056
-0.014245285 -0.0714282 0.005502974 0.005490257 -0.010137038 -0.048560165 -0.0054591727 -0.0066884244
0.15507858 0.055949766 -0.03498138 -0.06636653 0.005482385 -0.005499518 0.005477177 0.0053987103
0.005510792 0.0055364314 0.05714234 -0.010408789 -0.22297893 -0.28158802 0.005844772 -0.0054519614
00000000: e4c3 87bb d2d3 8a3d ce5d 1c3c 7515 6f3c
00000010: a40a b4bc 7a93 dd0e ce2a 90bd abed 89b3
00000020: 85ab 8fbe c3e2 96be 7ac1 efbc 0ff5 9ba5
00000030: b4bc e13a e7c6 bb3d 03a8 84bd 4255 1abd
00000040: 5b65 a8bd f54a dabb a63b 2dbe 62d3 0bbe
00000050: 0477 043d a285 35bd 5225 a93d dc25 1ab1
00000060: c7bb 9a3d d45f e3bc eac1 113c 2027 a33b
00000070: 4acf 90bd 3449 6d3d 2e3a 5833 47cf e03b
00000080: 461b 85bb 7a43 88bd e76a 163d 9238 7e3c
00000090: 68f7 bfbb 4e06 bf3b c5a8 bfbb 2500 c0bb
000000a0: 3c84 bb3e 62ff ab3e 43c6 ce3b 50a6 82bc
000000b0: 1aef fbbc b8b4 d9bd 6485 b3bb 3133 c03b
000000c0: b88d f33c 0d9c 5d3d 4061 da3e 3e8e b33e
000000d0: e484 b0bb c55b c0bb 4b42 c0bb 47f8 babb
000000e0: 6d2d 393d dcc0 6a3d c62a 6dbd 2999 f03d
000000f0: 66f9 863d 9cea 8bbd 4d0b 643c 90e2 b63b
00000100: cd13 003e aa56 1e3d 25b2 6f3c 7fb0 7b3d
00000110: f11d eea3 e988 7f3d 2db4 b73c f8db afbd
00000120: e610 953e 728d 693e 55bb 1e10 b058 6826
00000130: 4c93 513e d9d5 d0bd 3b18 b2bd f476 c1bb
00000140: 862b 1c3e 2a35 173e 0938 833e ad8e 9a3e
00000150: b44f b6bd 8192 8a27 996a 42bc 39ff acbd
00000160: 92d7 dfbd 6f0f 82bd 619f dabd 3c35 13be
00000170: 132e d43d 5291 393c 79d5 adbd 358b 1032
00000180: c4e3 ef3d 4367 233e 166c 013d 30ef f4bd
00000190: 5c55 ccbd f73f 4abe 03e8 5cbe 6550 2bbe
000001a0: 96e6 70bd 784f 13be 3346 ba3d 0af1 89bd
000001b0: 6c6c e43d 005b ca3d 356a 56be 7a6f d23d
000001c0: a622 b8bc 20f7 4b3d 4705 cebd 23b4 133d
000001d0: 274a 363e 474e b83d 6e13 4fbe b823 0cbe
000001e0: 8054 25be 4733 8ebc b136 b03d 2d52 63be
000001f0: cb3a e53d 87e7 2e3d 7fa1 d63d 966e 283e
00000200: 3daa 23be 02c1 03be caad 03be f798 81bd
00000210: 9b3b d6bc d375 8d3d 8523 143e b465 babc
00000220: 4135 cc3d e8ad 42be 17ed a1bd 0c63 113e
00000230: c7ab 04be 523c 04bd e10c 073e 4a3d cabc
00000240: aa0c 023e 3ed6 32bd 86b8 97bd 85e6 3fbe
00000250: 6eb1 023e 93f6 a8bd e38a cebc 9add 193e
00000260: 4dca f33d 544a 773d 8a41 593e 66d2 ba3c
00000270: 006f 0a3d f3ef c33b 6722 b9bc 70ca db3d
00000280: 9dfd 84bd d810 c8bd eb5d 813d 7934 55bd
00000290: 68e5 30be 525a a5bd c7e4 07be 7bb4 15be
000002a0: e05a 52be 49ef 0abe efc6 12be a32e 04be
000002b0: b410 803d 956b 4b3d 339a 4e3e f6c2 b23d
000002c0: 853e d4bd 5558 1b3e 75d3 01bd f9da c0bc
000002d0: 77c0 023e b298 b03d 47a9 203e 38b7 e8bd
000002e0: e93e 4ebb 6308 773e 8bf4 8ebd b49c 0e3e
000002f0: bf0a 22bb 2d81 0bbd 1ff3 4ebe c85a 08be
00000300: 1cdf a4bd 6eef b13b c49d 35bd 782d 03be
00000310: 17d5 04a9 92c7 bc10 0315 2c9f d42a 9b27
00000320: 4740 873e 92ab 813e 31e0 8411 4e22 2f97
00000330: decf febd 9570 043e 2f3c 76b4 4982 a92a
00000340: 16d3 853d 7d88 13be 4d18 983e a6f3 d33e
00000350: 6916 b42a 2249 1a28 9fca 829e 96c6 689c
00000360: 65fe d81b cf67 c7b9 ff23 7f3c 805e 27bb
00000370: 081c 70bd 9e71 ce3d 6e31 020e 3373 1a34
00000380: 09e4 82be 4904 63be bca7 66bb 98b6 c03d
00000390: f373 b33b a780 b3bb ad7e 063c 9c0e b4bb
000003a0: 0e65 69bc f348 92bd 4b52 b43b 9de7 b33b
000003b0: d215 26bc 06e7 46bd dce2 b2bb 922a dbbb
000003c0: ebcc 1e3e 952b 653d a348 0fbd 2deb 87bd
000003d0: 94a5 b33b 4d35 b4bb e479 b33b aae7 b03b
000003e0: e093 b43b f46a b53b 160e 6a3d a089 2abc
000003f0: 9754 64be 4e2c 90be 8085 bf3b 5ea6 b2bb

weight f4 [16, 16, 2]
-0.004481117 0.07331504 0.010322178 0.01578258 -0.023770077 5.9077363e-30 -0.07613499 -6.9465884e-08
-0.30348966 -0.31873235 -0.031653874 -2.9260626e-16 0.001862691 0.09916539 -0.07005605 -0.040751792
-0.08893023 -0.0072050537 -0.18296939 -0.14768447 0.034977492 -0.047931064 0.089326225 -2.426082e-09
0.08171507 -0.030019209 0.009621852 0.0053850836 -0.07647431 0.06265559 5.445006e-08 0.0074201524
-0.0038486042 -0.06303818 0.03479305 0.014700945 -0.0055504623 0.0055232313 -0.0055415807 -0.005551449
0.34699515 0.3182777 0.0059786174 -0.015110267 -0.02913739 -0.10071499 -0.0051906207 0.0055572144
0.028168153 0.051260445 0.4041071 0.33226368 -0.005103823 -0.005561798 -0.00555892 -0.005405992
0.04283334 0.05430073 -0.054859046 0.11130543 0.062441688 -0.06472806 0.013187205 0.0052878843
0.12885994 0.03982651 0.015072531 0.06330684 -2.6597827e-17 0.06427406 0.02310329 -0.08846691
0.2999537 0.2349796 3.2251496e-29 8.305042e-16 0.21085596 -0.1050557 -0.089591436 -0.006082712
0.15712427 0.1521316 0.26404136 0.31100345 -0.09171266 3.9625264e-15 -0.012225272 -0.08702702
-0.112604916 -0.0654275 -0.10997922 -0.14810744 0.10673824 0.011668847 -0.08744804 8.668125e-09
0.09625522 0.13113049 0.02596519 -0.098279364 -0.08198834 -0.16230462 -0.17727634 -0.13747877
-0.048330445 -0.11821597 0.07474212 -0.05534875 0.09165444 0.081194684 -0.172067 0.08443677
-0.018470975 0.04092032 -0.08266532 0.029632885 0.14628665 0.07395229 -0.1661775 -0.11246135
-0.13267666 -0.014264389 0.07070533 -0.1824241 0.091977894 0.035090003 0.08612015 0.13516591
-0.13871199 -0.11166622 -0.11160259 -0.05491929 -0.022696259 0.05994634 0.12555295 -0.019747304
0.08653684 -0.16499776 -0.068619125 0.12322065 -0.11244347 -0.028018618 0.114460014 -0.021425651
0.110221624 -0.03789268 -0.06429443 -0.16264258 0.11076711 -0.0716012 -0.021881532 0.13040668
0.10331052 0.052396875 0.18413232 0.019792285 0.029331869 0.005189498 -0.01961351 0.09314031
-0.048032194 -0.0722577 0.046723384 -0.038501583 -0.12777902 -0.05972042 -0.09816133 -0.10813781
-0.15194768 -0.100357994 -0.10602285 -0.095480375 0.04625328 0.03673461 0.14923699 0.06456325
-0.07665617 0.11221183 -0.023444604 -0.017413376 0.09444717 0.063781284 0.11605193 -0.08404984
-0.0023278033 0.17844146 -0.051631097 0.10301434 -0.0018288952 -0.025192412 -0.14948788 -0.09849429
-0.1522948 0.010272627 -0.08388112 -0.24234226 -5.579735e-14 1.4086231e-28 -6.893588e-20 8.147414e-15
0.4997355 0.47911483 3.9659344e-28 -1.0705335e-24 -0.23537444 0.24467401 -4.3382988e-07 5.696291e-13
0.12361616 -0.2725581 0.5619713 0.78313464 6.051782e-13 1.6202246e-14 -2.6197461e-20 -1.4570263e-21
6.791206e-22 -0.00071950967 0.029459748 -0.0048313094 -0.110896744 0.19069588 3.035832e-30 2.721181e-07
-0.3372563 -0.29246843 -0.004643061 0.12413742 0.0072247307 -0.007226729 0.010829457 -0.007249053
-0.01879283 -0.09423035 0.0072596977 0.0072429203 -0.013373102 -0.0640621 -0.0072019133 -0.008823581
0.20458455 0.073810704 -0.046148542 -0.08755283 0.007232535 -0.0072551384 0.007225665 0.007122149
0.007270011 0.0073038354 0.075383976 -0.0137316035 -0.29416084 -0.3714798 0.007710608 -0.0071924
00000000: 55d6 92bb 3226 963d 5a1e 293c 784a 813c
00000010: 77b9 c2bc 71a5 ef0e a9ec 9bbd 462d 95b3
00000020: ff62 9bbe e330 a3be 7ea7 01bd 10ad a8a5
00000030: 8a25 f43a 3917 cb3d 8c79 8fbd 5aeb 26bd
00000040: 0d21 b6bd 5f18 ecbb 545c 3bbe 993a 17be
00000050: 8f44 0f3d 5d53 44bd abf0 b63d 16b8 26b1
00000060: 3b5a a73d d8ea f5bc f9a4 1d3c 5b75 b03b
00000070: 909e 9cbd 9351 803d 79dc 6933 c024 f33b
00000080: dd38 7cbb 291a 81bd 2883 0e3d 3bdc 703c
00000090: a7e0 b5bb 39fc b43b 2696 b5bb eee8 b5bb
000000a0: 59a9 b13e 4bf5 a23e 47e8 c33b 0e91 77bc
000000b0: 89b1 eebc a943 cebd 1516 aabb 4b19 b63b
000000c0: e6c0 e63c 79f6 513d 20e7 ce3e 771e aa3e
000000d0: f83d a7bb be3f b6bb 9a27 b6bb bf24 b1bb
000000e0: 0372 2f3d 716a 5e3d e1b3 60bd 1af4 e33d
000000f0: dbc2 7f3d 2590 84bd 260f 583c fd45 ad3b
00000100: dcf3 033e 1f21 233d c7f2 763c 04a7 813d
00000110: 5852 f5a3 1ea2 833d 1c43 bd3c 242e b5bd
00000120: 8893 993e 7e9e 703e d688 2310 6560 6f26
00000130: a0ea 573e 7127 d7bd b77b b7bd 7d51 c7bb
00000140: 2fe5 203e 63c8 1b3e 6e30 873e d83b 9f3e
00000150: d9d3 bbbd dbc3 8e27 824c 48bc 393b b2bd
00000160: 689d e6bd dafe 85bd c93c e1bd 7aa9 17be
00000170: 9499 da3d b12e 3f3c f517 b3bd d1ea 1432
00000180: 7521 c53d 1247 063e f3b4 d43c b146 c9bd
00000190: 81e9 a7bd 2f33 26be ee87 35be 3cc7 0cbe
000001a0: 25f6 45bd 371b f2bd 6612 993d 5fb5 62bd
000001b0: 53b5 bb3d 6649 a63d 5532 30be 2fed ac3d
000001c0: 7150 97bc 119c 273d 6f4c a9bd aac0 f23c
000001d0: 2bcc 153e 4c74 973d 6f2a 2abe 2352 e6bd
000001e0: 64dc 07be 2fb5 69bc f5cd 903d 62cd 3abe
000001f0: e85e bc3d 89ba 0f3d c35f b03d ef68 0a3e
00000200: 840a 0ebe 42b1 e4bd e68f e4bd 0df3 60bd
00000210: 81ed b9bc 4b8a 753d f490 003e 19c5 a1bc
00000220: 3a3a b13d 2cf5 28be 2f88 8cbd 1c5b fc3d
00000230: c348 e6bd 4d87 e5bc 036a ea3d d984 afbc
00000240: e0bb e13d 5b35 1bbd ccac 83bd c78b 26be
00000250: ded9 e23d a6a3 92bd e640 b3bc 5489 053e
00000260: 7794 d33d 1b9e 563d 2f8d 3c3e 6e23 a23c
00000270: 6349 f03c aa0c aa3b 83ac a0bc 59c0 be3d
00000280: 68bd 44bd d8fb 93bd 0561 3f3d d6b3 1dbd
00000290: 81d8 02be 669d 74bd cf08 c9bd 5b77 ddbd
000002a0: 2c98 1bbe 7e88 cdbd 8222 d9bd 378b c3bd
000002b0: 1474 3d3d 0877 163d 95d1 183e bd39 843d
000002c0: e9fd 9cbd 51cf e53d e60e c0bc 7fa6 8ebc
000002d0: 856d c13d c39f 823d a2ac ed3d 5322 acbd
000002e0: 0f8e 18bb 5cb9 363e 217b 53bd 2ff9 d23d
000002f0: 8ab7 efba 5160 cebc 5a13 19be 60b7 c9bd
00000300: 2bf3 1bbe 854e 283c ddc9 abbd 9228 78be
00000310: f749 7ba9 6f90 3211 2fc5 a29f 51c5 1228
00000320: 55dd ff3e 8a4e f53e f75e fb11 33a8 a597
00000330: ff05 71be d38b 7a3e 20e9 e8b4 1a56 202b
00000340: 782a fd3d bc8c 8bbe 5add 0f3f 837b 483f
00000350: af57 2a2b d6ef 9128 936d f79e fa2d dc9c
00000360: 6940 4d1c 7a9d 3cba 9255 f13c f64f 9ebb
00000370: d51d e3bd c845 433e c44b 760e a017 9234
00000380: dcac acbe 6cbe 95be d224 98bb c23b fe3d
00000390: 6fbd ec3b 32ce ecbb 096e 313c 7789 edbb
000003a0: 6cf3 99bc d7fb c0bd c2e2 ed3b 0556 ed3b
000003b0: db1a 5bbc fe32 83bd 07fe ebbb c890 10bc
000003c0: 9d7e 513e 112a 973d 4106 3dbd e64e b3bd
000003d0: e7fe ec3b 83bc edbb 45c5 ec3b eb60 e93b
000003e0: 4639 ee3b 0355 ef3b ea62 9a3d 85fa 60bc
000003f0: 409c 96be 9a32 bebe 45a9 fc3b 39ae ebbb

weight f4 [16, 4, 1]
0.32436523 0.20962477 0.23606728 -0.018582545 0.34139848 0.05720576 0.059509132 0.4880753
0.034126893 -0.15893121 0.31261003 -0.43346676 -0.19900675 0.047173142 -0.14972088 0.39200148
0.11653165 0.5002881 -0.36950493 -0.10420497 -0.23553212 -0.36578324 0.37274933 0.2250885
0.0082450695 -0.3691546 -0.0964331 -0.51082665 0.20222223 0.34595835 -0.37246782 -0.21022716
0.12125182 0.39631948 -0.47316802 -0.40746003 -0.06614849 0.32129464 0.0076842587 -0.0463889
0.09865488 0.40618214 0.17651531 0.1065413 0.35336697 -0.12876342 -0.19965288 -0.24420692
-0.22423573 0.13341886 0.06955143 0.14195393 0.13123068 -0.014730428 -0.1880541 -0.3177566
-0.40824863 0.44126028 0.0008181108 0.018160332 -0.48074818 0.09628482 -0.3513995 -0.35228884
00000000: 3313 a63e e0a7 563e 9fbb 713e 6c3a 98bc
00000010: c8cb ae3e 9650 6a3d d9bf 733d 01e5 f93e
00000020: a4c8 0b3d ddbe 22be 6c0e a03e 5bef ddbe
00000030: 6dc8 4bbe a038 413d 6e50 19be 6bb4 c83e
00000040: 25a8 ee3d e212 003f c02f bdbe 6a69 d5bd
00000050: 552f 71be f147 bbbe 00d9 be3e 9a7d 663e
00000060: 5416 073c d501 bdbe b87e c5bd 89c5 02bf
00000070: 5813 4f3e 7421 b13e 1ab4 bebe ca45 57be
00000080: e052 f83d 63ea ca3e 1443 f2be 9a9e d0be
00000090: dc78 87bd bb80 a43e 3ccc fb3b 4a02 3ebd
000000a0: 920b ca3d 1bf7 cf3e 6ec0 343e 5332 da3d
000000b0: 84ec b43e 8fda 03be ce71 4cbe 6111 7abe
000000c0: 0d9e 65be f49e 083e fb70 8e3d 5f5c 113e
000000d0: 5661 063e e557 71bc 4191 40be feb0 a2be
000000e0: f705 d1be deec e13e 7d76 563a fac4 943c
000000f0: a024 f6be fa30 c53d a3ea b3be 345f b4be

bias f4 [16]
-0.06692217 -0.06606418 0.08341922 0.19732921 -0.014554688 -0.43675277 0.4307548 0.019798895
-0.1935866 0.09800557 0.20930159 0.16938521 0.24062568 -0.15062973 -0.24995904 0.0049575362
00000000: 7e0e 89bd a84c 87bd b2d7 aa3d ab10 4a3e
00000010: c976 6ebc 0f9e dfbe e58b dc3e 4b31 a23c
00000020: 913b 46be 25b7 c83d 2853 563e 5173 2d3e
00000030: 9466 763e ae3e 1abe 43f5 7fbe d472 a23b

bias f4 [16]
0.13484453 -0.10922043 -0.19135341 -0.050365966 0.08556208 0.12832174 -0.031713657 -0.14793772
-0.19383888 0.041287597 -0.048992563 0.016653385 0.13060895 0.098285325 0.09979419 -0.020787362
00000000: af14 0a3e f6ae dfbd 26f2 43be 8b4c 4ebd
00000010: 2c3b af3d c666 033e 2ee6 01bd fc7c 17be
00000020: b37d 46be 2f1d 293d 6dac 48bd ae6c 883c
00000030: 5abe 053e d149 c93d e560 cc3d 424a aabc

weight_g f4 [16, 1, 1]
0.7572228 0.5649532 0.66394925 0.5351422 0.6886059 0.65388495 0.4920913 0.54763013
0.8293772 0.74750125 0.71434224 0.7996449 1.2505573 0.6225921 1.0488302 0.6315641
00000000: 5ad9 413f c6a0 103f 94f8 293f 14ff 083f
00000010: 7a48 303f 0165 273f 64f3 fb3e 7d31 0c3f
00000020: 1052 543f 3e5c 3f3f 22df 363f 87b5 4c3f
00000030: 4312 a03f 3262 1f3f 1140 863f 2fae 213f

weight_v f4 [16, 16, 2]
-0.14812708 0.074040204 -0.16794683 0.10682619 0.19129208 -0.04027924 0.13999087 0.04058572
0.025592979 -0.12882413 0.09607489 -0.002098143 -0.06777802 0.107950985 -0.023366105 0.0020211323
0.116912976 -0.1428302 0.044618618 0.09594163 -0.1139036 0.2198978 0.01564723 -0.17139573
-0.105434515 -0.13736542 0.12113529 -0.13423203 -0.019451588 0.14072002 0.12567435 -0.16217959
0.08348424 -0.004607884 -0.1817109 0.061815977 -0.22712052 -0.07568354 -0.035542883 0.12531649
-0.067626625 0.109036945 0.0036395413 0.2075621 -0.029343372 0.15007742 0.13257006 -0.06480583
-0.02160735 -0.051294092 -0.032485545 -0.15181471 0.11079983 0.064867355 0.16141075 0.19086893
0.078829825 0.055056833 -0.047834493 0.17798556 -0.061236005 0.002466232 0.12733531 0.042432975
0.0370753 -0.16008253 0.17433918 0.06002459 -0.059810776 0.17311491 -0.013978684 0.014101811
-0.0055402485 -0.1312644 0.053029854 0.059380427 0.16597769 0.13347381 -0.12336372 -0.1433045
0.0052216044 -0.11260962 -0.07393888 -0.18547101 0.10174177 -0.14565416 0.03034355 -0.0063693374
0.017586648 -0.18604414 -0.0598483 0.0061740465 -0.22419935 -0.24674858 -0.11206304 0.021951191
-0.15015528 0.06683956 -0.10150248 -0.019789705 -0.015345509 -0.1720723 0.0074587986 0.024948204
0.2123986 0.080663145 0.0030856954 0.0018253124 -0.06086773 -0.046011668 -0.06727747 0.09337544
-0.057539705 0.1175377 -0.038739003 -0.008852331 -0.014935551 0.076258324 0.2159855 0.21071608
0.11421292 -0.11496854 -0.002573772 -0.0009690155 0.096753426 0.035029016 0.056990664 -0.003540229
-0.03692106 0.10197132 -0.18587221 0.05583185 0.20720303 0.05845 -0.07797107 -0.14246118
-0.21914858 -0.14941283 -0.12517421 0.02713658 0.050844852 0.119553536 0.068085365 -0.06855387
-0.04066395 0.0416177 0.015979769 0.080924995 -0.002491699 0.11737915 -0.0727654 -0.06670228
0.07186176 -0.01272425 0.14061698 -0.072947524 0.058984604 -0.1380153 0.034505725 -0.13575795
0.002314033 -0.027243327 0.07102014 -0.026906436 0.07793008 0.17571524 -0.092129186 0.036921006
-0.171536 0.041406922 -0.077716574 -0.02080063 0.10254505 0.07080586 0.0025119756 0.13296184
-0.07523626 0.18794957 -0.008232744 0.015644554 0.15569015 0.09494904 0.04286546 -0.13278835
-0.079921216 0.0017784924 0.037410192 0.104974784 -0.13834855 -0.14473392 0.113459125 -0.09259924
-0.070289195 0.07556037 -0.061694283 0.05432702 -0.3046936 -0.011687183 0.0005869891 0.08682391
-0.10053533 -0.098990336 -0.05020574 -0.014985475 0.0010897521 -0.009712526 -0.02977206 -0.21394011
0.07310095 0.041540943 -0.13387497 -0.10933148 -0.07108258 0.048289023 -0.14836128 0.15018862
-0.0046202275 0.06781823 -0.17679629 -0.10187536 0.19989608 -0.07134309 -0.02799325 -0.010343578
-0.07045788 -0.031864 0.0441282 0.029844768 0.10448846 -0.05528049 0.0712132 0.044848707
-0.103074975 0.008794793 0.23060499 0.0506378 0.09813998 0.05804313 -0.2592704 -0.058329266
-0.021297786 -0.033876374 0.019577373 -0.07745071 -0.073733054 -0.13422282 -0.1617195 -0.027025554
0.049121596 0.09385358 -0.071226366 -0.09545177 -0.17277707 0.08810515 0.062847815 -0.08922462
00000000: a0ae 17be 64a2 973d 41fa 2bbe b1c7 da3d
00000010: 12e2 433e d8fb 24bd c459 0f3e 363d 263d
00000020: 5ea8 d13c 79ea 03be e9c2 c43d 0081 09bb
00000030: 34cf 8abd 6815 dd3d 466a bfbc f974 043b
00000040: 1270 ef3d 1442 12be 03c2 363d 0c7d c43d
00000050: 4a46 e9bd e42c 613e 9f2e 803c 5d82 2fbe
00000060: 0dee d7bd 85a9 0cbe c715 f83d 1f74 09be
00000070: f058 9fbc e918 103e c7b0 003e 6812 26be
00000080: c9f9 aa3d bcfd 96bb 6c12 3abe c032 7d3d
00000090: 4892 68be f9ff 9abd 6a95 11bd f752 003e
000000a0: d47f 8abd c34e df3d 5f85 6e3b 298b 543e
000000b0: 8361 f0bc e5ad 193e 72c0 073e ebb8 84bd
000000c0: e601 b1bc c119 52bd 900f 05bd 5175 1bbe
000000d0: 05eb e23d 2dd9 843d dc48 253e 2573 433e
000000e0: 8871 a13d 4683 613d 1aee 43bd d941 363e
000000f0: 9bd2 7abd 82a0 213b 3064 023e 33ce 2d3d
00000100: 45dc 173d adec 23be f885 323e 58dc 753d
00000110: 25fc 74bd 0945 313e da06 65bc 480b 673c
00000120: f98a b5bb 2d6a 06be d535 593d e438 733d
00000130: 0ef6 293e 5cad 083e 1ea6 fcbd 6abe 12be
00000140: fe19 ab3b df9f e6bd 446d 97bd 1dec 3dbe
00000150: fd5d d03d 5d26 15be 0993 f83c e0b5 d0bb
00000160: e011 903c 5b82 3ebe 7e23 75bd a84f ca3b
00000170: 8494 65be a9ab 7cbe 4f81 e5bd fcd2 b33c
00000180: 4ec2 19be 2ee3 883d 88e0 cfbd 051e a2bc
00000190: bb6b 7bbc b933 30be f068 f43b 2d60 cc3c
000001a0: 057f 593e b832 a53d 6139 4a3b 523f ef3a
000001b0: 7150 79bd bb76 3cbd c5c8 89bd 9f3b bf3d
000001c0: c1ae 6bbd 9bb7 f03d caac 1ebd 5e09 11bc
000001d0: 3eb4 74bc 532d 9c3d 4e2b 5d3e f5c5 573e
000001e0: 77e8 e93d a074 ebbd bbac 28bb 8805 7eba
000001f0: a926 c63d 967a 0f3d 0b6f 693d 3003 68bb
00000200: 8a3a 17bd 57d6 d03d 4955 3ebe f0af 643d
00000210: 082d 543e 4469 6f3d 4caf 9fbd 58e1 11be
00000220: 7c68 60be adff 18be ab2d 00be 884d de3c
00000230: b142 503d 7cd8 f43d 5770 8b3d f965 8cbd
00000240: 3e8f 26bd 5277 2a3d 01e8 823c 01bc a53d
00000250: c64b 23bb 7b64 f03d 0706 95bd 349b 88bd
00000260: 422c 933d 5f79 50bc e6fd 0f3e 8365 95bd
00000270: d799 713d e253 0dbe e055 0d3d 2204 0bbe
00000280: 08a7 173b 662d dfbc 0273 913d e36a dcbc
00000290: ce99 9f3d b2ee 333e 3aae bcbd 7b3a 173d
000002a0: 22a7 2fbe 4e9a 293d de29 9fbd 1566 aabc
000002b0: 2403 d23d aa02 913d f59f 243b 2627 083e
000002c0: 7815 9abd da75 403e a2e2 06bc 0229 803c
000002d0: 3d6d 1f3e a474 c23d b193 2f3d abf9 07be
000002e0: bcad a3bd 4d1c e93a 6e3b 193d 05fd d63d
000002f0: 3eab 0dbe 2135 14be 425d e83d aca4 bdbd
00000300: c8f3 8fbd 65bf 9a3d 25b3 7cbd 0286 5e3d
00000310: cd00 9cbe 997b 3fbc 2ce0 193a bcd0 b13d
00000320: 78e5 cdbd 72bb cabd 89a4 4dbd a385 75bc
00000330: 03d6 8e3a 4921 1fbc 89e4 f3bc 1e13 5bbe
00000340: f3b5 953d d626 2a3d 8516 09be 2fe9 dfbd
00000350: be93 91bd b6ca 453d 05ec 17be 0ccb 193e
00000360: 4765 97bb 49e4 8a3d 160a 35be 07a4 d0bd
00000370: 8fb1 4c3e 531c 92bd 1a52 e5bc 1c78 29bc
00000380: 394c 90bd d383 02bd c5bf 343d 047d f43c
00000390: 0cfe d53d cc6d 62bd 3ad8 913d 47b3 373d
000003a0: f918 d3bd 0918 103c b723 6c3e 9569 4f3d
000003b0: 9dfd c83d a2be 6d3d 17bf 84be abea 6ebd
000003c0: b278 aebc f4c1 0abd ba60 a03c 7a9e 9ebd
000003d0: 5b01 97bd b571 09be cc99 25be b264 ddbc
000003e0: ba33 493d 4e36 c03d 21df 91bd 387c c3bd
000003f0: 79ec 30be 7970 b43d 5bb6 803d 66bb b6bd

weight f4 [16, 16, 2]
-0.17086096 0.08540356 -0.19372256 0.123221405 0.22065072 -0.046461117 0.16147605 0.04681463
0.029520873 -0.14859548 0.110820025 -0.0024201565 -0.07818028 0.12451881 -0.02695223 0.0023313265
0.13485625 -0.16475113 0.051466484 0.11066632 -0.131385 0.25364673 0.018048698 -0.19770077
-0.121616125 -0.15844764 0.1397266 -0.15483336 -0.022436932 0.1623171 0.14496228 -0.18707019
0.07514154 -0.004147412 -0.16355225 0.05563862 -0.20442404 -0.068120375 -0.03199103 0.11279342
-0.060868602 0.098140724 0.0032758366 0.18682012 -0.026411047 0.13507996 0.11932214 -0.05832969
-0.019448096 -0.046168197 -0.029239217 -0.13664365 0.09972744 0.058385067 0.14528073 0.17179511
0.07095225 0.049554925 -0.043054324 0.16019921 -0.055116605 0.002219778 0.11461051 0.038192585
0.036798283 -0.15888645 0.17303656 0.059576105 -0.059363887 0.17182146 -0.01387424 0.0139964465
-0.0054988535 -0.13028364 0.05263363 0.058936752 0.16473755 0.13247654 -0.122441985 -0.14223377
0.0051825903 -0.11176823 -0.07338643 -0.18408522 0.10098159 -0.14456588 0.030116832 -0.006321748
0.017455246 -0.18465407 -0.059401132 0.006127916 -0.22252421 -0.24490495 -0.11122574 0.021787178
-0.14798369 0.06587291 -0.10003451 -0.019503498 -0.015123577 -0.16958374 0.0073509268 0.024587395
0.20932682 0.07949656 0.003041069 0.001798914 -0.059987444 -0.045346234 -0.06630448 0.09202501
-0.056707546 0.11583783 -0.03817875 -0.008724306 -0.014719549 0.07515545 0.21286185 0.20766863
0.11256114 -0.11330582 -0.0025365492 -0.00095500133 0.09535415 0.034522414 0.056166444 -0.0034890291
-0.04351199 0.12017464 -0.21905302 0.06579862 0.24419168 0.06888414 -0.09189 -0.16789252
-0.2582697 -0.17608513 -0.14751957 0.03198084 0.059921376 0.14089553 0.080239564 -0.080791704
-0.04792304 0.04904704 0.018832384 0.09537125 -0.0029365025 0.13833298 -0.08575505 -0.07860957
0.084690094 -0.014995707 0.16571909 -0.08596969 0.069514185 -0.16265298 0.04066548 -0.15999267
0.002769438 -0.032604855 0.08499701 -0.032201663 0.09326684 0.21029627 -0.11026035 0.044187117
-0.20529455 0.049555868 -0.09301132 -0.024894224 0.12272608 0.084740564 0.0030063363 0.15912895
-0.090042874 0.22493833 -0.009852961 0.018723426 0.18633021 0.11363516 0.05130145 -0.1589213
-0.09564984 0.0021285024 0.044772577 0.12563398 -0.16557576 -0.17321777 0.13578805 -0.110822916
-0.056985464 0.061258953 -0.050017323 0.04404447 -0.24702385 -0.009475133 0.00047588887 0.070390634
-0.08150688 -0.0802543 -0.040703233 -0.012149154 0.0008834932 -0.0078742225 -0.024137063 -0.17344737
0.05926503 0.03367843 -0.108536266 -0.088638164 -0.05762868 0.039149296 -0.120280735 0.12176222
-0.0037457508 0.054982185 -0.14333382 -0.08259327 0.16206148 -0.05783988 -0.02269493 -0.008385835
-0.06894633 -0.031180413 0.0431815 0.029204499 0.10224684 -0.05409454 0.069685444 0.043886557
-0.10086368 0.008606116 0.22565775 0.049551453 0.09603456 0.056797914 -0.2537082 -0.05707791
-0.02084088 -0.033149615 0.019157374 -0.07578914 -0.07215124 -0.1313433 -0.1582501 -0.026445767
0.04806778 0.09184011 -0.06969833 -0.093404025 -0.16907044 0.08621501 0.061499525 -0.08731046
00000000: 2df6 2ebe 10e8 ae3d 355f 46be 815b fc3d
00000010: 43f2 613e 034e 3ebd fa59 253e b3c0 3f3d
00000020: c2d5 f13c 6a29 18be 9cf5 e23d 7d9b 1ebb
00000030: fc1c a0bd b803 ff3d ecca dcbc 2bc9 183b
00000040: c217 0a3e 85b4 28be 85ce 523d 06a5 e23d
00000050: ca89 06be fcdd 813e ddda 933c 1272 4abe
00000060: e011 f9bd 1940 22be 7d14 0f3e a38c 1ebe
00000070: a8cd b7bc 7436 263e fe70 143e 548f 3fbe
00000080: cfe3 993d 03e7 87bb 3e7a 27be 52e5 633d
00000090: 8954 51be b282 8bbd 0709 03bd 3d00 e73d
000000a0: 5b51 79bd 01fe c83d 6baf 563b c64d 3f3e
000000b0: fb5b d8bc 6752 0a3e 2b5f f43d 1deb 6ebd
000000c0: 9d51 9fbc dd1a 3dbd 1587 efbc 50ec 0bbe
000000d0: e63d cc3d 2e25 6f3d 79c4 143e 0feb 2f3e
000000e0: 6a4f 913d 1bfa 4a3d bb59 30bd 430b 243e
000000f0: f3c1 61bd b279 113b eab8 ea3d d46f 1c3d
00000100: ccb9 163d 21b3 22be 7f30 313e 1306 743d
00000110: 8c27 73bd f7f1 2f3e c850 63bc 5a51 653c
00000120: ba2f b4bb 1369 05be 5c96 573d aa67 713d
00000130: f6b0 283e eea7 073e ddc2 fabd bba5 11be
00000140: b8d2 a93b bee6 e4bd a04b 96bd d680 3cbe
00000150: 70cf ce3d 1409 14be 93b7 f63c aa26 cfbb
00000160: 4efe 8e3c f515 3dbe 9a4e 73bd afcc c83b
00000170: 63dd 63be 5dc8 7abe 52ca e3bd 067b b23c
00000180: 0989 17be 60e8 863d e5de ccbd cdc5 9fbc
00000190: e1c8 77bc 5ca7 2dbe 0be0 f03b 816b c93c
000001a0: c559 563e 18cf a23d ac4c 473b 8ac9 eb3a
000001b0: 65b5 75bd f9bc 39bd a5ca 87bd 9c77 bc3d
000001c0: 2c46 68bd 623c ed3d 5261 1cbd 64f0 0ebc
000001d0: 432a 71bc 1aeb 993d 75f8 593e 16a7 543e
000001e0: 7486 e63d e20c e8bd 3c3c 26bb 0e59 7aba
000001f0: 0949 c33d 6067 0d3d c90e 663d 32a8 64bb
00000200: a139 32bd 1f1e f63d 6f4f 60be 6dc1 863d
00000210: 620d 7a3e 2113 8d3d d330 bcbd 04ec 2bbe
00000220: ed3b 84be a94f 34be 5f0f 17be 57fe 023d
00000230: 1e70 753d eb46 103e a454 a43d 1f76 a5bd
00000240: f34a 44bd 8de5 483d 5f46 9a3c 0052 c33d
00000250: 5672 40bb 29a7 0d3e 58a0 afbd 0efe a0bd
00000260: 0072 ad3d 8eb0 75bc 44b2 293e e010 b0bd
00000270: 745d 8e3d 818e 26be d990 263d 1ed5 23be
00000280: 767f 353b ab8c 05bd ea12 ae3d e4e5 03bd
00000290: af02 bf3d e857 573e 2ed0 e1bd 8dfd 343d
000002a0: bc38 52be 18fb 4a3d b87c bebd f9ee cbbc
000002b0: d057 fb3d 768c ad3d f405 453b b3f2 223e
000002c0: 6668 b8bd 3c56 663e 506e 21bc df61 993c
000002d0: 59cd 3e3e 8db9 e83d 7821 523d 44bc 22be
000002e0: 10e4 c3bd 587e 0b3b 7363 373d 32a6 003e
000002f0: b18c 29be 0060 31be 060c 0b3e 20f7 e2bd
00000300: 9769 69bd abea 7a3d f7de 4cbd f967 343d
00000310: d2f3 7cbe 973d 1bbc b980 f939 f728 903d
00000320: 14ed a6bd 5e5c a4bd 6fb8 26bd 3f0d 47bc
00000330: 3a9a 673a e202 01bc 17bb c5bc 309c 31be
00000340: e3bf 723d 65f2 093d 4348 debd ed87 b5bd
00000350: 0d0c 6cbd 035b 203d bf55 f6bd 795e f93d
00000360: 457b 75bb 0035 613d 1ac6 12be a926 a9bd
00000370: 72f3 253e 83e9 6cbd b8ea b9bc be64 09bc
00000380: bc33 8dbd 116e ffbc 16df 303d 463e ef3c
00000390: cb66 d13d 3d92 5dbd 3eb7 8e3d 64c2 333d
000003a0: 9e91 cebd ab00 0d3c d312 673e 77f6 4a3d
000003b0: c4ad c43d eea4 683d 0be6 81be 87ca 69bd
000003c0: 7eba aabc e4c7 07bd edef 9c3c 5637 9bbd
000003d0: 08c4 93bd dc7e 06be 500c 22be cba4 d8bc
000003e0: b8e2 443d ab16 bc3d ffbd 8ebd 9c4a bfbd
000003f0: cd20 2dbe 7f91 b03d ede6 7b3d d4cf b2bd

bias f4 [4]
0.092314675 -0.069966376 -0.10009466 0.100413285
00000000: 7a0f bd3d 884a 8fbd 6efe ccbd 7ba5 cd3d

weight_g f4 [4, 1, 1]
0.6476041 0.48227564 0.67366135 0.78447497
00000000: 62c9 253f d5ec f63e 1275 2c3f 5ad3 483f

weight_v f4 [4, 16, 2]
-0.013988119 -0.009557589 -0.01517692 0.08169657 -0.08700307 -0.11265691 1.3727145e-05 0.0383122
-0.07436547 -0.07835413 -0.066779636 -0.1317975 -0.066402525 0.10541641 0.094229 0.00025710982
0.2057683 0.28365278 0.10607287 0.038396165 -0.111083835 0.07769555 -0.049256243 -0.020185122
-0.20059945 -0.25186527 -0.14148547 -0.032053914 -0.14590262 -0.08169302 0.043655552 0.016755763
0.18115616 0.12007469 0.01779654 -0.038499303 0.211629 0.030996 -0.1409413 -0.1271894
0.026848232 -0.049532894 0.067691766 0.12442338 0.019138776 0.0836336 0.28326005 0.21082285
0.09740223 -0.0065418007 -0.095439985 -0.025669748 0.1527443 0.15850231 -0.02240891 -0.047437463
0.28468263 0.40059894 -0.037767403 0.07651942 0.24202445 0.20703642 -0.032300696 0.11662548
0.2026344 0.050571132 -0.07304153 0.0066310256 0.20505045 -0.025610473 -0.0044224425 -0.0083379075
0.18177786 -0.043175817 0.1079127 0.08526766 -0.040861353 0.019978058 0.031574074 0.12743638
-0.048239645 0.086571045 0.04733929 0.02359479 0.10967756 0.102960266 0.2358373 0.21521223
0.47944197 0.35725826 0.12742718 -0.025689337 0.0072118044 0.26720083 0.11312833 0.04863905
-0.037324753 -0.03615422 0.013852035 -1.1920994e-05 0.055909507 0.069298595 7.166019e-05 -0.029342076
-0.12813364 -0.0019648771 -0.10371721 0.008125762 -0.016963826 -0.06706133 0.002538794 6.1355433e-07
-0.34418672 -0.380198 -0.17955516 -0.12929821 0.07905436 0.07247383 0.038364314 -0.047398474
0.08354926 0.03032845 -0.06910391 -0.06819507 0.049698103 1.5735575e-05 0.02869233 -0.049773686
00000000: 6c2e 65bc 6f97 1cbc 9ea8 78bc 8850 a73d
00000010: aa2e b2bd abb8 e6bd a44d 6637 41ed 1c3d
00000020: ec4c 98bd 2178 a0bd c3c3 88bd edf5 06be
00000030: 0cfe 87bd 8fe4 d73d 22fb c03d b2cc 8639
00000040: edb4 523e f03a 913e bc3c d93d 4c45 1d3d
00000050: ec7f e3bd d81e 9f3d eac0 49bd 455b a5bc
00000060: f169 4dbe 7cf4 80be 91e1 10be f74a 03bd
00000070: 7f67 15be ac4e a7bd 2ad0 323d 6243 893c
00000080: 0081 393e b8e9 f53d 0dca 913c 72b1 1dbd
00000090: 46b5 583e 53eb fd3c eb52 10be f03d 02be
000000a0: d3f0 db3c 01e3 4abd fba1 8a3d afd1 fe3d
000000b0: ecc8 9c3c 1848 ab3d 7607 913e f2e1 573e
000000c0: d27a c73d 9a5c d6bb 0a76 c3bd 5d49 d2bc
000000d0: 0069 1c3e 6e4e 223e e492 b7bc c94d 42bd
000000e0: ecc1 913e 4e1b cd3e feb1 1abd 37b6 9c3d
000000f0: 42d5 773e 5b01 543e bc4d 04bd 57d9 ee3d
00000100: 647f 4f3e ad23 4f3d cc96 95bd 1349 d93b
00000110: bff8 513e 0ecd d1bc 23ea 90bb b89b 08bc
00000120: fa23 3a3e 20d9 30bd 5501 dd3d d0a0 ae3d
00000130: 3c5e 27bd 06a9 a33c d153 013d af7e 023e
00000140: ef96 45bd 294c b13d d8e6 413d dc49 c13c
00000150: a19e e03d d5dc d23d 557f 713e 9860 5c3e
00000160: 6b79 f53e 8eea b63e 457c 023e 7272 d2bc
00000170: 0051 ec3b 8cce 883e d3af e73d be39 473d
00000180: d7e1 18bd 7316 14bd a5f3 623c 4800 48b7
00000190: 5e01 653d 6cec 8d3d 4648 9638 cb5e f0bc
000001a0: 7735 03be 2bc5 00bb b069 d4bd eb21 053c
000001b0: b9f7 8abc 7357 89bd e561 263b 22b3 2435
000001c0: 3e39 b0be 50a9 c2be 4fdd 37be c066 04be
000001d0: 41e7 a13d 296d 943d e623 1d3d e724 42bd
000001e0: e01b ab3d 5f73 f83c 5a86 8dbd dba9 8bbd
000001f0: 3d90 4b3d e4ff 8337 2d0c eb3c 7edf 4bbd

weight f4 [4, 16, 2]
-0.014351423 -0.009805822 -0.0155711 0.08381842 -0.08926274 -0.11558288 1.4083672e-05 0.039307255
-0.07629692 -0.08038917 -0.06851406 -0.1352206 -0.068127155 0.10815432 0.09667635 0.00026378757
0.21111257 0.29101992 0.10882784 0.039393403 -0.113968946 0.079713486 -0.050535545 -0.020709377
-0.20580949 -0.2584068 -0.14516018 -0.03288643 -0.14969206 -0.08381478 0.04478939 0.01719095
0.10285625 0.068175614 0.010104462 -0.021859007 0.120158024 0.017598808 -0.08002319 -0.07221518
0.015243801 -0.028123623 0.03843381 0.07064469 0.010866551 0.04748521 0.16082846 0.1197003
0.055302717 -0.003714282 -0.0541886 -0.014574685 0.086724654 0.089993924 -0.012723257 -0.026933888
0.16163617 0.22745076 -0.021443453 0.043445945 0.13741584 0.117550455 -0.018339584 0.066217236
0.15626492 0.038998775 -0.056327198 0.0051136264 0.1581281 -0.019749945 -0.0034104406 -0.006429917
0.14018105 -0.033295754 0.08321869 0.06575559 -0.031510916 0.015406415 0.024348877 0.0982747
-0.03720081 0.06676071 0.036506485 0.018195517 0.084579684 0.07939953 0.18186988 0.16596451
0.36972973 0.2755057 0.09826761 -0.019810764 0.005561504 0.2060564 0.0872408 0.03750882
-0.04664695 -0.04518407 0.017311707 -1.4898372e-05 0.069873415 0.08660655 8.955798e-05 -0.036670525
-0.16013618 -0.0024556231 -0.12962152 0.010155246 -0.021200696 -0.0838105 0.0031728807 7.667951e-07
-0.4301505 -0.4751559 -0.2244007 -0.1615916 0.09879891 0.09057483 0.04794615 -0.05923667
0.104416445 0.037903257 -0.08636324 -0.0852274 0.062110655 1.9665678e-05 0.0358585 -0.062205113
00000000: 3b22 6bbc 99a8 20bc ed1d 7fbc fea8 ab3d
00000010: 62cf b6bd b8b6 ecbd e948 6c37 a500 213d
00000020: 8f41 9cbd 14a3 a4bd 1951 8cbd 4577 0abe
00000030: 4086 8bbd 0380 dd3d 40fe c53d f84c 8a39
00000040: e52d 583e 9000 953e 21e1 de3d fa5a 213d
00000050: 8d68 e9bd d340 a33d 5cfe 4ebd b6a6 a9bc
00000060: b9bf 52be e54d 84be dfa4 14be ecb3 06bd
00000070: e048 19be 15a7 abbd 1475 373d 09d4 8c3c
00000080: 4ca6 d23d a89f 8b3d 2f8d 253c a911 b3bc
00000090: 6915 f63d 602b 903c 33e3 a3bd 8de5 93bd
000000a0: 23c1 793c 8363 e6bc c56c 1d3d 2aae 903d
000000b0: 9e09 323c da7f 423d 37b0 243e 6e25 f53d
000000c0: 1a85 623d 506b 73bb def4 5dbd a9ca 6ebc
000000d0: b29c b13d bc4e b83d 3575 50bc 75a4 dcbc
000000e0: f483 253e dae8 683e 2eaa afbc 60f4 313d
000000f0: bdb6 0c3e 4bbe f03d e53c 96bc e79c 873d
00000100: e903 203e 2ebd 1f3d 59b7 66bd 3590 a73b
00000110: 55ec 213e a3ca a1bc b381 5fbb 0eb2 d2bb
00000120: 9f8b 0f3e 2161 08bd 8f6e aa3d deaa 863d
00000130: 9711 01bd 306b 7c3c 4c77 c73c 3f44 c93d
00000140: e05f 18bd d7b9 883d d387 153d c40e 953c
00000150: 1d38 ad3d 399c a23d 193c 3a3e 9af2 293e
00000160: 374d bd3e 150f 8d3e 8740 c93d 2f4a a2bc
00000170: 473d b63b 7300 533e 4eab b23d d9a2 193d
00000180: df10 3fbd ee12 39bd 48d1 8d3c 05f4 79b7
00000190: cb19 8f3d c65e b13d 13d1 bb38 d533 16bd
000001a0: bdfa 23be 85ee 20bb 81bb 04be 3062 263c
000001b0: 15ad adbc d7a4 abbd 1bf0 4f3b c2d5 4d35
000001c0: b03c dcbe a247 f3be 4cc9 65be 4578 25be
000001d0: 1557 ca3d 4c7f b93d 2f63 443d 27a2 72bd
000001e0: 4ad8 d53d 7240 1b3d 36df b0bd b48b aebd
000001f0: be67 7e3d b9f7 a437 5de0 123d caca 7ebd

weight f4 [4, 16, 1]
-0.051366787 -0.0061406796 -0.13144827 0.18820702 0.20368613 0.2299244 -0.29424006 -0.026172768
-0.003948251 -0.2365274 -0.22481482 -0.008284355 0.26978037 -0.2651813 0.23572782 -0.027925232
0.036350913 -0.22366567 0.072319664 0.22039025 0.22891074 -0.2819322 -0.14621228 0.34532258
0.37493777 0.07947497 -0.04503856 -0.03354767 0.19020511 0.2420924 0.0014264534 0.16806737
-0.16248214 0.2664919 0.30596057 0.031220434 -0.097054064 0.019241456 0.1543527 0.21568182
0.101963185 0.22447869 0.09391024 -0.26084453 0.0574482 0.11708557 -0.010489686 -0.090660214
0.13770086 0.20010015 0.035325922 0.10963888 0.12314633 -0.17657305 0.16989732 0.106715314
0.21093029 0.14165023 -0.08369338 -0.3085715 -0.12031149 -0.09220188 -0.13698003 0.13171282
00000000: fb65 52bd c137 c9bb 609a 06be 57b9 403e
00000010: 1993 503e 4d71 6b3e a2a6 96be 4668 d6bc
00000020: 5460 81bb 3d34 72be db35 66be 1abb 07bc
00000030: a720 8a3e d8c5 87be a262 713e 75c3 e4bc
00000040: b2e4 143d 9d08 65be 551c 943d fbad 613e
00000050: 9467 6a3e 6b59 90be acb8 15be 1fce b03e
00000060: d8f7 bf3e c6c3 a23d 5a7a 38bd 4869 09bd
00000070: 21c5 423e 12e7 773e d5f7 ba3a da19 2c3e
00000080: b861 26be a071 883e dda6 9c3e ffc1 ff3c
00000090: 48c4 c6bd 42a0 9d3c a20e 1e3e b2db 5c3e
000000a0: 13d2 d03d bedd 653e 0354 c03d 6a8d 85be
000000b0: ce4e 6b3d 8fca ef3d efdc 2bbc 10ac b9bd
000000c0: 7401 0d3e 0ee7 4c3e eab1 103d 598a e03d
000000d0: 2534 fc3d 91cf 34be 90f9 2d3e 8f8d da3d
000000e0: 1cfe 573e c20c 113e 6f67 abbd 15fd 9dbe
000000f0: df65 f6bd 57d4 bcbd 7e44 0cbe badf 063e

bias f4 [4]
0.16578367 -0.0021474897 -0.034676507 0.13354725
00000000: 32c3 293e e6bc 0cbb f408 0ebd 9cc0 083e

weight f4 [64, 720]
0.051740844 0.056977987 0.02025435 -0.001677731 0.05642477 0.054740917 0.034171924 -0.008304
0.0061421185 0.004795591 0.05905311 0.009650411 -0.004934662 0.053493004 0.009024165 0.05043379
0.030318957 -0.011447472 0.016186418 -0.00778404 0.03600087 0.055928312 0.0046022697 0.031117989
0.04973698 0.013251877 0.04574859 0.050234474 0.0454752 0.0103961695 0.00044105377 0.048956085
0.008800037 -0.007858032 0.0104590785 0.00044387253 -0.00066425017 0.050417595 0.019423898 0.021446757
0.0504985 0.048682246 0.044489022 0.004264577 -0.0046185553 0.0109217 0.023431512 0.036799904
-0.017897993 -0.018713497 -0.01074295 0.026976792 -0.023977865 0.033190053 0.013627155 0.03789674
0.028817525 -0.021557208 0.026556421 -0.00948227 0.16332169 0.120763674 0.072202355 0.07140226
-0.0066605913 0.014283251 0.015029367 0.018643958 0.036423672 0.08077328 0.070447445 0.03485798
0.03328324 0.03737744 0.07154404 0.017306887 -0.028880876 0.0067673633 -0.013008535 0.0050426563
0.017203318 0.008170812 0.03769707 -0.0036643534 0.0023627768 0.015396304 0.025102487 0.026790567
-0.01267537 -0.008221621 0.0037501857 0.014432398 0.028125018 0.03729485 0.03982329 0.011481052
0.010949674 -0.010871112 -0.0051404964 -0.012588462 0.04576593 0.007359725 0.043615665 0.029303825
0.0075212563 0.040088996 0.045637935 -0.01247196 0.027097853 0.04925135 -0.005526922 0.012280148
0.01343389 0.021613203 0.04495541 0.0060147312 0.00023055683 0.052087646 0.034482833 0.011937594
0.029747173 0.052262623 0.03304597 0.028771823 0.008197822 0.058109485 0.06949384 0.081699096
0.08366922 0.055909 0.04907877 0.03280163 0.08744335 0.079599634 0.047076564 0.07247716
0.04186301 0.04582859 0.050695244 0.04820351 0.078612655 0.06616475 0.101835825 0.035438083
0.0483689 0.046722874 0.049797315 0.034868993 0.051719595 0.10009818 0.09031151 0.090074316
0.06344333 0.10540062 0.091606334 0.06554727 0.10240121 0.0686282 0.06699084 0.106566004
0.07014559 0.11863541 0.090682626 0.047673475 0.122223064 0.052403644 0.052117344 0.12313508
0.0779752 0.06300653 0.103697576 0.061833102 0.08015686 0.10064516 0.07577421 0.12121739
0.12844537 0.12917596 0.094307326 0.12360495 -0.02683437 0.028919656 0.028120061 0.030297043
0.04133554 -0.00045858076 0.03807984 0.033553977 0.03181964 -0.005530357 0.014135368 0.022119658
0.042771973 0.030623225 0.048606835 0.03533262 0.019457161 0.03097915 0.0351285 0.024297643
0.06793776 0.014324193 -0.00977728 0.0074937637 -0.0028865146 0.024591004 0.037185986 -0.028596826
0.0524866 0.007374049 0.019043371 0.046605147 0.037269074 0.054879032 0.050763205 -0.014776031
0.03595216 0.038772777 0.07006436 0.02010135 0.0023932054 0.046278924 0.014456613 0.022117645
0.049186364 0.03812388 0.03422141 0.0020830315 0.045944363 0.020285731 0.061445635 0.017023275
0.028123131 0.054232676 0.055514727 0.01709817 0.049073454 0.05929513 0.039575245 0.03403101
-0.12012205 -0.16519442 -0.19110772 -0.24499068 -0.13343991 -0.0857588 -0.07021208 -0.12584987
-0.1786449 -0.1660633 -0.18916741 -0.21589355 -0.15704794 -0.22320542 -0.15379982 -0.21250367
00000000: 35ee 533d c061 693d 73ec a53c 50e7 dbba
00000010: a91d 673d 0338 603d dcf7 0b3d 800d 08bc
00000020: d343 c93b 5524 9d3b ade1 713d c21c 1e3c
00000030: f2b2 a1bb 7b1b 5b3d 17da 133c a993 4e3d
00000040: 765f f83c 2d8e 3bbc 6199 843c 4311 ffbb
00000050: a675 133d 1615 653d a3ce 963b 27eb fe3c
00000060: 01b9 4b3d 671e 593c e062 3b3d aac2 4d3d
00000070: 3444 3a3d b254 2a3c 3c3d e739 2d86 483d
00000080: 082e 103c fabe 00bc 8e5c 2b3c 90b7 e839
00000090: 1321 2eba ae82 4e3d de1e 9f3c 1cb1 af3c
000000a0: 84d7 4e3d 0967 473d 1f3a 363d ddbd 8b3b
000000b0: 4057 97bb eef0 323c 71f3 bf3c 7fbb 163d
000000c0: d09e 92bc 0c4d 99bc 3303 30bc 6ffe dc3c
000000d0: 3a6d c4bc 4bf2 073d 6e44 5f3c 9d39 1b3d
000000e0: bb12 ec3c be98 b0bc da8c d93c 865b 1bbc
000000f0: cd3d 273e f252 f73d d4de 933d 593b 923d
00000100: 1741 dabb 4c04 6a3c bc3d 763c 37bb 983c
00000110: fd30 153d 766c a53d c046 903d 3ec7 0e3d
00000120: 0254 083d 1619 193d af85 923d 2cc7 8d3c
00000130: 9697 ecbc c2c0 dd3b c021 55bc de3c a53b
00000140: f9ed 8c3c dfde 053c 3e68 1a3d a625 70bb
00000150: d1d8 1a3b c840 7c3c bba3 cd3c e477 db3c
00000160: 5bac 4fbc fab3 06bc adc5 753b dd75 6c3c
00000170: 7066 e63c 7cc2 183d bf1d 233d 061b 3c3c
00000180: 4366 333c c01c 32bc 9c71 a8bb d63f 4ebc
00000190: 0e75 3b3d d929 f13b 57a6 323d 930e f03c
000001a0: df74 f63b 5c34 243d d8ee 3a3d 3157 4cbc
000001b0: 51fc dd3c c9bb 493d 2f1b b5bb ad32 493c
000001c0: d219 5c3c 2c0e b13c 2a23 383d 3917 c53b
000001d0: a1c1 7139 db59 553d df3d 0d3d e695 433c
000001e0: 58b0 f33c 5511 563d 365b 073d e3b2 eb3c
000001f0: 2850 063c 3604 6e3d c952 8e3d db51 a73d
00000200: c55a ab3d d600 653d d206 493d 015b 063d
00000210: 8015 b33d 2205 a33d 5bd3 403d e86e 943d
00000220: 8c78 2b3d c2b6 3b3d d1a5 4f3d 0b71 453d
00000230: acff a03d 6281 873d 4d8f d03d 8627 113d
00000240: 781e 463d 7c60 3f3d 45f8 4b3d cad2 0e3d
00000250: edd7 533d 4600 cd3d 3ef5 b83d e278 b83d
00000260: 94ee 813d 48dc d73d 1a9c bb3d a63d 863d
00000270: bab7 d13d f18c 8c3d 7e32 893d 473f da3d
00000280: 7ea8 8f3d 1ff7 f23d d0b7 b93d 4345 433d
00000290: 1650 fa3d 34a5 563d ff78 553d 3f2e fc3d
000002a0: 76b1 9f3d 9109 813d 655f d43d b544 7d3d
000002b0: 4829 a43d 0d1f ce3d 822f 9b3d d340 f83d
000002c0: 2f87 033e b446 043e 3324 c13d 9824 fd3d
000002d0: c1d3 dbbc eae8 ec3c 0b5c e63c 8131 f83c
000002e0: 754f 293d ab6d f0b9 9bf9 1b3d e56f 093d
000002f0: 5055 023d ff37 b5bb 0898 673c 4934 b53c
00000300: aa31 2f3d 8fdd fa3c f617 473d f0b8 103d
00000310: a064 9f3c fdc7 fd3c e7e2 0f3d da0b c73c
00000320: f422 8b3d 05b0 6a3c e230 20bc 3f8e f53b
00000330: ae2b 3dbb 1373 c93c 5550 183d e443 eabc
00000340: 30fc 563d 02a2 f13b d800 9c3c 0ae5 3e3d
00000350: 75a7 183d d6c8 603d 14ed 4f3d 2a17 72bc
00000360: 9242 133d 34d0 1e3d e77d 8f3d 96ab a43c
00000370: 53d7 1c3b f88e 3d3d 6edb 6c3c 1030 b53c
00000380: a477 493d c927 1c3d c02b 0c3d 7883 083b
00000390: 2830 3c3d 432e a63c 6bae 7b3d 6574 8b3c
000003a0: 7b62 e63c 1523 5e3d 6963 633d 7611 8c3c
000003b0: 3f01 493d 73df 723d a719 223d 1a64 0b3d
000003c0: 8d02 f6bd ba28 29be beb1 43be d6de 7abe
000003d0: 79a4 08be 4fa2 afbd 5acb 8fbd cade 00be
000003e0: b0ee 36be 7f0c 2abe 1ab5 41be 3313 5dbe
000003f0: 2dd1 20be f68f 64be b37d 1dbe 909a 59be
