weights/gaussian_tcn_minmax.model (torch, 45939 bytes, 36 tensors)

bias f4 [16]
00000000: 7bd8 6abe 3d73 b0be 55c5 afbe a37c 8b3d
00000010: 26c7 bcbd f559 b13e 72fb fcbd 3ef2 c1be
00000020: 1d1e eb3d 30ec c8bd fedd cd3d 0e55 653d
00000030: c49d edbd 72d9 57be b1f5 0cbe 2c7d 6fbe
-0.22934143 -0.3446292 -0.3433024 0.06810882 -0.09217672 0.34638944 -0.12352647 -0.3788013
0.11480353 -0.09810674 0.10052107 0.055989318 -0.11602357 -0.21079043 -0.13765599 -0.23387593

weight_g f4 [16, 1, 1]
00000000: 3a44 0d3f f731 2d3f e900 f53e fa76 843f
00000010: 39d2 753f 4807 073f 9411 1f3f f839 073f
00000020: b958 ed3e 9c18 213f 0bf1 123f a8b0 493f
00000030: 9f90 273f 3517 023f 256b c33e 4407 0d3f
0.5518223 0.67654365 0.47852257 1.0348809 0.960239 0.52745485 0.621362 0.5282283
0.46356753 0.62928176 0.5739905 0.7878518 0.6545505 0.5081666 0.38167682 0.5508921

weight_v f4 [16, 4, 2]
00000000: ff35 c83d eef3 913e 7929 3fbe 66a2 c23d
00000010: 13b4 403b 785e 79be 3a78 873e e172 cebd
00000020: 2d2a a0be de4b 4dbe 074c a73e e946 a9be
00000030: e981 fcbd ba9c 843e c055 bb3c 6697 13be
00000040: d29d 193e 9c8c 6dbe 9e82 2a3c bb9d 213d
00000050: 84d9 803e ee9f c6bd 314f 11be a69e 2c3e
00000060: f7cf 85be b947 443e 1c5f 4a3e 7dc3 75bd
00000070: a1b4 863d 0913 a8be 7b46 653e 8fa7 c3bc
00000080: 8dc5 993e 2646 80bc 7f81 9abe 4aec 4dbe
00000090: 061f c2be ff05 1f3e c238 653e 7d42 883e
000000a0: cae0 2d3e 3a14 acbd df61 ff3c fac1 a7bd
000000b0: 5cf1 eebd 28dc 86be b31b a9bd cadb 5b3e
000000c0: 2ff2 6ebe 20e8 60be 8c46 023e 19b8 ac3e
000000d0: fc78 b4bd 81ce 94be 4c7a b73d 6f15 6c3e
000000e0: 0f1c 903d 5262 a53e 6db5 183d e582 f8bd
000000f0: b330 00be 75ff e7bd 545a de3c 0a46 3e3e
00000100: 4b65 483e c323 97be 701a 0abe b90c 613d
00000110: 55a4 1fbe 380e 163e c0a4 22bd de8e eabc
00000120: 34ac 85be 72f5 793e ae75 8d3d 6bc0 8bbe
00000130: 413a 563d 18b9 20bc 3118 093e 17d3 a83d
00000140: b4e0 97be be75 97be 38af 223e bd21 adbd
00000150: a5ca 043d 787c 05be 099a 773e 5c61 593e
00000160: 14fe 0f3e 8cf5 44be 2553 4ebd 8b0a 993c
00000170: 2064 db3d 7fad c7bd a773 8b3e 0e2b 69be
00000180: 2b8e 5d3e 56e0 b83c 2c63 8b3e 2514 a1be
00000190: e2ae b23d a454 1a3e d684 babe 5ceb 96bc
000001a0: 8d19 a7be ae4c b3bd 46c3 03be 27ab 013e
000001b0: d6d6 a63e 350e 443e 9f5b 26bd d5e9 f83d
000001c0: 97bc 8fbe 4906 733d a079 48be 8f45 6b3e
000001d0: 82d8 19be 152f 563d 17e2 3ebc 6cad 58be
000001e0: a430 aebe 0484 d13e b78b cdbd ef3e 2a3d
000001f0: 63c4 04be f472 e33d 9ac8 043e ff6b 81be
0.09775924 0.28506416 -0.18668164 0.09503631 0.0029404208 -0.24352443 0.26458913 -0.10080505
-0.31282178 -0.20048472 0.32675192 -0.33061913 -0.12329466 0.25900823 0.022868037 -0.14413223
0.1500161 -0.2319817 0.010407118 0.039457064 0.2516595 -0.09698473 -0.14190365 0.16857395
-0.26135227 0.19167985 0.19762844 -0.060000885 0.06577421 -0.32827023 0.22390167 -0.02388361
0.30033532 -0.01565845 -0.30176923 -0.20109668 -0.37914294 0.15529631 0.22384933 0.26613227
0.16980281 -0.084022954 0.031174598 -0.08191295 -0.116671294 -0.2633984 -0.08257236 0.21470562
-0.23334573 -0.21963549 0.12722224 0.33734205 -0.088121384 -0.290638 0.08958873 0.23055051
0.07036602 0.32301575 0.037282396 -0.12134341 -0.12518577 -0.113280214 0.027142681 0.18581405
0.1956989 -0.29519472 -0.13486648 0.054943774 -0.15590031 0.14653862 -0.0397079 -0.028632578
-0.26107943 0.24410036 0.06907211 -0.2729524 0.05230165 -0.009809755 0.13388135 0.08243387
-0.29663622 -0.29582018 0.15887153 -0.08453701 0.03241982 -0.13035762 0.24179853 0.21228546
0.14061767 -0.19234294 -0.05037226 0.018681785 0.10712457 -0.09749889 0.27236673 -0.2277033
0.21636264 0.02256791 0.272241 -0.31460682 0.087247625 0.1507135 -0.3642947 -0.018422775
-0.3263668 -0.0875486 -0.1286746 0.12662946 0.32585782 0.19146045 -0.04061472 0.12153975
-0.2807357 0.059332166 -0.19577646 0.22975753 -0.15023997 0.052290995 -0.011650584 -0.21159905
-0.34021485 0.40921032 -0.10036414 0.041563924 -0.1296554 0.1110591 0.12967148 -0.25277707

weight f4 [16, 4, 2]
00000000: 48eb d23d 99ca 993e ff7b 49be 8508 cd3d
00000010: f4e7 483b b869 83be 68be 8e3e e9a0 d9bd
00000020: 2d2a a0be df4b 4dbe 074c a73e e946 a9be
00000030: e981 fcbd ba9c 843e c055 bb3c 6697 13be
00000040: 28ab 243e d6a3 7ebe 1ac7 363c 683e 2d3d
00000050: b11e 8a3e 3dea d4bd 86c3 1bbe fd09 393e
00000060: 3176 f8be 914d b63e 75f6 bb3e 2209 e4bd
00000070: b05b fa3d 950a 1cbf daf0 d43e 9550 35bd
00000080: 2d9e ce3e 433d acbc ad97 cfbe 5b56 8abe
00000090: 1669 02bf 25b0 553e 1b00 9a3e 1617 b73e
000000a0: c685 583e 6221 d6bd 4027 1f3d 62c8 d0bd
000000b0: 8bb1 14be edde a7be 0f72 d2bd d6e2 883e
000000c0: 30f2 6ebe 21e8 60be 8d46 023e 1ab8 ac3e
000000d0: fe78 b4bd 82ce 94be 4e7a b73d 7115 6c3e
000000e0: 95f1 ae3d e8d5 c83e 0057 393d abf1 16be
000000f0: 65b7 1bbe 55e9 0cbe e7e0 063d 590b 673e
00000100: 8477 523e 46bc 9ebe 3b0b 11be 225c 6c3d
00000110: 3baa 27be c898 1d3e 44d1 2abd 9c58 f6bc
00000120: 20b5 adbe e24f a23e 348f b73d 419a b5be
00000130: 04e8 8a3d 89b5 52bc 71fe 313e 041e db3d
00000140: b4e0 97be be75 97be 38af 223e bd21 adbd
00000150: a5ca 043d 787c 05be 099a 773e 5c61 593e
00000160: 337d 793e deac aabe 2ada b2bd 9c71 043d
00000170: 560d 3e3e c90e 2dbe 0fa4 f13e e80c cabe
00000180: ec01 6a3e 50e8 c23c 8c3a 933e 5933 aabe
00000190: 35a5 bc3d 1601 233e 4b15 c5be 7cd8 9fbc
000001a0: c181 99be 42c1 a4bd 7522 f2bd e326 ee3d
000001b0: 7a3a 993e 3a0c 343e 76f5 18bd 9393 e43d
000001c0: 1547 5ebe cbe8 3b3d 7702 1bbe 2eea 353e
000001d0: 1ae9 edbd 049c 253d d197 13bc 9689 27be
000001e0: a4d0 96be ea4a b53e c91a b2bd 71f5 123d
000001f0: ca06 e6bd e7a6 c43d 160e e63d 6821 60be
0.102987826 0.30037382 -0.19676207 0.100113906 0.0030655833 -0.25666595 0.27879643 -0.10626394
-0.31282178 -0.20048474 0.32675192 -0.33061913 -0.12329466 0.25900823 0.022868037 -0.14413223
0.16080916 -0.24867186 0.011155868 0.042295843 0.2697654 -0.1039624 -0.15211305 0.18070216
-0.48527673 0.35606053 0.3671147 -0.111345544 0.12224519 -0.60953647 0.41590005 -0.044266302
0.40355054 -0.021025306 -0.40545407 -0.2701901 -0.509416 0.20867975 0.30078205 0.357598
0.2114478 -0.10455586 0.03885579 -0.1019447 -0.14520852 -0.32787266 -0.10275661 0.26735562
-0.23334575 -0.2196355 0.12722225 0.33734208 -0.0881214 -0.29063803 0.08958875 0.23055054
0.08542172 0.39225698 0.045248985 -0.14740627 -0.15206678 -0.13760884 0.032929327 0.22562923
0.20553404 -0.31003016 -0.1416444 0.057705052 -0.16373532 0.15390313 -0.041703478 -0.03007155
-0.3392725 0.3170157 0.08962861 -0.3546925 0.06782535 -0.012860664 0.17382218 0.106990844
-0.29663622 -0.29582018 0.15887153 -0.08453701 0.03241982 -0.13035762 0.24179853 0.21228546
0.24364166 -0.33335012 -0.08733018 0.03233491 0.18559775 -0.16900171 0.4719548 -0.39462972
0.22852296 0.023792416 0.28755605 -0.332423 0.09211198 0.15918383 -0.38492808 -0.019512407
-0.29981807 -0.080446735 -0.118229784 0.11628511 0.29927427 0.17582789 -0.037343465 0.1116096
-0.21706803 0.045876306 -0.15137659 0.17765114 -0.11616726 0.04043199 -0.009008364 -0.16361079
-0.29456055 0.35408717 -0.08696515 0.035878602 -0.11231764 0.096021466 0.112331554 -0.21887743

bias f4 [16]
00000000: e60c ecbd 8a8e acbc baec 85bd f046 36be
00000010: 1c93 12be 3014 1e3c c2de 26bc 1bc1 85bd
00000020: fbcf 0f3d 3fe4 8cbc e3b7 8ebd 22c5 5dbd
00000030: 1c36 b03c b627 72bd 245a 66bd 527b 80bd
-0.11525898 -0.021064062 -0.06539293 -0.17800498 -0.1431393 0.009648368 -0.010184946 -0.065309726
0.035110455 -0.01719868 -0.06968667 -0.05414308 0.021510176 -0.059119903 -0.05623831 -0.062735215

weight_g f4 [16, 1, 1]
00000000: 404e 013f 30e8 1d3f 0c84 663f 4cc1 0b3f
00000010: 858e e03e f4fd 903f 6151 0e3f 6d72 013f
00000020: 7fe9 ba3f 846c 6e3f 769d f73e d3af 433f
00000030: 80c1 4c3f ffc6 363f fe94 0e3f 84ed 503f
0.50510025 0.61682415 0.9004524 0.5459182 0.43858734 1.13275 0.55592924 0.50565225
1.4602507 0.9313433 0.4836232 0.7644016 0.7998276 0.71397394 0.55696094 0.8161242

weight_v f4 [16, 16, 2]
00000000: edfb 0a3e e38a 07bd 1f01 8ebd 9b26 a4bd
00000010: d626 073d fef6 c83d 536d 683d 303c 58bd
00000020: 8e91 7ebd f401 9abd 2b9c 5fbd 99d6 983d
00000030: 722d 6ebd abf7 d1bd f226 f03c 5666 c83d
00000040: df41 053d e274 503c e401 c93d cdb6 b8bc
00000050: 8b7d 3d3e af4f 303e 8f06 1ebe 46fe 813d
00000060: f1e4 f03b 1a34 e5bd 95a1 a7bd 1ec5 01be
00000070: dc43 25be c102 a43d 42b8 24be 924d 2b3d
00000080: 603a b43d 3900 0cbe 8949 4c3d 805f 523d
00000090: 5e38 bdbd 1eef 5cbd d139 e03d 3efb 6cbd
000000a0: bb54 2abe 5704 39be 3817 49be 168a 25bd
000000b0: c002 97ba e112 0abe 00c6 b4bd f3a6 1fbe
000000c0: 3df9 9b3d ac50 b4bd 1d58 41be 24fd e83c
000000d0: e91e 14be 353d 0dbe cea7 aebd 98ba 1fbe
000000e0: a83c 7f3c c0ea d6bd da4e f0bd feaa 3ebe
000000f0: 705b 3d3c c2ec 123e a3c9 a6bd 180a bfbd
00000100: 2e0b 863d 147c 343d a38c 97bc 94d3 2600
00000110: c29b a238 fb49 17bb e86a 103e 9c5d 28bc
00000120: 9358 d53d e8ce 293e 2a4e a53e f6c1 9bbd
00000130: 1d0b db3a 9ed1 b23b 7eb2 e63c a001 b03d
00000140: 5e5e 5cbc 9e1e f5bb b591 74be c7fe 1d3d
00000150: f72e 273d 4421 383b c396 493d 3835 6abe
00000160: cfb1 2dbe 633a 41bd ae58 96be 8af4 6dbd
00000170: 9381 bebb 8e3f be37 e50b 63ba 0d33 10bd
00000180: 1af5 d63c 1e12 46be efd7 4b3e 3cf6 29be
00000190: e0f6 2fbd a91b 133d 9937 c5bd 9458 8d3d
000001a0: 1242 aa3d 2f13 b03d 1daf 7b3d af94 ce3d
000001b0: f118 543e 3316 183e d368 80bd c202 eebd
000001c0: 60a4 42be b018 5e3c 5321 c63d c0ae 49bd
000001d0: 17a3 07be fb03 05be f8d5 ecbd e617 84bd
000001e0: 7382 bd3c 31b6 bdbd 6f37 1b3b f758 26be
000001f0: 063b eabd bf03 413e e49f aabd 26b0 223e
00000200: 1a64 ad3d 9ee8 36be 3d1f c0bd 72ea b53d
00000210: 0150 0abe d0f7 033d 4309 30bd 652d 01bd
00000220: 099f 13bd fe33 a33c 2188 04bd 3d03 0bbd
00000230: 7241 043e 6ee0 4fbe 8632 b2bd 9204 5fbd
00000240: 3ed0 aa3d d5a6 853d b540 033e 687a 4f3d
00000250: 9cac 3ebe 4945 f43d 2129 5e3d 8d9f c5bc
00000260: 388f 5abd f523 adbd e6e2 e9bc dda5 463a
00000270: 761f 9dbd c45a aabd 912d ea3d 0d80 0a3e
00000280: f2e4 263c da4c 9ebd e321 76b1 c64d bd32
00000290: 039f 11a8 e992 f9ac 9e7f 3e3e cf93 3f3a
000002a0: f506 bbbe ac7a 423b a239 673e 4c7d 2e3e
000002b0: 6a2f 1b35 0e68 45b3 6196 6ebe eac2 11be
000002c0: 1430 9ba6 d2ec 25a6 fbaf 173d e7c9 f0bc
000002d0: aa1b 2b31 2d7a 00b6 76bb d63d 778f 243d
000002e0: 3c5c 163d 0374 0c3c 8422 98bb 2f3f b3b9
000002f0: ede4 ee33 7ce3 e1b2 144a 7e3c 8460 e8bb
00000300: 0bc6 8c3e a08d 55bb 61da 7bbe 8ddf 2a3e
00000310: 8f2b 073d 6cd8 513e 0c54 efbc 1e82 a23d
00000320: c963 bdbb 7515 08bc fe87 ac3d 634f a9bd
00000330: 639e 4ebe 02d0 76be 0a81 56bc 9646 f7ba
00000340: 46f4 edbd 4b4d c5bd 3422 c8be 50f6 b13c
00000350: 9003 2b3e d3aa 793e b5e4 02bc 6a3f 4d3d
00000360: 3e35 92bd 91d3 c0bd ec32 18be 0823 2ebe
00000370: 5409 50be 2e0b 43be 72bb 3d3e efc3 fe3d
00000380: 9cbd 0f3e 976e b8bd cb57 2cbe 2128 02be
00000390: dbf7 963d 6401 883d f6c8 f8bd 92f9 25be
000003a0: 69a3 88bd 1adc 673d 5984 4cbd f273 10bd
000003b0: e2d6 023e 185f 273e 0d13 c03d de9e 8abc
000003c0: 9d0f 223e ea45 56be d5cf cc3d 9082 8e3d
000003d0: e8bf 33be d0a6 153e 0918 383d 4208 973c
000003e0: e292 96bd 0500 b4bc f2a8 16be b90e 0abd
000003f0: 321c 1c3e 064c 1ebe c2b0 323e 17d9 1fbe
0.13572665 -0.033091437 -0.069338076 -0.08015176 0.03299602 0.09812735 0.056744885 -0.052791774
-0.06215053 -0.07519904 -0.054592293 0.07462806 -0.05814881 -0.10252317 0.029315446 0.09785144
0.032533523 0.0127231795 0.09814814 -0.022548104 0.18504922 0.17217897 -0.1543219 0.06347327
0.0073515107 -0.11191578 -0.08185116 -0.1267285 -0.16139168 0.08008338 -0.16085914 0.041822024
0.08800197 -0.1367196 0.049874816 0.051360607 -0.09239267 -0.053938977 0.109485276 -0.05785679
-0.16633885 -0.18068062 -0.19637764 -0.040414892 -0.0011521205 -0.13483764 -0.08826828 -0.1559103
0.07615898 -0.088044494 -0.18881269 0.02844102 -0.14464916 -0.1379288 -0.085281 -0.15598524
0.015578426 -0.10493994 -0.1173379 -0.18619916 0.011557445 0.14348128 -0.08143928 -0.09328097
0.06545101 0.044063643 -0.018499678 3.565649e-39 7.753774e-05 -0.0023084867 0.14103281 -0.010276224
0.10417285 0.16582835 0.32286197 -0.076053545 0.0016711686 0.005457117 0.028161284 0.0859406
-0.013450233 -0.0074804565 -0.23883708 0.038573053 0.040816274 0.0028096 0.049216043 -0.22871864
-0.1696236 -0.047174823 -0.29364532 -0.05809454 -0.0058137863 2.267936e-05 -0.0008661135 -0.035204936
0.02623992 -0.19342849 0.19906591 -0.16597837 -0.042960048 0.03591505 -0.09629745 0.069016606
0.08313383 0.08597409 0.061446298 0.10086953 0.2071264 0.14852218 -0.06269994 -0.1162162
-0.19008017 0.013555691 0.09674325 -0.04923892 -0.13245808 -0.129898 -0.11564249 -0.06449871
0.023133492 -0.09263266 0.0023684164 -0.16244875 -0.11437039 0.18849085 -0.08331278 0.15887508
0.084663585 -0.17862174 -0.09380958 0.088826075 -0.13507082 0.032218754 -0.042977583 -0.031537432
-0.03604034 0.019922253 -0.032356385 -0.033938635 0.1291559 -0.20300457 -0.08701043 -0.054447718
0.083405 0.06525961 0.12817653 0.050653845 -0.18620533 0.119272776 0.054238442 -0.024123931
-0.05335924 -0.08454124 -0.028550576 0.0007577816 -0.07672016 -0.083180934 0.11434472 0.1352541
0.010186421 -0.07729502 -3.5816974e-09 2.2037863e-08 -8.083597e-15 -7.093316e-12 0.1860337 0.0007308097
-0.36528745 0.002967517 0.22580579 0.17039984 5.7810996e-07 -4.5962274e-08 -0.23299553 -0.1423451
-1.0768317e-15 -5.7566826e-16 0.037033062 -0.02939315 2.48995e-09 -1.9144602e-06 0.10484974 0.04017588
0.036709055 0.008572581 -0.0046427865 -0.00034188616 1.112438e-07 -2.6296895e-08 0.015520591 -0.0070915837
0.27494845 -0.0032585636 -0.24595024 0.1668684 0.033000525 0.20492715 -0.029214881 0.07934974
-0.0057797176 -0.008305897 0.08424376 -0.08267095 -0.20177607 -0.24102786 -0.013092289 -0.0018865641
-0.11618857 -0.09633883 -0.39088595 0.021723896 0.16700578 0.2438157 -0.007989098 0.050109304
-0.071390614 -0.09415353 -0.14863175 -0.17005551 -0.20316058 -0.19047233 0.18528536 0.12439715
0.14037174 -0.09005468 -0.16830365 -0.1271062 0.073714934 0.0664089 -0.12147705 -0.16208485
-0.06671793 0.05660639 -0.049930904 -0.035266824 0.12777284 0.16344869 0.09378634 -0.016921457
0.15826268 -0.20925108 0.10000578 0.069584966 -0.17553675 0.14614415 0.044944797 0.018436555
-0.073522344 -0.021972666 -0.14712885 -0.033705447 0.1524513 -0.15458688 0.1745024 -0.15610157

weight f4 [16, 16, 2]
00000000: 59b9 023e 56f9 febc 9790 85bd 2065 9abd
00000010: 213d fe3c 6805 bd3d 0d9d 5a3d 4562 4bbd
00000020: 6a70 6fbd ccda 90bd 0b52 52bd 3bc1 8f3d
00000030: af05 60bd 1c7d c5bd 24e1 e13c 587d bc3d
00000040: d9ac fa3c 5011 443c a70f bd3d 76bc adbc
00000050: 883a 323e 30d5 253e 45a2 14be f888 743d
00000060: d893 e23b e094 d7bd 26ab 9dbd 731d f4bd
00000070: 6e71 1bbe 6843 9a3d 1fee 1abe 461f 213d
00000080: 713c aa3d 363d 04be 1af6 403d b1b5 463d
00000090: cbba b2bd 70af 50bd 6acb d33d cdd7 5fbd
000000a0: 40e3 20be 6cc2 2ebe 2bf1 3dbe 9c5c 1cbd
000000b0: 65a3 8eba 376b 02be 50c0 aabd 08cd 16be
000000c0: 8753 933d 7d51 aabd 02a0 36be 5f12 dc3c
000000d0: a7e8 0bbe 9f68 05be f2f8 a4bd 94df 16be
000000e0: 2116 713c 7600 cbbd 32fc e2bd de18 34be
000000f0: dedb 323c 79c7 0a3e 708a 9dbd b272 b4bd
00000100: 4977 ba3d 8284 7b3d 2283 d2bc 4f59 3300
00000110: 08ce e138 e01c 52bb 8da3 483e 954d 6ebc
00000120: 654f 143e c34f 6c3e 34af e53e 2f09 d8bd
00000130: ea14 183b 5059 f83b e1f3 203d 0dbd f43d
00000140: 450e 99bc d23c 2abc 6dc9 a9be 75f5 5c3d
00000150: 4541 683d 70b3 7f3b 2cfd 8b3d 5c9a a2be
00000160: c82c 71be 9fd5 85bd 86cf d0be 74a9 a4bd
00000170: a34a 04bc d606 0438 0945 84ba b3d8 45bd
00000180: 390a af3c 044a 21be 67fd 253e 6866 0abe
00000190: b149 0fbd 9094 ef3c 1398 a0bd 3d32 663d
000001a0: 28a4 8a3d bf60 8f3d 49f2 4c3d 0638 a83d
000001b0: 07b6 2c3e 46b0 f73d b620 51bd f2cf c1bd
000001c0: 467f 1ebe 6eda 343c 6656 a13d f23a 24bd
000001d0: 0ee6 dcbd 18a1 d8bd 03db c0bd 9b20 57bd
000001e0: 5751 9a3c 7a7b 9abd 2ac9 fc3a f574 07be
000001f0: ecbb bebd 032c 1d3e 8ff0 8abd 1b7a 043e
00000200: 8ebf 8d3d 6c87 15be 9d0f 9dbd a3b7 943d
00000210: 8a24 e2bd f7c4 d73c 23e9 0fbd e234 d3bc
00000220: d45c f1bc 696b 853c ecb0 d8bc 9749 e3bc
00000230: 5c3d d83d c6f0 29be 6fad 91bd 8a51 36bd
00000240: 1fa4 8b3d b085 5a3d 9699 d63d 5e9d 293d
00000250: 9ee0 1bbe 5cb1 c73d 259e 353d eb8e a1bc
00000260: 7bac 32bd 1e8b 8dbd 1d34 bfbc 5c65 223a
00000270: ef72 80bd 1444 8bbd 2871 bf3d 1973 e23d
00000280: 72fd a13c 3875 18be b539 ecb1 d7c2 3533
00000290: eb23 8ba8 2d3b 6fad 37dc b73e 493e dc3a
000002a0: bc38 34bf f2c2 ba3b 62fa de3e 7255 a83e
000002b0: 121e 9535 db92 bdb3 4ce0 e5be 8360 8cbe
000002c0: d07b 14a7 3dc2 9ea6 5f4f 923d 270e 68bd
000002d0: 0535 a431 8cfa 76b6 cb0d 4f3e e39d 9e3d
000002e0: d6ea 903d ec4e 873c eb61 11bc 9c33 1aba
000002f0: 9676 6534 aee5 58b3 2083 f33c f1ab 5ebc
00000300: d992 303e f6c8 08bb 29fb 1dbe 9c63 d63d
00000310: 7cbe a93c f6a2 033e 938e 96bc d185 4b3d
00000320: 1540 6ebb dd22 abbb a533 583d 7080 54bd
00000330: c19c 01be e7d1 1abe 4148 06bc aa36 9cba
00000340: c74b 95bd 349a 77bd 1402 7bbe 9943 603c
00000350: c890 d63d 3d9c 1c3e 33c3 a4bb a89d 003d
00000360: e64e 37bd 90bb 71bd d005 bfbd 8147 dabd
00000370: 5f80 02be c1b4 f4bd a1f9 ed3d 64d9 9f3d
00000380: 9061 d73d 302d 8abd 911e 01be e806 c3bd
00000390: fa35 623d 68ca 4b3d cb63 babd 68b2 f8bd
000003a0: 2dbd 4cbd 9db5 2d3d 6539 19bd c772 d8bc
000003b0: c30c c43d 1dca fa3d f9e6 8f3d 8cb5 4fbc
000003c0: 12d5 f23d 9388 20be f371 993d 8089 553d
000003d0: 23ab 06be f43c e03d 57ec 093d 8d4e 623c
000003e0: ae9e 61bd 2bdb 86bc bdbf e1bd 90dd cebc
000003f0: 61ea e93d 3b31 edbd fddf 053e 3284 efbd
0.12766017 -0.031124752 -0.06521719 -0.07538819 0.031035008 0.09229547 0.05337243 -0.049654264
-0.058456816 -0.07072982 -0.051347774 0.07019278 -0.05469292 -0.09643003 0.027573176 0.09203595
0.030599998 0.011967018 0.09231501 -0.02120803 0.1740514 0.16194606 -0.14515026 0.059700936
0.006914597 -0.105264425 -0.076986596 -0.119196795 -0.15179989 0.07532388 -0.15129898 0.039336465
0.083123095 -0.12913975 0.0471097 0.04851312 -0.08727034 -0.05094856 0.103415325 -0.054649163
-0.15711689 -0.17066354 -0.1854903 -0.038174257 -0.0010882436 -0.12736212 -0.08337462 -0.1472665
0.07193666 -0.08316324 -0.17834476 0.026864229 -0.13662969 -0.13028191 -0.08055295 -0.14733726
0.014714749 -0.09912197 -0.11083259 -0.17587611 0.010916678 0.13552655 -0.076924205 -0.08810939
0.09104783 0.061405666 -0.025697295 4.715648e-39 0.000107672124 -0.0032060668 0.1959364 -0.014544864
0.14483412 0.23077302 0.44860232 -0.10548627 0.0023205825 0.0075790063 0.03929508 0.11950121
-0.018683562 -0.010390477 -0.33161488 0.053945024 0.05670287 0.0039016865 0.06835398 -0.31758392
-0.23552239 -0.065348856 -0.40783328 -0.08040133 -0.008074435 3.147762e-05 -0.0010091375 -0.048302364
0.02136718 -0.15750891 0.16209947 -0.13515627 -0.034982387 0.029245645 -0.07841506 0.056200255
0.067695916 0.07000875 0.05003575 0.082138106 0.16866313 0.12094168 -0.051056586 -0.094634905
-0.15478238 0.011038406 0.07877807 -0.040095277 -0.10786067 -0.10577601 -0.09416773 -0.05252133
0.018837614 -0.075430825 0.0019286026 -0.1322821 -0.09313187 0.1534882 -0.06784164 0.12937205
0.06921302 -0.1460244 -0.076689936 0.072615884 -0.110421255 0.026339037 -0.035134446 -0.025782052
-0.02946321 0.016286569 -0.02645155 -0.027745051 0.10558578 -0.16595754 -0.07113158 -0.044511355
0.06818413 0.05335015 0.10478513 0.041409843 -0.15222403 0.097506255 0.04434027 -0.019721469
-0.04362152 -0.069113 -0.02334028 0.00061949133 -0.06271922 -0.06800094 0.09347755 0.110571094
0.019774172 -0.14888465 -6.8750645e-09 4.2319552e-08 -1.5447677e-14 -1.3598717e-11 0.35910198 0.001680323
-0.7039907 0.005699509 0.43550402 0.3287769 1.1110117e-06 -8.827711e-08 -0.44897687 -0.27417383
-2.0606245e-15 -1.1016101e-15 0.07144045 -0.05665412 4.779056e-09 -3.6802694e-06 0.20220105 0.07744958
0.070760414 0.016517125 -0.008873443 -0.0005882324 2.1370428e-07 -5.050031e-08 0.029725611 -0.013590799
0.17243518 -0.0020871735 -0.15427841 0.10468218 0.020720713 0.12855133 -0.018378532 0.049688164
-0.0036354114 -0.005222662 0.052783627 -0.0518803 -0.12657453 -0.15119134 -0.008195938 -0.0011918147
-0.07289844 -0.060449794 -0.24512511 0.013687992 0.104768336 0.15293975 -0.0050281524 0.031400353
-0.044752978 -0.059016764 -0.093272805 -0.106581695 -0.12744282 -0.119485386 0.116198786 0.07805136
0.105166554 -0.067469 -0.12609316 -0.09522802 0.055227257 0.049753577 -0.09101065 -0.12143403
-0.0499851 0.042409528 -0.03740825 -0.026421918 0.095727466 0.12245581 0.070264764 -0.0126775615
0.11857046 -0.15677099 0.07492437 0.052133083 -0.13151221 0.10949126 0.033672657 0.013812673
-0.05508297 -0.01646193 -0.11022899 -0.025252134 0.11421657 -0.115816556 0.13073726 -0.11695136

weight f4 [16, 4, 1]
00000000: 0f7d b23c e448 d13e 1b7f f13e 93b4 223d
00000010: 7c52 1abf 3dea 983d 3a1b a93d f92a f1bd
00000020: 98cb 013f 42a2 93be e732 9f3e 43d8 153f
00000030: 8f11 3abe d60f 17bf d796 c5be 2c20 e93b
00000040: c5d6 b93e 25e2 7e3e 7f26 c5be 34bf b43e
00000050: 33ab 17be 79a7 b13e 273e 89bd 3d6d 82bc
00000060: fd86 0b3f 3661 96bd bd7a 663e 268c 1e3f
00000070: 605c 2a3f fb45 88bd c595 b8bc 23a9 7cbe
00000080: aa77 05bd 885c 69bd bc20 80be 4eb6 efbe
00000090: 1591 db3e 9df1 b43d 906e afbe 08c1 4b3e
000000a0: e7a4 16bf 9531 b33d 8449 99be f32c b3be
000000b0: 761a 1ebf 3458 27bf 6496 443d 7f7e d73d
000000c0: f38c 53be 35eb da3d 4b11 df3e 49cb f0bd
000000d0: 7820 f7be 8787 e23e 11b1 d5be 9257 37be
000000e0: 8b78 30be cd47 14be 1e4e e1bd 6c05 cbbc
000000f0: 0377 7abe d546 d3be 43a1 ad3d 400a 3abe
0.021788148 0.40875924 0.47167286 0.03972299 -0.6028211 0.074665524 0.08257146 -0.117757745
0.50701284 -0.2883473 0.31093523 0.58533114 -0.1817076 -0.5900854 -0.38591644 0.007114431
0.3629667 0.24890955 -0.38505933 0.35302126 -0.14811401 0.34698084 -0.06701308 -0.01592123
0.5450285 -0.0734276 0.22507758 0.619326 0.66547203 -0.06653973 -0.022532353 -0.24673896
-0.032584824 -0.05697301 -0.25024974 -0.46818775 0.42884126 0.088351466 -0.3426404 0.19897854
-0.5884537 0.087496914 -0.299389 -0.3499523 -0.61759126 -0.6536896 0.047994986 0.10522174
-0.20659237 0.106893934 0.4356788 -0.117575236 -0.4826696 0.44244024 -0.41736653 -0.17904499
-0.17233483 -0.14480515 -0.11001228 -0.024782859 -0.24459462 -0.41264978 0.08478024 -0.18167973

bias f4 [16]
00000000: c909 e5bd 7c18 213d 67c4 86bd 288a 9abe
00000010: d5e0 6f3d 28a7 2e3f d59c b53e 172e 09bf
00000020: 71af a1bd 713a 8fbe cde3 e4be 2f20 78be
00000030: ef0e 713f 0460 d83e 41b4 b1be 47f2 913e
-0.11183507 0.03932999 -0.065804295 -0.3018353 0.058564026 0.6822381 0.35471216 -0.5358595
-0.07894791 -0.27974275 -0.44705048 -0.24231027 0.9416341 0.42260754 -0.34707835 0.28505155

bias f4 [16]
00000000: 8e39 b0bd 0890 bd3d 0e8a c6be f1ab dd3d
00000010: 9ddd 51be 53b0 503d 7de5 4bbe a434 aa3d
00000020: 617b d23e 2a7b f63d c2a3 e63d 2f0f c73d
00000030: 305a 3cbe 4a55 a03e 71f7 0abe 8d5c f7bd
-0.08604728 0.092559874 -0.38777202 0.10823811 -0.20494695 0.050949406 -0.19911762 0.08310822
0.41109756 0.120352104 0.11261703 0.09719693 -0.18393779 0.3131507 -0.13570954 -0.120781995

weight_g f4 [16, 1, 1]
00000000: f9e9 003f 7713 0f40 49f0 5f3f 3069 da3f
00000010: e7f9 a53f 6d92 083f 6e21 673f f6df ac3f
00000020: adff 8e3f 7b12 0f3f 811a 043f 2e77 253f
00000030: 0dab 863f 11e0 803f 6a4a 1e3f ee52 1d3f
0.50357014 2.235563 0.8747602 1.7063351 1.2966889 0.5334843 0.90285385 1.3505847
1.1171776 0.55887574 0.5160294 0.6463498 1.052095 1.006838 0.61832297 0.61454666

weight_v f4 [16, 16, 2]
00000000: 7131 afbc 2a8d cd3d 42fe 1e3d ae61 5dbd
00000010: 6c45 313e 4cea cebc f1d9 893d 6859 aa3d
00000020: 1bdf febd a4c1 c93c 2bfb d43d 479b 80bd
00000030: 3f24 8e3c 395e 023e f490 643d 0962 063e
00000040: 5c6a 7bbc 9036 c73d 402c a63a a1e7 d53d
00000050: 31bf 013e 4803 103e aa35 a63c 8055 f73d
00000060: e208 07be 8710 06be 658c 72bd 32ea a63c
00000070: 1963 bd3d 1952 cd3d df80 a83b 5b70 99bc
00000080: 5a14 74bd a7f9 8a3c fb9e d93d a2ce 193d
00000090: 218f 96bd 7601 2fbe fe34 dfbd e04f 93bc
000000a0: d0c7 193e dfb3 b13d e7e2 683e 961a d63d
000000b0: 94c3 d5bd c407 b8bd c424 85be 7bb0 85be
000000c0: b99c d83d 3b37 db3d c16a acbd e0ba 13bd
000000d0: 0a10 4fbd c13d 9c3d 0b41 d7bd a5a1 28be
000000e0: ca7c b33d bb42 273d a66b 9a3e f83c 8b3e
000000f0: 6763 28bc bc72 43bd 37fb 883d 45a9 e1bb
00000100: 2618 ff3d 9972 debd c951 bb3d cd3d dbbd
00000110: 244f db3c 1132 573e 9487 c638 98a8 f8ba
00000120: 21a0 823c 5646 1e3d 1a9e e0bd e0ba 48be
00000130: db9e cd3d 1df9 b1bc 932a 0d3e 997a 603e
00000140: 33ae bfbd 343f bbbd 19ed 18ba 20b5 e63e
00000150: bca4 313e d12a 953c 498b 9dbd e86e b33d
00000160: 6da4 47bd 4e81 9abd ad4f 82be 940d 54be
00000170: f1a3 a93d 96d6 d23d d7ed 0abe 9e9f 02be
00000180: 569d d13c 3466 243d cac7 f7bc 03bb 003e
00000190: 5580 87bc e280 0c3e c6f5 e8bd 0c11 893b
000001a0: a1e3 93bd d9e2 ddbc a7e0 913d df7d 0e3e
000001b0: 5e3d e2bd a3aa 03be de12 46be 932c 3ebe
000001c0: 0de9 d43d 8ab6 78bd f373 fcbd 3195 a0be
000001d0: 8afa cc3c 413c 03be 3d65 2fbe c757 183e
000001e0: ad38 a73d 501c dd3d 0f65 613e b81b 803e
000001f0: 31a4 023e 05ca d23b d19c 423d 6fc4 e73d
00000200: 88c6 23bc 4c71 123d 36a2 a73d ad4e 133e
00000210: c437 f13c bdee 72bd ebc2 613d c513 20be
00000220: 8929 1abd 40f1 503e dafa a73a e650 21be
00000230: 7984 e83d 16b9 ebbd d5aa 1ebe 9d38 c83c
00000240: 428b 823d cc5e 9fbd f922 35be 24da 033e
00000250: e71a a0bd e2ee fe3d 1c7b c83d a9c9 20be
00000260: 89cc cc3d 7df7 75bd 8d48 6dbd 2310 023e
00000270: 8593 d13d 795c 23bd 6baa e43d 9355 98be
00000280: f40c a2bd 5e3a 94bd b36e ea3d 8836 193e
00000290: 852a f0bd bcf3 0ebe d3b8 15bd 2bbb 1a3e
000002a0: 552d 9c3d fead aa3d 1d78 003d b0df bb3d
000002b0: 5000 6abd 156c 163e ef74 bbbd 360f 073a
000002c0: 779c 9a3d 6f4b 153e 7c0b a2bc 7dea 00be
000002d0: 4bf3 033c 7cf2 353e 672f ea3c 736b e83c
000002e0: 186c b23a e220 33bd 8970 153e 1e46 9ebd
000002f0: 1a55 52bd 736f 8b3c df4b a3bb ed87 f8bd
00000300: e8fa 8e3d ed0d bdbd 6a13 9ebd 4773 423d
00000310: cbc3 043e 23da 50be 3ea6 5a3c b136 acbd
00000320: 5372 11be 96c4 cebc ec7c d7bc 282c 0abe
00000330: 09e0 413d c104 f7bd 5d57 183e e11f 253e
00000340: bd9c 07be 63db b83d 07b3 5ebd f749 463d
00000350: b732 2ebe bfbc 0bbe 0d83 123d 5dfa 8f3d
00000360: 3513 033c c356 63bd 97e0 49be 2f38 6abd
00000370: faf2 cbbd fa91 c93d bf96 26bd 11f7 ad3d
00000380: 0d00 c1bc 3c5d 11be 0342 18bd 5ccb 80bd
00000390: aab5 573c fdb8 adbe cdf8 bd3d 22c1 133c
000003a0: d0fa 8a3d c4bb f6bc 2fcb 5dbd 986d b1bc
000003b0: 9210 cc3b 18ea 923d 0305 693d 01e0 9bbd
000003c0: 6407 24bc 7fe0 c2bc af03 a63d b0d9 aa3b
000003d0: 7e2c 24be 624f 67be d4bd 693d f606 b4bc
000003e0: cb51 153a a4b6 debd 160d 3ebd 3502 18bc
000003f0: d419 45bd 8e32 b53c bdb5 c33d c064 463c
-0.02138588 0.100366905 0.038816698 -0.054048233 0.17311639 -0.025258206 0.06731022 0.08317834
-0.12444898 0.024628468 0.10399469 -0.06279617 0.017351268 0.12731256 0.0558023 0.13123335
-0.015345182 0.09727204 0.0012677982 0.1044457 0.1267059 0.14063752 0.02028926 0.12076855
-0.13186982 -0.13092242 -0.059215922 0.020375345 0.09247417 0.100254245 0.0051423158 -0.018730333
-0.05958972 0.016964747 0.10626026 0.037550576 -0.073515184 -0.17090401 -0.10898779 -0.017982423
0.15017629 0.08676886 0.22742806 0.104542896 -0.10437694 -0.08985856 -0.26004612 -0.26111206
0.105767675 0.10703894 -0.08418799 -0.03606689 -0.050552405 0.07628966 -0.10510453 -0.16467912
0.08764036 0.040835124 0.30160254 0.27194953 -0.010277606 -0.04771684 0.066885404 -0.0068866336
0.12455778 -0.108617015 0.09146459 -0.10705147 0.026771136 0.21015193 9.466629e-05 -0.0018971143
0.015945496 0.038641296 -0.109676555 -0.19602537 0.10040065 -0.021725232 0.13785772 0.21921767
-0.09359398 -0.091429144 -0.000583367 0.45060062 0.17347997 0.018208893 -0.07692582 0.08761388
-0.048740793 -0.07544194 -0.25451413 -0.20708305 0.082832225 0.10294835 -0.13567291 -0.12756202
0.025587719 0.04013653 -0.030246634 0.1257134 -0.016540686 0.1372104 -0.113750026 0.0041829403
-0.07221151 -0.027085708 0.07122927 0.13915204 -0.11046861 -0.12858061 -0.19343135 -0.18571691
0.103960134 -0.060720958 -0.12326803 -0.31363824 0.02502181 -0.12815954 -0.17128463 0.14877234
0.08165107 0.10796416 0.22011207 0.25021148 0.12757947 0.006432774 0.047512833 0.113167636
-0.009996064 0.03575258 0.08185236 0.14385481 0.029445536 -0.05930971 0.05511753 -0.15632541
-0.037637267 0.2040453 0.0012815848 -0.15753517 0.11353392 -0.11509912 -0.15494855 0.024441058
0.063742176 -0.07781753 -0.17689122 0.12876183 -0.07817631 0.12447907 0.09789106 -0.15701927
0.099999495 -0.060050476 -0.057930518 0.12701468 0.10233215 -0.03988311 0.11165317 -0.29752788
-0.07912627 -0.07237695 0.114468955 0.14962208 -0.1172686 -0.13960165 -0.036553215 0.15110461
0.07625834 0.083339676 0.03136455 0.091735244 -0.057129204 0.14689668 -0.09153163 0.0005152108
0.075493746 0.14579557 -0.019780867 -0.1258945 0.008053611 0.17768282 0.028587056 0.028371548
0.0013612537 -0.04373253 0.1459371 -0.077282175 -0.05135069 0.017020917 -0.00498341 -0.12135301
0.0698145 -0.09231172 -0.07718547 0.04747322 0.12965314 -0.20395713 0.013345299 -0.08408869
-0.14203767 -0.025240224 -0.026304685 -0.13493407 0.047332797 -0.120614536 0.14877076 0.16125442
-0.13243385 0.0902622 -0.054369953 0.048410382 -0.17011534 -0.1364622 0.03576951 0.07030175
0.008000185 -0.055502664 -0.1971458 -0.057182487 -0.099584535 0.09842296 -0.040671106 0.0849439
-0.023559595 -0.14195722 -0.03717233 -0.06288788 0.013165871 -0.33930197 0.092759706 0.009018214
0.0678612 -0.03011883 -0.05414885 -0.021658704 0.0062275613 0.07173556 0.056889545 -0.07611085
-0.010011528 -0.023788689 0.08106171 0.0052139387 -0.16032597 -0.22588876 0.0570658 -0.021975975
0.0005696087 -0.1087468 -0.0463992 -0.00927787 -0.048120335 0.022118833 0.09556148 0.012108982

weight f4 [16, 16, 2]
00000000: 7131 afbc 2a8d cd3d 42fe 1e3d ad61 5dbd
00000010: 6c45 313e 4cea cebc f1d9 893d 6859 aa3d
00000020: 1adf febd a4c1 c93c 2bfb d43d 479b 80bd
00000030: 3e24 8e3c 395e 023e f390 643d 0962 063e
00000040: 5c6a 7bbc 9036 c73d 402c a63a a1e7 d53d
00000050: 30bf 013e 4803 103e aa35 a63c 8055 f73d
00000060: e208 07be 8710 06be 648c 72bd 32ea a63c
00000070: 1963 bd3d 1952 cd3d de80 a83b 5b70 99bc
00000080: 5c93 34be 6a8c 4e3d 6914 a13e ad79 e33d
00000090: 19d5 5ebe 848f 01bf 0762 a5be 69dd 5abd
000000a0: 92d9 e33e 22af 833e 5d83 2c3f 55a4 9e3e
000000b0: 3a39 9ebe 1534 88be 383a 45bf 7c08 46bf
000000c0: 2c55 a03e 1642 a23e 1224 7fbe 0a53 dabd
000000d0: bb80 19be da3f 673e 307e 9fbe 0ed9 f9be
000000e0: 16ff 843e 6007 f83d d4ab 643f 002f 4e3f
000000f0: 16b3 fabc 19e7 10be dbb2 4a3e 709d a8bc
00000100: 69ff 093e 589a f0bd b19b ca3d 7e32 edbd
00000110: ed61 ed3c c2cf 683e f3d0 b438 12bb 07bb
00000120: c874 8d3c 8d47 2b3d 4ef6 f2bd 9421 59be
00000130: 3079 de3d 796a c0bc fcb5 183e 82d1 723e
00000140: ae64 cfbd a898 cabd 30b6 1eba ad91 f93e
00000150: 8528 403e df40 a13c 2d77 aabd 2213 c23d
00000160: 89e9 57bd 771b a7bd effa 8cbe 3868 65be
00000170: 1e7c b73d 420d e43d ea50 16be 1a55 0dbe
00000180: b2a3 723d 3e8b be3d 3b80 8fbd 48a1 953e
00000190: cb35 1ebd b51b a33e 3132 87be 818e 223c
000001a0: 80ff 2bbe f546 81bd d43b 293e ff68 a53e
000001b0: 6d80 83be f40a 99be 08fb e5be 7ecb dcbe
000001c0: a284 773e a53f 10be 74bc 92be 1d95 3abf
000001d0: 31ed 6e3d 0b57 98be 8ca1 cbbe 3a10 b13e
000001e0: 5108 423e fb50 803e fbf4 023f 17db 143f
000001f0: 17db 973e c623 783c cf7b e23d 6db6 863e
00000200: 2203 a1bc 660c 8f3d d214 243e 7927 903e
00000210: be91 6b3d b2da edbd c00a dd3d 558b 9cbe
00000220: acf9 96bd 0159 cc3e 3e85 1e3b d6db 9dbe
00000230: 8e5c 633e 4bb2 66be 022f 9bbe 1819 443d
00000240: 1a9c ff3d d9cd 1bbe 6a3a b1be a6ee 803e
00000250: 1086 1cbe f97c 793e ee35 443e 5d3d 9dbe
00000260: fc3d 483e 6acf f0bd c6e2 e7bd e894 7e3e
00000270: df1c 4d3e fa9b 9fbd ecc8 5f3e 8dfe 14bf
00000280: 627b a2bd 619f 94bd 740e eb3d f09e 193e
00000290: 2ece f0bd 2655 0fbe db1e 16bd 9c24 1b3e
000002a0: c297 9c3d 4e22 ab3d a8cf 003d b75f bc3d
000002b0: c69f 6abd 97d2 163e adf4 bbbd 3f6b 073a
000002c0: d305 9b3d 2bb1 153e e979 a2bc 5642 01be
000002d0: 364d 043c 796e 363e fdce ea3c d509 e93c
000002e0: aee5 b23a f39a 33bd 5fd6 153e f9b1 9ebd
000002f0: 6fe4 52bd 78ce 8b3c 27bb a3bb 4931 f9bd
00000300: 56e9 d93d 473b 10be 48eb f0bd b86e 943d
00000310: dc63 4a3e b54a 9fbe 9446 a73c 323d 03be
00000320: cbdf 5dbe bcfb 1dbd 5d97 24bd 20c8 52be
00000330: d2ad 933d ec6e 3cbe bb67 683e 4ae5 7b3e
00000340: 0fbc 4ebe 9308 0d3e 28e4 a9bd 8308 973d
00000350: 12ca 84be 1e06 55be b1b2 5f3d 70b9 db3d
00000360: c5a7 463c 5980 adbd 3be3 99be f66f b2bd
00000370: e570 1bbe 21c7 193e d7db 7dbd fbb8 043e
00000380: 4199 73bd 8c43 b7be c4bc bfbd 4442 22be
00000390: 0c99 073d f1fc 5abf 0189 6f3e c2e8 ba3c
000003a0: 3917 2f3e 87a9 9bbd fbde 0bbe a607 60bd
000003b0: ceca 7f3c 0318 393e 6ff8 123e 4d55 44be
000003c0: 6614 cebc 6e4a 75bd a12e 513e 0586 563c
000003d0: 28e3 cebe 78c1 11bf 2965 133e 1294 62bd
000003e0: 2d3a b03a ba67 8cbe 7761 efbd 6514 bfbc
000003f0: 7741 f8bd 47bd 643d d0c3 763e b1aa fa3c
-0.02138588 0.100366905 0.038816698 -0.05404823 0.17311639 -0.025258206 0.06731022 0.08317834
-0.12444897 0.024628468 0.10399469 -0.06279617 0.017351266 0.12731256 0.055802297 0.13123335
-0.015345182 0.09727204 0.0012677982 0.1044457 0.12670588 0.14063752 0.02028926 0.12076855
-0.13186982 -0.13092242 -0.05921592 0.020375345 0.09247417 0.100254245 0.0051423153 -0.018730333
-0.17634338 0.050426878 0.31460884 0.11107192 -0.21760978 -0.5060961 -0.3230135 -0.05343381
0.4450193 0.25719553 0.67387944 0.3098475 -0.30903035 -0.26602235 -0.7704196 -0.77356696
0.3131498 0.31691045 -0.24916103 -0.1066037 -0.14990513 0.22582951 -0.3115096 -0.48798412
0.25975865 0.12110782 0.8932469 0.80540466 -0.030602973 -0.14150657 0.1979479 -0.020582885
0.13476337 -0.11748189 0.09892977 -0.11581896 0.028977359 0.22735503 8.621989e-05 -0.0020710868
0.0172676 0.041816283 -0.11863385 -0.21204215 0.108629584 -0.02348827 0.14913172 0.23712733
-0.10126625 -0.09892398 -0.000605437 0.48743954 0.18765457 0.019684253 -0.08323512 0.094763055
-0.05271295 -0.081595354 -0.27535197 -0.22403038 0.0895922 0.11135341 -0.14679304 -0.13801995
0.059238143 0.09303902 -0.0700688 0.2922461 -0.03862552 0.31857076 -0.2640548 0.009921671
-0.16796684 -0.06312362 0.16526729 0.32306668 -0.2568392 -0.2989117 -0.44918084 -0.43124002
0.24171689 -0.14086778 -0.28659403 -0.7288378 0.058331672 -0.2975391 -0.39771688 0.34582692
0.18948485 0.25061783 0.5115506 0.58146805 0.2965934 0.015145248 0.11058771 0.26311055
-0.019654814 0.06984787 0.16023567 0.28155115 0.057512037 -0.116139784 0.10793066 -0.30575052
-0.0737184 0.39911655 0.0024188305 -0.30831784 0.22203276 -0.22528951 -0.30309302 0.047875494
0.12480946 -0.15215243 -0.3461488 0.25182074 -0.15285516 0.2436408 0.19161198 -0.3071088
0.19554895 -0.11758311 -0.113225505 0.2486149 0.20030545 -0.07793422 0.2185399 -0.58200914
-0.0793369 -0.072569616 0.11477366 0.15002036 -0.11758076 -0.13997325 -0.03665052 0.15150684
0.07646133 0.083561525 0.031448036 0.09197944 -0.057281278 0.14728771 -0.091775276 0.0005165822
0.0756947 0.14618365 -0.019833522 -0.12622961 0.008075049 0.1781558 0.028663153 0.028447071
0.0013648772 -0.043848943 0.14632557 -0.07748789 -0.051487383 0.017066225 -0.0049966755 -0.121676035
0.106402084 -0.14085113 -0.11763626 0.072476804 0.19764656 -0.31111684 0.020419396 -0.12816313
-0.21667401 -0.03857015 -0.040183414 -0.20584154 0.07210888 -0.18401688 0.2269582 0.24599186
-0.20188926 0.13772802 -0.082954705 0.0737467 -0.25935417 -0.20803115 0.054613773 0.10728729
0.01212496 -0.08471746 -0.30056176 -0.08712761 -0.15179785 0.15017368 -0.061977234 0.1296119
-0.059472326 -0.35793722 -0.09362176 -0.15845591 0.03310494 -0.8554221 0.23392107 0.022816066
0.17098702 -0.07600694 -0.13659279 -0.054694794 0.015612317 0.18075566 0.14352582 -0.19173165
-0.025156211 -0.059885435 0.20427944 0.013093476 -0.4040768 -0.56935835 0.14394058 -0.055316992
0.0013445072 -0.27422887 -0.11688512 -0.023325155 -0.121218614 0.05584457 0.24098134 0.03059897

bias f4 [16]
00000000: ed7c 853c e5a8 1b3b 6b36 b13c 3eb8 e3bb
00000010: 9958 3dbd 0cc2 f8b9 dace d3bd 2ee1 b33d
00000020: f754 ba3c d477 18bb c8d5 dcbd 9459 36be
00000030: 6301 ad3c 876d 9339 5025 833c 45ca 58bc
0.01629492 0.0023751792 0.021632394 -0.0069494536 -0.04622707 -0.00047446822 -0.10342188 0.08783184
0.022745593 -0.0023264783 -0.10782963 -0.17807609 0.021118825 0.0002811963 0.016009003 -0.013231819

weight_g f4 [16, 1, 1]
00000000: 208c 0a40 4a7c d83f dc6b 0e40 e162 253f
00000010: f10b 1a3f 9cb7 da3f 2ed7 1e3f 116f 2840
00000020: b280 cf3f 352a 383f 0402 063f be86 183f
00000030: b873 6040 5896 893f 2c3c 1f40 7661 c53f
2.1648026 1.691293 2.2253332 0.64604 0.6017447 1.7087283 0.6204709 2.631779
1.621115 0.719394 0.52346826 0.595806 3.507063 1.0749006 2.4880476 1.5420368

weight_v f4 [16, 16, 2]
00000000: f5b5 6aa0 ae00 0000 63a0 24bc 3c67 693b
00000010: 54c2 babb 775d eeba 5e83 8cbd 5220 acbd
00000020: f179 cd3c 0ab2 6b3d 88a2 d2a7 e423 a4a3
00000030: c71c a337 2deb 35bc a305 a9be fdcf e7be
00000040: 731d ccbe a7fb 01bf 20de 3639 5c96 8038
00000050: bf8f 5590 2c00 0080 2800 0000 0500 0080
00000060: 1158 043b 12ae 7f3b b53c cbbe 4209 10be
00000070: 0600 0000 f703 0000 4200 0080 8300 0000
00000080: 0200 0080 0700 0000 4fc8 83bc 947e c6bc
00000090: 82f6 973c 44fd 073d af66 893c cc42 6ebb
000000a0: a619 b83c f40b 183d 0f00 0000 0600 0000
000000b0: 2a95 e73b 5d31 163d a588 50bd bba6 86be
000000c0: a5f1 67be bf28 1abf 8489 b431 d14f fe30
000000d0: 0800 0080 1800 0000 0700 0080 1100 0080
000000e0: e450 073c 5cdb 4d3c 1b1f a4be 3867 70bb
000000f0: 2000 0080 7200 0080 be88 0f80 3000 0000
00000100: 1600 0000 b17e 8127 e274 a2be 92f9 21be
00000110: 8a50 93be f06e 11bf 84eb c6bd 1fec 2cbf
00000120: e344 913d 521b f2bd 8854 e30a 795f e99b
00000130: 2540 073e 3a25 27bd c7e6 183e a536 983c
00000140: bbc1 00bb b1f1 07bb 91d2 052d 0901 f027
00000150: 3c00 0000 6493 e489 54d9 1406 1f00 0000
00000160: 6517 edbc 8f39 b3bc 5634 94ba 33ef ba3b
00000170: 0e00 0080 1a00 0080 08e8 0c89 1e00 0080
00000180: df6f 803d a55f 263d 0011 53bc 47dc 5cbc
00000190: e6c5 913c d384 4f3d 17d4 dbbd f02d cfbd
000001a0: efcb 143d 5126 963d 56d4 cfbd a17f fbbc
000001b0: 9cde 423c be5e f33d 34ce 953e 66e6 e33e
000001c0: ed08 babe f028 afbe e6af cbbd 4662 073e
000001d0: 8097 083c f660 b2bd 4597 6bbd 69a8 b8bd
000001e0: 1965 8c3c 18c3 ef3c 8e9a f2be 0ff4 99be
000001f0: 40be fb3c 9a1a b0bd ff0c 01be 4e98 36bd
00000200: 2779 453e da19 9ebd 704a b23d 18a0 62bd
00000210: ac4f 09be 5bb2 59be 2e73 12be 77da 30be
00000220: f355 47be 4e79 0dbe 7193 983d e2e9 e6bd
00000230: ad75 d2bc 9703 f13d 09e1 1cbd 5d3f c3bd
00000240: cf26 09be 02ab 1ebe a1ac d5bc b23d 193e
00000250: f0ed 253e 12c0 87bb 8fce 9dbd 6214 403e
00000260: 21dc 39bd d41e e5bb b3c9 13be b14c 47be
00000270: b96e a6bd b02d c73d d993 42be 5a4e f93d
00000280: 0400 0000 0300 0080 97b4 8e3e ea35 d93e
00000290: 5dd3 25be cd95 dcbe 01eb 89bb 7990 c63c
000002a0: 9626 5f3d 8df4 b43d 0a00 0000 0800 0000
000002b0: 56e0 bbbd 799b f43d af7e 663d 2be9 9bba
000002c0: 7b6f 09ba 9435 793a a62e fc83 8864 0600
000002d0: 2b01 0080 0500 0080 9f36 0080 d68d 0536
000002e0: d3e7 8fbe 04dd c3bc e310 faba acf3 1238
000002f0: 0500 0000 0700 0000 e9ae 83b1 0925 d7b5
00000300: 97d7 48be 7c48 723e b2b6 48be a88a 33be
00000310: 102d 17ba 0c98 50bd 748e 993d bc9d cb3d
00000320: 8444 6abc 0a8c 1abe c236 d9bd 2264 883e
00000330: c437 ae3c f090 7fbd c4c9 4fbe a554 12be
00000340: 07a2 793d 209a 59bd 3efe 6bbd 89e3 2e3e
00000350: 8125 4fbe a2bb 73be eed8 70be 5b6a 67be
00000360: 2f85 8cbd 8be9 163b 2ea2 1cbe 5482 0cbd
00000370: 1f9d 6b3e f641 743e 2662 213e c636 573e
00000380: 0d00 0080 0d00 0000 05b5 4abc fd0d 25bc
00000390: 2584 a13b 7503 af3c 5ebc ccbd eafd 2cbe
000003a0: eddb d63c e71a 193c 0300 0080 1100 0080
000003b0: 8936 453c 96bd 053d df7b 813c 76ca eebe
000003c0: 426e 50bd 755a b6bd 0300 0080 0000 0000
000003d0: 0c00 0000 0900 0000 0a00 0080 0b00 0080
000003e0: 57b7 c73b ca45 3b3b 2fb3 45be 3613 28be
000003f0: 0c00 0000 0b00 0000 0300 0000 0300 0000
-1.9880775e-19 2.44e-43 -0.010048005 0.003561451 -0.0056994352 -0.0018185814 -0.06860994 -0.08404602
0.02508256 0.05754284 -5.8462926e-15 -1.7796116e-17 1.9444515e-05 -0.011103434 -0.33012113 -0.4527587
-0.39866218 -0.50774616 0.0001743962 6.131522e-05 -4.211758e-29 -6.2e-44 5.6e-44 -7e-45
0.0020194093 0.0039013666 -0.39694753 -0.14066032 8e-45 1.422e-42 -9.2e-44 1.84e-43
-3e-45 1e-44 -0.016086726 -0.024230279 0.018550161 0.033200517 0.016772596 -0.0036355732
0.022473168 0.037120774 2.1e-44 8e-45 0.0070673423 0.03666817 -0.050911564 -0.2629908
-0.22650774 -0.60218424 5.254323e-09 1.8503618e-09 -1.1e-44 3.4e-44 -1e-44 -2.4e-44
0.008259032 0.012564506 -0.32054982 -0.0036682617 -4.5e-44 -1.6e-43 -1.426586e-39 6.7e-44
3.1e-44 3.594205e-15 -0.317298 -0.1581786 -0.28772384 -0.568099 -0.0971289 -0.6754779
0.07093217 -0.11821617 2.1891102e-32 -3.8608314e-22 0.13208063 -0.040806986 0.14931785 0.018580744
-0.0019646722 -0.0020743425 7.60693e-12 6.6614504e-15 8.4e-44 -5.502761e-33 2.7995374e-35 4.3e-44
-0.02894182 -0.021878032 -0.0011307101 0.0057047843 -2e-44 -3.6e-44 -1.6960988e-33 -4.2e-44
0.06271338 0.040618557 -0.012882471 -0.013480253 0.01779456 0.05066378 -0.10733812 -0.10116184
0.0363273 0.07331527 -0.10147922 -0.030700507 0.0118938945 0.11883305 0.29258883 0.44511718
-0.36334935 -0.3421092 -0.09945659 0.13221082 0.008336902 -0.087099 -0.05751731 -0.09016497
0.01713805 0.029267833 -0.4738354 -0.30069014 0.030730367 -0.08598824 -0.12602614 -0.044578843
0.19284497 -0.077197745 0.08705604 -0.05532846 -0.13409299 -0.21259443 -0.1430175 -0.17270838
-0.19466381 -0.13815805 0.07449997 -0.11275078 -0.025690878 0.11768263 -0.038300548 -0.0953357
-0.1339371 -0.15494922 -0.026083292 0.14964941 0.16204047 -0.0041427696 -0.077054136 0.18757775
-0.045375947 -0.0069922004 -0.14432411 -0.19462849 -0.081265874 0.09725511 -0.19001712 0.121731475
6e-45 -4e-45 0.27872154 0.42423946 -0.1619391 -0.4308304 -0.004208923 0.024238812
0.054480158 0.08835707 1.4e-44 1.1e-44 -0.09173648 0.119437166 0.05627316 -0.0011895051
-0.0005242747 0.000950658 -1.4821939e-36 5.87077e-40 -4.19e-43 -7e-45 -1.9594e-41 1.9901104e-06
-0.28106555 -0.0239091 -0.0019078519 3.503605e-05 7e-45 1e-44 -3.8324868e-09 -1.6029527e-06
-0.19613491 0.23660463 -0.19600943 -0.17533362 -0.00057669077 -0.050926253 0.07497874 0.09942195
-0.014298562 -0.15092483 -0.10606147 0.26638895 0.021266825 -0.062394083 -0.20291811 -0.14290102
0.060945537 -0.0531255 -0.05761551 0.17078985 -0.2022915 -0.23802045 -0.23520252 -0.22599165
-0.0686134 0.0023027386 -0.15296242 -0.034303978 0.23009156 0.23853287 0.15760097 0.21016988
-1.8e-44 1.8e-44 -0.01237226 -0.010074136 0.004929083 0.021363953 -0.09996866 -0.16893736
0.026227916 0.009344793 -4e-45 -2.4e-44 0.012036928 0.032651506 0.015806137 -0.4663884
-0.0508864 -0.08903972 -4e-45 0.0 1.7e-44 1.3e-44 -1.4e-44 -1.5e-44
0.006094854 0.0028575533 -0.19306634 -0.16413578 1.7e-44 1.5e-44 4e-45 4e-45

weight f4 [16, 16, 2]
00000000: 3312 06a1 8c01 0000 4511 babc c4fe 023c
00000010: 06db 4fbc 3f9b 83bb 6b1f 1ebe 0008 42be
00000020: f8fd 663d 47ae 043e abab 6fa8 9927 3ba4
00000030: d4a5 7138 fc85 ccbc 8b51 3ebf c581 82bf
00000040: 5dca 65bf 9255 92bf f15b ce39 d51f 1139
00000050: d63a f690 6500 0080 6100 0000 2d00 0000
00000060: 372f 9b3b 347b 113c bdc8 64bf ac3c a2be
00000070: 1400 0000 4a09 0000 9b00 0080 2201 0000
00000080: 0600 0080 1300 0000 435b 12bd 5c23 5abd
00000090: d4ef 263d 4454 953d bd0c 173d 5307 01bc
000000a0: 6f28 493d c984 a63d 2000 0000 0d00 0000
000000b0: ca54 7e3c 5fba a43d 8c4b e5bd 2fa4 13bf
000000c0: c959 febe 1212 a9bf 6eec 4732 34e2 8c31
000000d0: 1900 0080 3600 0000 1f00 0080 1d00 0080
000000e0: 6409 953c 9dcc e13c acf3 33bf 2f04 03bc
000000f0: 2c00 0080 e800 0080 64d2 2180 6000 0000
00000100: 3400 0000 d3ae 9ca8 94a8 2fbf 1f32 afbe
00000110: 973a 1fbf a43f 9dbf f50c 57be 9fec babf
00000120: 4c34 1d3e ccb9 82be 138b 7c0b 4d45 809c
00000130: 0c2e 923e ab87 b4bd 5565 a53e 3e21 253d
00000140: 2e17 85bb ca82 8fbb 19d4 912d fb08 8328
00000150: 8200 0000 321d 7e8a 47fc a506 4500 0000
00000160: ef21 80bd 72e6 41bd 3d9f 18bb 4e20 4d3c
00000170: 2500 0080 3a00 0080 60c0 9c89 4300 0080
00000180: 7e2d 273d 057e d83c 303f 09bc a8a7 0fbc
00000190: 14ec 3e3c a55e 073d da12 8fbd 4acd 86bd
000001a0: f2ac c13c 7884 433d b54a 87bd 7097 a3bc
000001b0: 84cc ff3b fa9b 9e3d 2e19 433e df83 943e
000001c0: 3f46 72be a40d 64be 1998 84bd e947 b03d
000001d0: 4070 b13b 7339 68bd 7251 19bd 1f67 70bd
000001e0: 00c6 373c a368 9c3c d7f2 9dbe 858b 48be
000001f0: 35c0 a33c ef42 65bd 2908 a8bd f49d edbc
00000200: d990 233e 3af4 82bd 56ad 933d 5bb6 3bbd
00000210: cd77 e3bd 1751 34be 679b f2bd 8c7c 12be
00000220: c61b 25be 1e5d eabd 5dc1 7c3d a443 bfbd
00000230: 8852 aebc 5fa1 c73d 20f1 01bd e5b8 a1bd
00000240: 1c34 e3bd 766c 03be 2cfc b0bc 67db fd3d
00000250: 3370 093e d4e1 60bb ddb5 82bd 2a19 1f3e
00000260: 50f2 19bd 6ac7 bdbb d0d2 f4bd 1b14 25be
00000270: dfda 89bd 6dfa a43d d42a 21be a37f ce3d
00000280: 0900 0000 0400 0080 9758 1f3f 417e 723f
00000290: 3bdc b8be 100e 76bf 170c 17bc 616e 5e3d
000002a0: 4fec f83d 2aee 493e 0d00 0000 1000 0000
000002b0: 597a 51be 6c79 883e c98b 003e 59d1 2abb
000002c0: 177c 89ba 44ae 163b 6525 8784 383b 0d00
000002d0: c801 0080 0c00 0080 4c5d 0080 656a 4336
000002e0: e783 20bf c855 5abd 17ad 85bb 967e 8239
000002f0: 0c00 0000 0c00 0000 ace5 b6b1 68f0 3bb6
00000300: 00fb 0abe 3ca8 273e 3de4 0abe 447b f8bd
00000310: 6339 d1b9 3958 10bd c584 543d 6ae6 8c3d
00000320: 4c1c 22bc bae3 d5bd 3e4f 96bd 21c3 3c3e
00000330: 0e1d 713c 4fd9 30bd 7bc9 0fbe ad84 cabd
00000340: 3dbe 2c3d 0094 16bd f74d 23bd c80a f23d
00000350: cf57 0fbe 10a9 28be e4a9 26be 0823 20be
00000360: 107a 42bd f1db d03a f6c6 d8bd 1d76 c2bc
00000370: c20a 233e 0506 293e d759 df3d f4ec 143e
00000380: 3b00 0080 4400 0000 b0a0 64bd 63df 39bd
00000390: 56ed b53c 5542 c73d 6d4b e9be b8f6 44bf
000003a0: 498d f33d 1e35 2c3d 0e00 0080 4e00 0080
000003b0: 1765 603d 9172 183e ec28 933d 4cf4 07c0
000003c0: 1e31 6dbe e9b2 cfbe 0e00 0080 0500 0080
000003d0: 3200 0000 2d00 0000 2a00 0080 3200 0080
000003e0: ac25 e43c dfc8 563c c126 61bf f56c 3fbf
000003f0: 3b00 0000 3200 0000 0e00 0000 0e00 0000
-4.542505e-19 5.55e-43 -0.022713313 0.007995311 -0.012686497 -0.0040163095 -0.15441673 -0.18948364
0.056394547 0.12957107 -1.330439e-14 -4.0582702e-17 5.7613317e-05 -0.024966232 -0.74343175 -1.0195853
-0.89761907 -1.1432364 0.00039359884 0.00013840136 -9.712054e-29 -1.42e-43 1.36e-43 6.3e-44
0.004735853 0.008879472 -0.893688 -0.31686914 2.8e-44 3.332e-42 -2.17e-43 4.06e-43
-8e-45 2.7e-44 -0.035731565 -0.053256378 0.04075606 0.07291463 0.036877383 -0.007875281
0.049110826 0.081307955 4.5e-44 1.8e-44 0.015523145 0.0804336 -0.1119605 -0.576724
-0.49677876 -1.320864 1.1637082e-08 4.1002526e-09 -3.5e-44 7.6e-44 -4.3e-44 -4e-44
0.018192954 0.027563388 -0.7029369 -0.007996603 -6.2e-44 -3.25e-43 -3.106045e-39 1.35e-43
7.3e-44 -1.7395297e-14 -0.68616605 -0.34217927 -0.62198776 -1.2285047 -0.21001036 -1.4603461
0.15351981 -0.25532377 4.8638062e-32 -8.488243e-22 0.28550756 -0.08814939 0.32303873 0.040314905
-0.004061601 -0.004379605 1.6578782e-11 1.4547816e-14 1.82e-43 -1.2235146e-32 6.243679e-35 9.7e-44
-0.06256472 -0.04733891 -0.0023288273 0.012519909 -5.2e-44 -8.1e-44 -3.7736542e-33 -9.4e-44
0.04081487 0.026427278 -0.0083768815 -0.008768 0.011652965 0.033049244 -0.069860175 -0.065821245
0.023642037 0.047733754 -0.06606046 -0.019969672 0.0078063626 0.07744594 0.19052574 0.2900686
-0.2365961 -0.22270828 -0.06474323 0.08607466 0.0054149926 -0.056695413 -0.037431188 -0.058692094
0.0112166405 0.019092863 -0.30849335 -0.19584472 0.019989112 -0.055972036 -0.082046814 -0.029005982
0.15973224 -0.06394239 0.072107956 -0.045828205 -0.111068346 -0.17609058 -0.11846047 -0.14305323
-0.16123876 -0.11443542 0.061707843 -0.09339073 -0.021279588 0.09747576 -0.031724095 -0.07896594
-0.110939234 -0.12834343 -0.02160462 0.12395363 0.13421707 -0.0034314292 -0.06382344 0.15536943
-0.037584603 -0.0057915943 -0.11954272 -0.16120951 -0.067311995 0.080555774 -0.15738994 0.100829385
1.3e-44 -6e-45 0.6224455 0.947239 -0.36105523 -0.9611521 -0.009219191 0.054304484
0.12154447 0.19719759 1.8e-44 2.2e-44 -0.20456828 0.26655138 0.12553324 -0.0026064722
-0.0010489252 0.0022992054 -3.177269e-36 1.215105e-39 -6.39e-43 -1.7e-44 -3.3469e-41 2.9119194e-06
-0.62701267 -0.053304464 -0.004079472 0.00024889846 1.7e-44 1.7e-44 -5.323008e-09 -2.8005106e-06
-0.13572311 0.1637277 -0.13563628 -0.12132886 -0.00039906343 -0.035240386 0.05188443 0.068798855
-0.009894442 -0.10443826 -0.07339333 0.18433811 0.0147164 -0.04317599 -0.14041702 -0.09888587
0.042173613 -0.036762238 -0.039869275 0.118184626 -0.1399834 -0.16470742 -0.16275746 -0.15638363
-0.04747969 0.0015934688 -0.10584824 -0.023737961 0.15922073 0.16506203 0.109058075 0.14543515
-8.3e-44 9.5e-44 -0.055817306 -0.045379054 0.022207897 0.09729449 -0.45565358 -0.7693896
0.118921824 0.042042844 -2e-44 -1.1e-43 0.054783907 0.14887454 0.071855396 -2.1242857
-0.23163268 -0.40566185 -2e-44 -7e-45 7e-44 6.3e-44 -5.9e-44 -7e-44
0.027849995 0.013109415 -0.8794976 -0.7477563 8.3e-44 7e-44 2e-44 2e-44

bias f4 [16]
00000000: 9d15 3cbd bc7b d3bd 031b 8f3e f249 103d
00000010: f5cb 753e d958 07bd 3e7a a63c 6e9d dc3d
00000020: d289 00be 1df0 44be 7bfc 0dbd 51e0 86be
00000030: aada 3bbe 96a3 9e3d 2d26 00be 102d cc3e
-0.04591905 -0.10326335 0.27950296 0.03522677 0.24003585 -0.033043716 0.020321961 0.10772215
-0.12552574 -0.19232221 -0.034664612 -0.26343015 -0.18345132 0.07746045 -0.12514563 0.3987813

weight_g f4 [16, 1, 1]
00000000: cbbc e93f 0069 913f 0241 993f 611c 233f
00000010: d8e1 f83f 8e85 223f ff73 b23f 81de 803f
00000020: cb90 083f 03b9 f63f 4651 f33f a9a1 543f
00000030: 86a5 953f b01b f63e ccee 183f f8d9 443f
1.826074 1.1360168 1.1972964 0.6371518 1.9443922 0.6348504 1.3941649 1.0067903
0.53345937 1.9275211 1.9009178 0.83059174 1.1691139 0.48068 0.59739375 0.76895094
