weights/gaussian_tcn_shallow_glance.model (torch, 29883 bytes, 44 tensors)

bias f4 [4]
00000000: e2c9 14be ce23 edbe 8cc0 7c40 8f77 fa3e
-0.14530137 -0.4631638 3.9492521 0.4891934

weight_g f4 [4, 1, 1]
00000000: 17ac 013f 7258 233f f5e0 f43f 024f 1d3f
0.50653213 0.6380683 1.9131151 0.6144868

weight_v f4 [4, 4, 3]
00000000: 2d21 253e 1f5a 053e c54d 86be 0679 10be
00000010: 8c49 4a3e 6dbd 523e c3b3 3d3e 0756 d93c
00000020: 4fe9 043e 1e81 223e 33d0 bbbe 9867 81be
00000030: 4e30 b53d 6353 1c3d dff9 27bf d5ca 833e
00000040: 9a08 39be cdbc 473e f37f 5dbe 3261 203e
00000050: c095 943e c14e dfbc 4302 cabe 8e64 edbd
00000060: ce6f db3e 2b2a a63e 39af fa3e 192f 923d
00000070: 34d8 1d3d 1f0f 013c 9f7e f6bd 70d4 7cbd
00000080: d248 8bbe c6bd 1a3f 395d cf3e 9681 173f
00000090: 8987 fc3d 3b1b 85be 762c 83be 5819 c83d
000000a0: bfee 003e 4550 17be 6b5f c63d dcb7 61bd
000000b0: 9002 3abe d00b afbe 6290 dfbe 2926 bbbd
0.16125937 0.1302266 -0.26231208 -0.14108667 0.19754618 0.20580073 0.18525605 0.026530279
0.12979625 0.15869567 -0.3668228 -0.25274348 0.08847104 0.03816546 -0.6561565 0.25740686
-0.18069687 0.19505616 -0.2163084 0.15662077 0.290205 -0.027259232 -0.3945485 -0.11591445
0.42858738 0.32454047 0.4896181 0.071378894 0.038536265 0.00787714 -0.1203587 -0.061726034
-0.27203995 0.6044582 0.4050081 0.5918211 0.12330539 -0.25997338 -0.25619859 0.09770459
0.12591074 -0.14776714 0.09686168 -0.055106983 -0.1816504 -0.341887 -0.43664843 -0.09138138

weight f4 [4, 4, 3]
00000000: 0956 ef3d 3847 c13d 5ca8 42be 7a65 d1bd
00000010: 8d98 123e b2b8 183e c079 093e 6a80 9d3c
00000020: b6a3 c03d f787 eb3d 511b 88be 958e 3bbe
00000030: 966f 733d 0208 d23c 1eaf e1be c611 313e
00000040: 099a f8bd b62d 063e 44cc 14be 5a7a d73d
00000050: 95a1 473e 2a03 96bc 52b4 87be 7479 9fbd
00000060: d9f7 2a3f 7576 013f 6150 433f 60ca e33d
00000070: e8f5 753d 111b 493c b00c 40be 49fc c4bd
00000080: 150a d9be fd1f 713f e88f 213f 7715 6c3f
00000090: aaec cf3d db30 5bbe 1a02 58be 45c1 a43d
000000a0: 5951 d43d 5a2c f9bd 6755 a33d 55d9 39bd
000000b0: 9027 19be 9420 90be 4413 b8be a817 9abd
0.11686332 0.09437412 -0.19009537 -0.10224433 0.14316006 0.14914206 0.1342535 0.019226272
0.094062254 0.115005426 -0.2658334 -0.1831611 0.05943259 0.025638584 -0.44078916 0.17291936
-0.12138755 0.13103375 -0.14531046 0.105213836 0.19495232 -0.018312056 -0.2650476 -0.07786837
0.66784436 0.50571376 0.76294523 0.11122584 0.060048968 0.01227452 -0.1875484 -0.09618432
-0.42390504 0.94189435 0.6311021 0.9222025 0.10152562 -0.21405356 -0.21094552 0.08044676
0.10367078 -0.121666625 0.079752736 -0.04537328 -0.14956498 -0.28149855 -0.35952199 -0.07524043

bias f4 [4]
00000000: 070e 36be 5c37 1740 5eae 0a41 6be7 15be
-0.17778789 2.3627539 8.66757 -0.1463906

weight_g f4 [4, 1, 1]
00000000: f234 e73e f6fb f53f 8834 6840 acf5 c23e
0.45157582 1.9217517 3.6282063 0.38078058

weight_v f4 [4, 4, 3]
00000000: 2542 a9bd 109e b6be 5dcf eabc d790 82bd
00000010: 9a4a 023e 8cb6 2b3e 1451 dfbe e897 d1be
00000020: f731 21bf 49ac 9e3d a287 7b3d 817d 773e
00000030: 6054 27be cfc0 19be d1dd f73d 17eb 4fbe
00000040: d2c9 1f3e c953 0a3f 0648 c33a 06c5 1e3c
00000050: a89e ed3c 3659 483f 93e1 043f 2971 7d3f
00000060: 5c15 113e 54fe 853d 638a 0fbd 5c6d 433d
00000070: 982e 8e3d 49e0 7abe 41e5 febe 2de1 07bf
00000080: 1751 06bf 0274 943d 7cb0 d63d 2f8f e83d
00000090: 0d91 96bc e3a9 0e3e d2fa d1bd 4b93 5a3d
000000a0: 8c4c 4cbe cfb0 94be 339e 8bbe eca3 c2be
000000b0: 8fb3 9bbd d163 573e d9d1 7bbe af09 4a3e
-0.08264569 -0.35667467 -0.028663332 -0.06375282 0.1272377 0.16768855 -0.43616545 -0.40936208
-0.62966865 0.077477045 0.061408646 0.2416897 -0.1634078 -0.15014957 0.12102855 -0.20304523
0.15604332 0.54034096 0.0014898784 0.009690529 0.029006317 0.78261125 0.519067 0.99000794
0.14168304 0.0654265 -0.035044085 0.047711715 0.06942481 -0.2449962 -0.49784282 -0.53077966
-0.52467483 0.07248689 0.104828805 0.11355435 -0.018379712 0.13931994 -0.10252918 0.053363126
-0.19951075 -0.29041144 -0.27269134 -0.38015687 -0.076026075 0.2103417 -0.2459177 0.19730256

weight f4 [4, 4, 3]
00000000: 0e6e 18bd f275 24be cd76 53bc 2a2b ebbc
00000010: a7ac 6a3d faa3 9a3d 0e1d 49be 2dc1 3cbe
00000020: 1a2b 91be 9fe5 0e3d 8285 e23c 32e2 de3d
00000030: c1c1 54be a17e 43be 4094 1d3e b02e 84be
00000040: 152b 4b3e 82e1 2f3f 0c4c f83a 7cdf 493c
00000050: 9910 173d 66bd 7e3f cbf4 283f ac1f a13f
00000060: 2db4 083f 3c82 7c3e 0340 07be cc23 383e
00000070: 4ff8 853e dd62 6cbf 672c f0bf 1408 00c0
00000080: 321e fdbf ffe0 8b3e 1d4a ca3e 9720 db3e
00000090: 6b2b 1ebc 17de 953d 3795 5cbd ce9c e53c
000000a0: 829d d6bd ec32 1cbe 08ab 12be 0678 4cbe
000000b0: 4d90 23bd 2644 e23d 8d44 04be 6a3d d43d
-0.03721433 -0.16060618 -0.012906742 -0.028707106 0.05729356 0.07550807 -0.1963999 -0.18433066
-0.28353196 0.034886952 0.027651552 0.10882987 -0.20777036 -0.19091274 0.15388584 -0.2581687
0.19840653 0.6870347 0.0018943562 0.012321349 0.036881063 0.9950775 0.65998524 1.258779
0.53399926 0.24659055 -0.13208012 0.17982405 0.26166007 -0.92338353 -1.876355 -2.000493
-1.977484 0.27320096 0.3950967 0.42798302 -0.009653906 0.07317751 -0.05385324 0.028028872
-0.10479261 -0.152538 -0.14323056 -0.1996766 -0.039932538 0.110481545 -0.12916775 0.10363276

bias f4 [4]
00000000: 0f30 673e 8c7f bc3d 8da1 323e 3c07 30be
0.22576927 0.09204015 0.17444439 -0.1719026

weight_g f4 [4, 1, 1]
00000000: 0070 803f 2b34 2a3f 8eb4 003f 82da 083f
1.003418 0.6648585 0.50275505 0.53458416

weight_v f4 [4, 4, 3]
00000000: fa77 9fbc 20fd 5cbc 2654 133d 7ebb ad3c
00000010: cc46 48ba b61e 6ebd 25b7 4d3c 0901 9a3e
00000020: e910 b4be 1aa3 77ba 0a4b 1dbd 1dff 963d
00000030: bad1 37be 922e e2bd cac4 82be fdcd 47be
00000040: d175 57bd d3cc 6e3b 3d9a 623e 6a83 ec3d
00000050: aec3 163e f69e dcbd a2ed 2cbe 7f8e f0bd
00000060: 2e7e 9e3e 01e5 c5bb 859c 28be a59f 7abe
00000070: ade8 583d 67ab 91be 34d3 cabd 5dbc de3c
00000080: c911 2e3e 54ea 88be 84a3 f53d b23c 25be
00000090: af18 8dbe fbb9 1cbe 562c 183c f4c5 a3be
000000a0: 2b8b b0bd ac74 75be 9a6a 0c3e 0193 08be
000000b0: bad7 91be 5cbf 40be e065 693e a861 93bd
-0.019466389 -0.013488084 0.035968922 0.021207567 -0.0007639944 -0.058134757 0.012555872 0.30078915
-0.3516915 -0.0009446606 -0.03840164 0.07372878 -0.17951098 -0.11044039 -0.25540763 -0.19512172
-0.052602593 0.0036438003 0.2212915 0.11548503 0.14723083 -0.10772507 -0.16887525 -0.11745929
0.30955642 -0.0060392623 -0.16465957 -0.24474962 0.052956272 -0.28451082 -0.09903565 0.027189428
0.16998972 -0.26741278 0.11994079 -0.16136435 -0.27557895 -0.15305321 0.009287914 -0.31986964
-0.08620294 -0.23970288 0.1371254 -0.13337328 -0.284849 -0.18822998 0.22792768 -0.07196361

weight f4 [4, 4, 3]
00000000: c3f4 27bd 21c0 e8bc 872b 9b3d a0fa 363d
00000010: 99ef d2ba 22cb fabd 0caa d83c 5d33 223f
00000020: 57a6 3dbf 9968 02bb 2faa a5bd 7708 1f3e
00000030: d491 63be ea01 0cbe 86e4 a1be 135c 77be
00000040: e75e 85bd 74d1 933b 9044 8c3e 1567 123e
00000050: bfa5 3a3e b290 08be 2616 56be cee7 14be
00000060: 517e 763e d8e2 99bb 731d 03be 9de3 42be
00000070: 06ac 283d d68c 62be 59b8 9dbd fc33 ad3c
00000080: fd5b 073e 70ef 54be 4503 bf3d ba7d 00be
00000090: b86f 5abe 46a2 f2bd b195 eb3b 118b 7dbe
000000a0: 20a8 88bd d8ff 3dbe 3862 d93d 796f d3bd
000000b0: c5c8 61be 1b33 15be 75aa 343e a12a 64bd
-0.041004907 -0.028411927 0.075766616 0.04467261 -0.0016093134 -0.12245776 0.026448272 0.63359624
-0.7408194 -0.001989877 -0.080891006 0.15530573 -0.22223598 -0.13672605 -0.31619662 -0.24156217
-0.06512242 0.0045110527 0.2739606 0.14297135 0.1822729 -0.13336447 -0.20906886 -0.14541551
0.24071623 -0.0046962313 -0.12804203 -0.1903214 0.04117968 -0.22124037 -0.07701177 0.021142952
0.13218684 -0.20794463 0.093267955 -0.12547961 -0.2133168 -0.118473575 0.0071894755 -0.24760081
-0.06672692 -0.18554628 0.10614437 -0.10323996 -0.22049244 -0.14570276 0.17643149 -0.055704717

bias f4 [4]
00000000: 2c08 7cba 3e5c 243d 6f33 003f 4b8a adbd
-0.0009614255 0.04012703 0.5007848 -0.08473643

weight_g f4 [4, 1, 1]
00000000: 4345 663f ff55 1d3f 10a1 283f 4cad 133f
0.89949435 0.61459345 0.6587076 0.57686305

weight_v f4 [4, 4, 3]
00000000: 7ff7 123e 79e8 a2bd 0f04 30be ab8b a1be
00000010: 8934 cbbe 117d 04be 7a4d 623d ba7c 23be
00000020: 0411 81be d6f6 19be 6578 84bc 38e5 ecbd
00000030: f9a4 473e b03a 22be 5808 a2bd 056f dabd
00000040: efde edbd d086 2ebe 0a0c 9abe a751 6f3e
00000050: 25aa 373e 5d90 20be 779d 7cbe b682 eb3d
00000060: 3d9c 2a3e ace7 923e 4b8c 263f ce70 813e
00000070: ff16 673e 5f42 9b3c 6b1e 2dbe dd79 593e
00000080: a5a7 80bd 2f9a 6b3e 1323 793e 4c5b 76bd
00000090: 5dc9 b4bc 007c b4be ca47 18bc a851 afbe
000000a0: 1f6a c0bc 7116 53be 205f 203e 20e8 ae3d
000000b0: 4805 093c faa5 51be 7922 b33e 3fad 673e
0.14352225 -0.07954497 -0.17189048 -0.3155187 -0.3968852 -0.12938334 0.05524967 -0.15965548
-0.25208294 -0.15035567 -0.01617069 -0.115671575 0.19496526 -0.158427 -0.07911748 -0.106657065
-0.11614787 -0.17043614 -0.3008731 0.23370992 0.17935999 -0.1568007 -0.24669443 0.114995405
0.16661163 0.28692377 0.6505782 0.25281376 0.22567366 0.018952547 -0.16906135 0.21237893
-0.06281976 0.23008035 0.24329786 -0.06014566 -0.022068674 -0.35250854 -0.00929446 -0.34241986
-0.023488102 -0.2061403 0.15661287 0.08540368 0.008363076 -0.20473471 0.34987238 0.22624682

weight f4 [4, 4, 3]
00000000: 9234 433e 0961 d8bd 05ca 69be bf91 d6be
00000010: 8ff3 06bf 96f9 2fbe 6d4a 963d f425 59be
00000020: fe6d abbe e17f 4cbe 62f3 afbc 5453 1dbe
00000030: 072f 423e bbca 1dbe c399 9dbd 8375 d4bd
00000040: 535d e7bd bfc0 29be 60d5 95be e6c5 683e
00000050: 17a4 323e 112c 1cbe 9cb4 75be a011 e53d
00000060: 5df5 f43d 41ec 523e 3c20 ef3e 14d9 393e
00000070: 94e5 253e f3ea 5e3c 638f f8bd a41f 1c3e
00000080: 43b8 38bd e122 293e 48da 323e 4edb 30bd
00000090: 06e9 8ebc dfab 8ebe b4c0 f0bb 9196 8abe
000000a0: 201a 98bc eddc 26be 758b fd3d 2543 8a3d
000000b0: 95a0 d83b a9b9 25be bc9a 8d3e 7423 373e
0.19063023 -0.10565383 -0.2283097 -0.4190807 -0.5271539 -0.17185053 0.07338414 -0.21205884
-0.33482355 -0.19970657 -0.021478359 -0.15363818 0.18963252 -0.15409367 -0.07695343 -0.10373976
-0.11297097 -0.16577433 -0.29264355 0.22731742 0.17445408 -0.15251185 -0.23994678 0.11185002
0.11960862 0.20597936 0.4670428 0.18149215 0.16200858 0.013605821 -0.12136724 0.15246445
-0.0450976 0.16517211 0.1746608 -0.043177895 -0.017445099 -0.27865502 -0.0073471908 -0.27067998
-0.018567145 -0.16295214 0.12380115 0.06751088 0.0066109397 -0.16184105 0.27657115 0.17884618

bias f4 [4]
00000000: e34b cfbe 2c63 a43c 52c2 8c3e 3d4c da3f
-0.40487584 0.02006682 0.27492005 1.7054516

weight_g f4 [4, 1, 1]
00000000: 509a 0d3f 7fb4 3b3f 3d26 183f 4da3 2140
0.5531359 0.7332229 0.59433347 2.525592

weight_v f4 [4, 4, 3]
00000000: 8736 02be 5fa6 adbe b67a 1bbe 7c60 69be
00000010: 982a f0bd 6825 46bd f3e3 073e 24c9 033e
00000020: 2c93 1a3e 574a 80be d2bb 4fbe 0a94 5fbe
00000030: c615 72be ba28 90be 2461 a8bc 8599 2dbe
00000040: 0012 033f d995 17be da0f 84bd e8e7 183e
00000050: 5968 89be df63 e43d f071 1c3e 5c00 a73d
00000060: 1b11 aabe 9da6 8c3e a0b8 a33e 0588 f63d
00000070: 45dc 633e 2b8b a83e 051a 233d 4f28 30be
00000080: ec8d 933c 9c8f 263f 1967 db3e 894c 213e
00000090: 6333 8b3e c4ab 22bc 2443 a33e c514 bc3d
000000a0: 6514 fb3c 3166 06bf 1fc0 9f3d 0a04 a43e
000000b0: 8e21 2abf 49a8 043f 1cf3 a93e b16e be3d
-0.12716113 -0.33915994 -0.1518353 -0.22790712 -0.11726874 -0.048375517 0.1327055 0.12869698
0.15095204 -0.25056717 -0.20286492 -0.21833816 -0.23641118 -0.28156072 -0.020554133 -0.16953094
0.5119934 -0.14803256 -0.06448336 0.14932215 -0.26837423 0.111518614 0.15277839 0.081543654
-0.33216175 0.27470866 0.31976795 0.120376624 0.22251995 0.32918677 0.039819736 -0.17202877
0.01801201 0.6506288 0.42852095 0.15751852 0.27187642 -0.009928647 0.31887162 0.09183649
0.030649373 -0.5249968 0.07800316 0.32034332 -0.6645745 0.5181928 0.3319329 0.092984565

weight f4 [4, 4, 3]
00000000: 0375 dbbd 0755 92be 2505 03be c7a9 44be
00000010: 7462 cabd 89f9 26bd 9006 e53d 901b de3d
00000020: 0842 023e 7d37 58be d50d 2fbe f367 3cbe
00000030: 5a3a 67be 9cb1 89be f2d3 a0bc 64d0 25be
00000040: 5162 fa3e 78c9 10be 4147 7cbd 5e0c 123e
00000050: bf3e 83be af25 da3d c46d 153e fd82 9f3d
00000060: 0ab4 3ebe c6b7 1d3e 7096 373e 1e39 8a3d
00000070: 7f82 ff3d c9fe 3c3e 96e4 b63c 7188 c5bd
00000080: 8875 253c a3c5 ba3e 9706 763e 1adf b43d
00000090: daa5 143f 00b6 adbc a657 2e3f 7ad8 483e
000000a0: 510f 863d 3c85 8fbf 9e97 2a3e a325 2f3f
000000b0: 67ad b5bf 11a9 8d3f ce7b 353f 405b 4b3e
-0.107156776 -0.28580496 -0.12794931 -0.1920539 -0.0988206 -0.04076532 0.11182892 0.10845101
0.12720501 -0.21114917 -0.1709512 -0.18399028 -0.22580853 -0.26893318 -0.019632313 -0.16192776
0.48903134 -0.14139354 -0.06159139 0.1426253 -0.2563381 0.10651719 0.14592654 0.07788656
-0.18623367 0.15402135 0.17928481 0.067491755 0.12476062 0.18456568 0.022325795 -0.09645165
0.010098822 0.3647891 0.24025951 0.08831616 0.5806557 -0.021204948 0.6810249 0.1961383
0.0654589 -1.1212535 0.166594 0.68416804 -1.4193543 1.106722 0.70892036 0.19859028

bias f4 [4]
00000000: 88aa 7a3e e5df ec3f 1c03 a63e 0365 23be
0.24479115 1.8505827 0.32424247 -0.15956502

weight_g f4 [4, 1, 1]
00000000: 9c87 d23e 8e52 af3e bf36 3c3f d37b cc3e
0.41119087 0.34242672 0.73521036 0.3993822

weight_v f4 [4, 4, 3]
00000000: 18f7 d3be 3a97 23be 25bf 14be 142c 27be
00000010: f696 2dbe 4836 1abc 35ee ccbd 5200 31bd
00000020: 7d27 6cbd 6260 9cbe a42a 63be 5df6 83bd
00000030: 6141 58be 1ef2 1fbe 9a5c 77ba 98bd 16be
00000040: 68c6 74bd 0a7e b13e 2046 923e 1ace 533e
00000050: 30bc c23d 58bc 823c e2a8 0b3d 259c 203e
00000060: b217 ae3d be01 773e 7713 eb3d c316 153e
00000070: 2824 303d d2c5 bf3e f697 aabd e26c f3bd
00000080: 5e94 e8bc 9611 8d3d 7dce 2a3d 379c df3e
00000090: d39e 3dbe da5a dcbe a8b7 973d 584e 223e
000000a0: ddc2 063e 3739 9c3e 608f 2c3e 9f0b 263e
000000b0: cdbb ee3d 2b08 29bc 4271 303c ceed 9bbd
-0.41399455 -0.15975657 -0.14526041 -0.16325408 -0.16952118 -0.009412356 -0.10006372 -0.043213196
-0.057654846 -0.30542284 -0.22184235 -0.064434744 -0.2111869 -0.15619704 -0.0009436101 -0.14720762
-0.059759527 0.34666473 0.28569126 0.2068409 0.0950855 0.01595895 0.034096606 0.15684564
0.08500613 0.24121758 0.11478322 0.14559464 0.04300323 0.37455612 -0.083297655 -0.11886002
-0.02839106 0.0688812 0.04170083 0.4367387 -0.18517618 -0.43038064 0.074080765 0.15850198
0.13160272 0.305124 0.16851568 0.1621537 0.11656914 -0.010316889 0.01076919 -0.07613717

weight f4 [4, 4, 3]
00000000: b018 84be 28e6 cbbd bf65 b9bd eb5c d0bd
00000010: 9a5c d8bd 9f35 c0bb c16c 7fbd 279d dcbc
00000020: c72b 13bd 42e8 42be e591 0dbe 3f7a 24bd
00000030: db36 f2bd 3725 b3bd fc86 0aba d1d5 a8bd
00000040: 2414 09bd 56cc 463e 17d5 233e d23a ed3d
00000050: 5a1c 5a3d d36d 123c 986c 9c3c a7e3 b33d
00000060: 2182 bc3d e9ba 853e a28a fe3d 2a6f 213e
00000070: 04ba 3e3d 0aa7 cf3e 39b8 b8bd 85ca 03be
00000080: 9ed6 fbbc fabf 983d 44f3 383d 5420 f23e
00000090: b9af e5bd 1d75 85be 50c6 373d c399 c43d
000000a0: 553c a33d 9d3b 3d3e 7305 d13d 4e21 c93d
000000b0: a896 903d 66bf ccbb 55b9 d53b 45e0 3cbd
-0.25800085 -0.09956008 -0.0905261 -0.10173973 -0.10564537 -0.005865767 -0.062359575 -0.026930405
-0.03593042 -0.19033912 -0.13825186 -0.040155645 -0.11826869 -0.087473325 -0.00052843965 -0.08243907
-0.033466473 0.19413885 0.15999256 0.11583485 0.053249694 0.008937317 0.01909475 0.087836556
0.092045076 0.26119164 0.12428786 0.15765062 0.046564117 0.40557128 -0.09019513 -0.12870224
-0.030741986 0.074584916 0.04515387 0.4729029 -0.11215157 -0.26065913 0.04486686 0.0959964
0.07970492 0.18479772 0.102061175 0.098208055 0.070599854 -0.0062484024 0.0065223374 -0.046112318

bias f4 [4]
00000000: d71c 19be 4cd6 7abe dd0d 5cbe 2dde 4cbe
-0.14952408 -0.2449581 -0.21489663 -0.20006628

weight_g f4 [4, 1, 1]
00000000: 6f98 c53f 4b79 0b3f 3579 213f 38f9 e83e
1.5437144 0.54481953 0.6307557 0.4550264

weight_v f4 [4, 4, 3]
00000000: cad1 b0be 5ae7 9f3d 34b3 a43e 9a7d c53d
00000010: d977 82bd 7195 ef3e a8f8 683d baaf 1cbe
00000020: d1ba 01be f6c9 16be bc9e 4fbe 12a8 b03e
00000030: 01d5 09be 1abe 7c3c 4c07 4cbe 3c0e c2bc
00000040: 5508 3bbe f5eb e43e b4a3 3fbe bc70 6c3e
00000050: 815e dcbc c7b0 8ebe e858 a73e 6197 9e3e
00000060: c3ef e43d 6952 17be bd63 463e 75e7 3a3e
00000070: 35d2 4bbd be71 863e 559f 26be b4d4 0b3e
00000080: f60a 97bd 9081 953e 392c 3a3e 1896 693e
00000090: 94ed 17be 6a83 1abe 34c7 5f3e 8fef 28be
000000a0: 8f0b 40bb 96f7 5ebc cb4a 67be 8c65 8a3d
000000b0: c617 393e e137 9abe 36ae b5bd cdb6 7b3e
-0.34535056 0.07807799 0.3216797 0.09643097 -0.063705154 0.46793702 0.056877762 -0.1530141
-0.12668921 -0.1472548 -0.20275396 0.34503227 -0.13460161 0.015426183 -0.19924659 -0.023688428
-0.18264897 0.4471127 -0.18714792 0.2308988 -0.026900532 -0.27869245 0.32685018 0.30974868
0.111785434 -0.1477753 0.19373985 0.18252356 -0.049761016 0.26258653 -0.16271718 0.13655359
-0.073751375 0.2920041 0.18180932 0.22811162 -0.14836723 -0.15089193 0.21853334 -0.16497634
-0.0029303764 -0.013608834 -0.22587125 0.0675765 0.18075475 -0.30120757 -0.08871119 0.24581452

weight f4 [4, 4, 3]
00000000: e4d0 24bf 6d0c 153e ec84 193f 7615 383e
00000010: f238 f3bd c751 5f3f e827 d93d b60c 92be
00000020: 8dd8 71be 708d 8cbe 8f86 c1be 00aa 243f
00000030: 3eac b8bd 3751 293c c7ae 08be 6e00 82bc
00000040: f697 fabd f35b 993e 1162 00be 6565 1e3e
00000050: 31a1 93bc b32e 3fbe f037 603e a67c 543e
00000060: 8607 e53d 1e62 17be 5578 463e dbfa 3a3e
00000070: 5de7 4bbd b27f 863e a1b0 26be 37e3 0b3e
00000080: a31a 97bd 1591 953e 8d3f 3a3e 56ae 693e
00000090: b828 e4bd a40a e8bd be07 283e 59b3 fdbd
000000a0: df33 10bb d96b 27bc 20ac 2dbe 97d6 4f3d
000000b0: 78fb 0a3e 3499 67be 876b 88bd ba01 3d3e
-0.6438124 0.14555521 0.5996845 0.17976937 -0.11876096 0.8723416 0.10603315 -0.28525323
-0.23617764 -0.27451658 -0.37797973 0.643219 -0.090172276 0.0103343045 -0.13347922 -0.015869346
-0.122360155 0.29952964 -0.1253741 0.15468366 -0.018021198 -0.18670158 0.21896338 0.20750675
0.111830756 -0.14783522 0.1938184 0.18259756 -0.049781192 0.262693 -0.16278316 0.13660894
-0.073781274 0.2921225 0.18188305 0.2282041 -0.11140579 -0.113301545 0.16409203 -0.123877235
-0.0022003574 -0.010218584 -0.16960192 0.05074176 0.1357249 -0.22617036 -0.06661134 0.1845769

bias f4 [4]
00000000: f066 b8be b6a5 b240 4ba1 2f3f 4734 bcbe
-0.36016035 5.5827284 0.6860549 -0.36758634

weight_g f4 [4, 1, 1]
00000000: bf23 e53e 626c 98bf 9238 193f da7c 093f
0.44753835 -1.1908076 0.59851944 0.53706133

weight_v f4 [4, 4, 3]
00000000: 4f56 cbbd c20c 79be 3700 c0be 4819 b03a
00000010: b218 5b3c af6b abbe a868 723d 27ab 92bd
00000020: a26c e0bd 889a 39be 10af 4ebe 6d41 4bbe
00000030: 447b 0abe a655 a7bd b76f 833f 64ff 39be
00000040: 50bc 893e 3f06 243f 71ae b23d b7a6 dd3e
00000050: 6154 123f a425 3b3d bbbd 043f e50f 513d
00000060: 0f3c c2bd acf9 c7be 6922 c93d 4cdb 98be
00000070: 3e58 593f 74bf d5bd 1928 8d3d 2251 cf3d
00000080: b973 54be cee4 b73d e0be 66be e8d4 053e
00000090: f9ce b8be 2586 40be 90cf 67be 975a 8dbd
000000a0: fdf0 4abe cb35 263e 594f bc3c c499 acbe
000000b0: b6d4 b0be 0362 45be 34cb 44bd c3be 813c
-0.099285714 -0.24321273 -0.37500164 0.0013435269 0.013372587 -0.33480594 0.05918184 -0.07161551
-0.1095822 -0.18125355 -0.20183969 -0.19849177 -0.13523585 -0.08170633 1.0268468 -0.1816383
0.26901484 0.6407203 0.08724678 0.43291256 0.5716 0.045690194 0.51852006 0.05104055
-0.094841115 -0.39057672 0.09821016 -0.2985481 0.8490027 -0.104369074 0.06892414 0.10122897
-0.2074727 0.08979188 -0.2253375 0.13069499 -0.36095408 -0.18801172 -0.22637773 -0.06902044
-0.19818492 0.16231458 0.022987055 -0.33711064 -0.34537286 -0.1927567 -0.048045352 0.015838033

weight f4 [4, 4, 3]
00000000: 29d4 86bd d123 25be ad9f 7ebe f888 693a
00000010: 4747 113c c454 63be 83bc 203d 8481 42bd
00000020: aecf 94bd d923 f6bd 410c 09be 50c6 06be
00000030: 894f d53d 98e0 803d 6c75 4abf 4d40 0f3e
00000040: 6529 54be e3a7 fcbe cc9d 89bd f6b5 aabe
00000050: 4766 e1be ed22 10bd ee77 ccbe d103 21bd
00000060: 071d 5bbd e096 61be 9fe5 623d 7a6f 2cbe
00000070: fd2e f53e 4320 71bd a23c 1f3d 12df 693d
00000080: 0aaa efbd b272 4f3d 8526 02be 41f9 963d
00000090: c394 84be bf1d 0abe e94c 26be 52d0 4abd
000000a0: ef96 11be 357a ee3d d217 873c 7fa5 77be
000000b0: 4db7 7dbe 189a 0dbe e72d 0dbd 5b28 3a3c
-0.06583435 -0.16126944 -0.24865599 0.00089086546 0.0088670915 -0.22200304 0.03924228 -0.047486797
-0.07266174 -0.12018556 -0.1338358 -0.13161588 0.10415561 0.06292838 -0.7908542 0.13989373
-0.20718916 -0.49346837 -0.067195505 -0.3334195 -0.44023344 -0.035189558 -0.3993525 -0.03931028
-0.05349448 -0.2203021 0.055394765 -0.168394 0.47887412 -0.058868658 0.038876183 0.057097502
-0.11702354 0.05064649 -0.12710007 0.0737176 -0.25894746 -0.1348791 -0.16240276 -0.049515076
-0.14217733 0.11644403 0.01649085 -0.24184225 -0.24776955 -0.13828313 -0.034467604 0.011362161

bias f4 [4]
00000000: ef3d 663d 85fd 5c40 28ff 74bf 4599 9f3e
0.05621141 3.4529736 -0.9570184 0.31171623

weight_g f4 [4, 1, 1]
00000000: 7d89 7f3f f1de c03f 9446 c93e 0fb4 f93e
0.99819165 1.5068036 0.3931166 0.48770186

weight_v f4 [4, 4, 3]
00000000: f85d a3be c408 8d3d fa5d bebc f43b c63c
00000010: dff7 be3e 9639 a4be 5bd2 1ebd 3eb1 443e
00000020: 7a76 a3be 5985 29be 950a 113e 3df8 d1be
00000030: aa4d 15bf 9c07 323e 87c5 713d fdfa 383d
00000040: cd2a c8bc 77a4 06be 9bd8 113c 90bf 123c
00000050: fbb9 12be d122 10be 9a4a 78bd c7ec 82bf
00000060: a9af 91bd 9032 48be c8bf c3bd bb60 3e3e
00000070: dc30 d93e 27bb a43e 4a99 a3be bde0 25be
00000080: 627b 883d 6662 4dbe 5b36 0ebc d2c8 65bd
00000090: ef64 903e 3112 c33d 8a70 11be 7e7a 23ba
000000a0: 3108 55bd c543 64be 6f48 e53d 73fc 53bd
000000b0: 3635 513e 6b4a c9bd 583d 8d3e 65f6 863e
-0.3190763 0.068864375 -0.02323817 0.02419851 0.37298486 -0.32075185 -0.03877483 0.19208238
-0.31926328 -0.16554774 0.14164193 -0.41009703 -0.5832163 0.17385715 0.059026267 0.045161236
-0.024434472 -0.13148676 0.00890174 0.008956805 -0.14328758 -0.14075781 -0.06061802 -1.0228509
-0.07113583 -0.19550538 -0.09558064 0.18591587 0.4242009 0.32174036 -0.31952888 -0.16199012
0.066641584 -0.20057067 -0.008679952 -0.05609972 0.28202006 0.09524954 -0.14203086 -0.00062362093
-0.052009765 -0.22291477 0.11195456 -0.051754426 0.20430455 -0.09828647 0.27585864 0.2635986

weight f4 [4, 4, 3]
00000000: 2620 c2be 8596 a73d 8935 e2bc b48e eb3c
00000010: 68ec e23e 1d25 c3be 74b9 3cbd aeb9 693e
00000020: 453d c2be 2370 49be 7959 2c3e a180 f9be
00000030: 15aa 38bf bc31 5c3e 3184 953d 8bca 643d
00000040: 2493 f7bc f987 26be 6863 343c 1081 353c
00000050: 287a 35be ee45 32be 628c 99bd e4ee a1bf
00000060: 31eb 1abd 76e2 d4bd 8327 50bd 5171 ca3d
00000070: 72f4 663e a92b 2f3e 6ef7 2dbe da63 b0bd
00000080: 9721 113d 7166 dabd 8839 97bb b858 f4bc
00000090: fc7e 663e 13b2 9b3d 2a2a e8bd e47a 02ba
000000a0: f507 2abd 6630 36be 7200 b73d 4332 29bd
000000b0: 96fa 263e e8a8 a0bd d575 613e a970 573e
-0.37915152 0.08183006 -0.027613418 0.02875457 0.4432099 -0.38114253 -0.0460753 0.22824737
-0.3793737 -0.19671683 0.16831006 -0.4873095 -0.72134525 0.21503347 0.07300604 0.055857223
-0.03022153 -0.16262807 0.011010028 0.011078134 -0.1772238 -0.17409489 -0.07497479 -1.2651029
-0.037821952 -0.103947565 -0.05081893 0.09884895 0.22554186 0.17106499 -0.16988918 -0.08612795
0.035432424 -0.106640704 -0.0046150126 -0.02982746 0.22509378 0.07602324 -0.11336167 -0.00049774186
-0.041511495 -0.177919 0.08935632 -0.0413077 0.16306528 -0.07844716 0.22017606 0.2103907

bias f4 [4]
00000000: c40b 953e 7f80 0840 cf91 b93f 7281 043e
0.2911054 2.1328428 1.4497622 0.12940004

weight_g f4 [4, 1, 1]
00000000: c40e 303f 3884 2140 7b1f 0340 3a35 8d3e
0.6877253 2.523695 2.0487964 0.2757967

weight_v f4 [4, 4, 3]
00000000: 0cc5 eabd 7e90 5ebe deed 82be 44fc a8be
00000010: 9238 603d 3065 1d3e f406 9ebe 4477 91be
00000020: a77c c5bd 77f9 bebe 7ce7 b6be 279f 9dbd
00000030: d396 87be 72a7 5f3d 51ec 5f3c 2ae0 14bf
00000040: 2c35 8e3e 5437 733f 12d2 16ba de6f 1cbd
00000050: 86e7 fdbe 6c93 13be 2d08 84bd d225 143d
00000060: 72bb 97be aa9c 8b3d b590 c73e 8365 81be
00000070: 5c60 82be a783 103f f0c0 aabc 1f54 0a3e
00000080: 86aa 70be 75c9 a33d 0917 58bc 39cf 1f3e
00000090: f6f2 dd3d 3898 873d 8994 6dbd 6575 ac3d
000000a0: 570d 293e efa4 aabe 92db 1e3d efcb 8dbd
000000b0: 9b59 1a3e eff9 ed3d 36d9 d9bd 868c 68bc
-0.11463365 -0.21734807 -0.25572103 -0.33004963 0.05474145 0.15370631 -0.3086468 -0.28411305
-0.09642916 -0.37299702 -0.35723484 -0.076963715 -0.26482257 0.054603048 0.013667182 -0.5815455
0.27774942 0.950063 -0.0005753349 -0.038192622 -0.495907 -0.14411706 -0.06446872 0.03616888
-0.29635197 0.06816991 0.3897759 -0.2527276 -0.2546414 0.56450886 -0.020843953 0.13508652
-0.2350255 0.07997409 -0.013189086 0.15606393 0.10837357 0.0662083 -0.058002982 0.08420829
0.16508995 -0.3332896 0.038783617 -0.06923663 0.15073244 0.11619937 -0.10637133 -0.01419366

weight f4 [4, 4, 3]
00000000: de5f bebd 2c7a 34be 3357 54be b307 89be
00000010: 0ed2 353d 6543 ff3d e024 80be 8dea 6bbe
00000020: 5524 a0bd 69dc 9abe 1c51 94be 67a1 7fbd
00000030: 6699 04bf e0b8 da3d 3bfc da3c bb97 91bf
00000040: 6212 0b3f 54da ed3f a97e 93ba c0fc 98bd
00000050: 2f4e 78bf 5452 90be d51e 01be 80e1 903d
00000060: f925 2ebf cd3c 203e 480c 653f 4d83 14bf
00000070: 35a3 15bf 32dd a53f dbfa 43bd b9c3 9e3e
00000080: 451c 0abf e5fb 3b3e 9303 f8bc 3b6b b73e
00000090: 0cd1 823d b4d6 1f3d 9307 0cbd 3b4b 4b3d
000000a0: 4247 c73d ba27 49be dd42 bb3c 4d26 27bd
000000b0: 93f2 b53d 5643 8c3d 5366 80bd 6c10 09bc
-0.09295629 -0.1762473 -0.20736389 -0.26763687 0.044389777 0.12464026 -0.25028133 -0.23038693
-0.0781943 -0.30246285 -0.28968132 -0.062409785 -0.5179657 0.10679793 0.026731601 -1.137443
0.54324925 1.8582253 -0.0011252958 -0.07470083 -0.969943 -0.2818781 -0.12609418 0.07074261
-0.6802669 0.15648194 0.89471865 -0.5801285 -0.5845216 1.2958128 -0.047846656 0.310087
-0.53949386 0.18357809 -0.030275142 0.35823998 0.06387529 0.039023116 -0.03418691 0.049632292
0.09730388 -0.1964406 0.022859031 -0.04080801 0.08884158 0.06848781 -0.06269517 -0.008365732

weight f4 [4, 4, 1]
00000000: 7cbf cf3d 5f6e 2cbc fd2f 093b 9fc9 603c
00000010: eac7 7a3c 175e 8f3a c53d 6b3a d40f 113c
00000020: ca93 e63d adfc 183f f3ac 82be 78b7 c23e
00000030: eb6c 313e 63a5 f8ba e2ad 3739 a350 453d
0.101439446 -0.010524361 0.0020933144 0.013719945 0.015306452 0.0010938075 0.0008973743 0.008853871
0.11258657 0.5976055 -0.25522575 0.380306 0.17326705 -0.0018970188 0.00017517016 0.048172604

bias f4 [4]
00000000: 7abe da3e 3c51 05bb 49b1 033f 2452 e03e
0.42723447 -0.002034261 0.5144239 0.43812668

weight f4 [4, 4, 1]
00000000: d0fb b83e 53f4 f5bc f114 b6ba 7ab2 3dbe
00000010: 6466 c93e a56e f73a 2241 4abc aaf7 b9bc
00000020: 5c9c cc3d 87e8 2b3f cc06 a93e ad33 b5be
00000030: 580d 813e eb0e 0bbc bcf7 1c3b 2908 babe
0.36129618 -0.03002373 -0.0013891739 -0.18525115 0.3933593 0.0018877579 -0.01234463 -0.022701103
0.09990761 0.67151684 0.33012998 -0.35390988 0.25205493 -0.008487443 0.0023951372 -0.3633435

bias f4 [4]
00000000: 7b09 98bf 1d6a 46c0 5859 393f 060f 32bf
-1.1877893 -3.1002266 0.7240195 -0.69554174
