weights/gaussian_tcn_stationary.model (torch, 45939 bytes, 36 tensors)

bias f4 [16]
00000000: 3621 00bf 11b7 333f b53e 07bf 75de b6bf
00000010: 66d7 09bf a22a c8bd 20ed a13f 201b be3f
00000020: d6a6 56bd 9df3 0b3f 6ed5 3dbf 0d69 903f
00000030: 6627 f5bf e5e7 413f fc64 733f 04c3 f7bf
-0.50050676 0.7020121 -0.5283006 -1.4286638 -0.53844297 -0.097737566 1.265049 1.4852028
-0.0524052 0.546686 -0.7415379 1.1282059 -1.9152648 0.7574447 0.95075965 -1.9356389

weight_g f4 [16, 1, 1]
00000000: ad33 973f 3a74 c43f 4ad2 0440 23f5 af3f
00000010: e18e 963f 40b1 963f 6ffc b13f 9ec0 fb3f
00000020: c0bf 8440 e795 a43f de8e 973f d4be d73f
00000030: 95f6 ef3f 25d1 4140 2748 3c40 5bab 903f
1.1812645 1.534797 2.075335 1.3746685 1.1762353 1.1772842 1.3905162 1.9668157
4.148407 1.2858247 1.1840475 1.6855111 1.8747126 3.0283902 2.9419038 1.1302294

weight_v f4 [16, 4, 2]
00000000: 1a06 763e ac25 503d 1331 5dbe a7dd 7d3d
00000010: 2d87 863e c874 93be 4061 793d 6e16 053d
00000020: 19a3 74bd a2cc a5be 8556 acbe c604 09bf
00000030: 58c0 e73d 75da 293d 4641 f6be 651a e3be
00000040: fbf7 86be e65f 05bf e69a d0bd ff71 803d
00000050: 9387 693e fd99 debc 1edf 47be 5064 babe
00000060: 7713 21be 6782 bcbe 9ca8 883e 9046 91be
00000070: e62a c2bc 0211 823e a0f6 263e 9ef9 ecbe
00000080: 5858 5e3e 4cf1 963d 76dc 81be 4300 2f3d
00000090: c586 8a3e fde0 98be 4c8c 8aba ebb2 0f3e
000000a0: c5e0 b9be afed 243e 5921 2a3e 66f5 73be
000000b0: f240 bebe 0eca a13d 4cb6 82be e141 42be
000000c0: 9086 b5be fb06 83be 668a be3e 55f7 3a3e
000000d0: 6669 36be e059 203e 7a0e 5c3e ed2c 75bd
000000e0: c45d cd3d 71b1 fdbd 811b 2c3e 2527 d23d
000000f0: 8779 91be 5e04 6f3e d8c9 633e d6e3 eabd
00000100: 5acd 4fbf 9def 0d3f f2f9 3e3f e866 78bf
00000110: dcf2 87bc 2fcd d93c 7263 d8be 6861 173d
00000120: 16d8 f5bd c0b8 aebe 9301 093e 9bda dbbe
00000130: b643 52bc 06a3 babd b42d f33d 543d 24bf
00000140: 9e1e 7f3e 810e 333e f933 95be 02d0 d7bd
00000150: 8206 8f3e 6e22 9cbe 5bef 383c 3fcc 483e
00000160: 600c e3be edaf 02bf f6ac dc3e 5f01 19bf
00000170: e30c 8d3b 5250 fbba 8f7d e9bd 4859 60bf
00000180: 3a82 953e 0882 ac3e f093 a83d f38b 87be
00000190: 39f6 62bc 9073 e9ba 6e76 313f b459 af3e
000001a0: 0271 02bf d001 7dbe f568 6a3e 2b3d b03e
000001b0: 4b11 be3d 676a 52bd ddd5 30be ab23 6d3d
000001c0: 55f0 dfbc 0a0a 1ebe 9664 d3bd 2268 01bf
000001d0: 409f b3bd 1e11 cc3d 872e 53be 47f4 02bf
000001e0: 3798 dcbe 17e3 a7bb 8eef 313e 7161 543e
000001f0: c45c 9bbd 024f 93bd a63d 0fbf b396 b9bd
0.24025765 0.050817177 -0.21600752 0.061978962 0.26275006 -0.28800035 0.06088376 0.032492094
-0.059725855 -0.32382685 -0.3365976 -0.5352291 0.113159835 0.041468102 -0.48096675 -0.44356075
-0.2636107 -0.52099454 -0.101857945 0.06271743 0.22805624 -0.027173037 -0.19518706 -0.36404657
-0.15730081 -0.3681824 0.2669114 -0.28374147 -0.023702096 0.254036 0.16305017 -0.46284193
0.21713388 0.073702425 -0.2536351 0.04272486 0.27055946 -0.29859152 -0.0010570376 0.14033096
-0.36304298 0.16106294 0.16614284 -0.23824081 -0.37158924 0.07899867 -0.25529706 -0.18970443
-0.35454226 -0.25591263 0.37214965 0.18258412 -0.17813644 0.15659285 0.21489897 -0.059857298
0.1002765 -0.1238736 0.16807367 0.102613725 -0.2841303 0.2334151 0.22244966 -0.114692375
-0.81172717 0.55443746 0.74600136 -0.9703202 -0.016595297 0.026587097 -0.4226337 0.03695813
-0.12004106 -0.34125328 0.13379507 -0.4294022 -0.012833526 -0.091131255 0.118739516 -0.6415608
0.24914023 0.17486002 -0.29141214 -0.10537721 0.27934653 -0.30495018 0.011287536 0.19609164
-0.4434538 -0.5104969 0.4310071 -0.5976772 0.0043045147 -0.0019173718 -0.114009015 -0.8763623
0.29200917 0.33692956 0.08231342 -0.2647396 -0.013852649 -0.001781093 0.69321334 0.34248126
-0.50953686 -0.24707723 0.228916 0.34421667 0.09280642 -0.051371004 -0.17269082 0.057895344
-0.027336279 -0.15433517 -0.103219196 -0.5054952 -0.08770609 0.09964202 -0.20623218 -0.5115399
-0.4308488 -0.0051235068 0.17376539 0.20740296 -0.07586053 -0.07192804 -0.55953443 -0.09061947

weight f4 [16, 4, 2]
00000000: 8b6d 0c3f 1450 ed3d 9fa4 fcbe 66f8 103e
00000010: d27f 193f 4a7a 28bf 4500 0e3e 3c5b 973d
00000020: 719e c0bd 9c7f 02bf f8a7 07bf f7a5 57bf
00000030: 7041 363e d13f 853d 92ce 41bf 88bf 32bf
00000040: 7620 38bf f5f1 b5bf 3f3e 8ebe f7e4 2e3e
00000050: 104d 1f3f c692 97bd 3654 08bf a745 7ebf
00000060: 08df 8cbe acd3 24bf 9ee7 ee3e 6418 febe
00000070: 8a37 2abd f576 e33e 0eda 913e 8437 4fbf
00000080: 556b ee3e e203 223e 163b 0bbf b644 bb3d
00000090: 1d7e 143f 9c0b 24bf 81b9 15bb b115 9a3e
000000a0: 9ca9 1cbf ea41 8b3e 886a 8f3e 239e cdbe
000000b0: 7e7d 20bf 281f 083e 2b4a dcbe de9a a3be
000000c0: 4547 38bf a9fe 04bf 0571 413f 70cf bd3e
000000d0: 302f b9be 9fc7 a23e 3568 df3e 37ce f8bd
000000e0: 3545 c53e 7585 f3be 0746 253f 5ea2 c93e
000000f0: e5c6 8bbf 09aa 653f b5d3 5a3f e09a e1be
00000100: 1183 04c0 43f3 b43f 5091 f33f 845f 1ec0
00000110: b69e 2cbd b7dd 8a3d befe 89bf f4a7 c03d
00000120: 978c 34be 3e43 00bf 4e16 493e 1c53 21bf
00000130: c76c 99bc 88cf 08be 6953 323e f11a 71bf
00000140: 3367 ef3e 6f19 a83e 60eb 0bbf cd4e 4abe
00000150: ce2d 063f 886f 12bf d5ac af3c e879 bc3e
00000160: 876b 0fbf 6412 25bf 2352 0b3f 7639 41bf
00000170: 7ee8 ba3b 3a27 11bb ac85 13be d7a8 8dbf
00000180: 3be9 153f 91d4 2c3f 53a2 293e 81e8 07bf
00000190: c886 e2bc 1d60 64bb 9e02 b23f 0eca 2f3f
000001a0: 85e4 06c0 8bce 82bf d560 723f f741 b63f
000001b0: 0ba7 c43e d151 59be a8dd 36bf c172 753e
000001c0: ef9b d1bd 6572 14bf 3748 c6be f240 f3bf
000001d0: a5c9 a8be 60d7 bf3e 8b5a 46bf 7b17 f6bf
000001e0: 9e23 22bf 945c fabb c3ce 823e 631f 9c3e
000001f0: d006 e4bd b731 d8bd 3c8d 52bf e674 08be
0.5485465 0.11587539 -0.49344346 0.14157256 0.59960663 -0.658116 0.1386729 0.073904485
-0.0940522 -0.50975966 -0.52990675 -0.8423762 0.177984 0.06506313 -0.75705826 -0.69823503
-0.7192453 -1.4214464 -0.27781865 0.1707953 0.62226963 -0.07401042 -0.53253496 -0.9932503
-0.2751391 -0.64385486 0.46661085 -0.49627984 -0.041556872 0.44426695 0.28486675 -0.80944085
0.46566263 0.15821794 -0.54387033 0.09143965 0.58004934 -0.64080215 -0.0022846165 0.30094674
-0.61196303 0.27198726 0.28010964 -0.4015971 -0.62691486 0.13293135 -0.43025336 -0.31954092
-0.7198375 -0.5195108 0.7556308 0.37072325 -0.36168814 0.31792924 0.4363419 -0.12148707
0.38529363 -0.47562757 0.6455998 0.3938169 -1.0920073 0.8971258 0.8547929 -0.44063473
-2.0704997 1.4136738 1.9028721 -2.4745798 -0.042143546 0.0678057 -1.0780866 0.094070345
-0.17631756 -0.50102603 0.19637415 -0.6301744 -0.018728627 -0.13360417 0.17414631 -0.94181734
0.46758422 0.32831904 -0.5465603 -0.19756623 0.5241364 -0.57201433 0.021444717 0.36811757
-0.5602345 -0.64481187 0.54422206 -0.75478303 0.0057039848 -0.0022148625 -0.1440646 -1.1067151
0.58559006 0.6751185 0.16565828 -0.5308915 -0.02765216 -0.0034847327 1.3907049 0.68667686
-2.1076977 -1.0219282 0.94679004 1.4238881 0.38408694 -0.21222617 -0.7143197 0.23969556
-0.1023482 -0.5798705 -0.3872697 -1.9004195 -0.32966343 0.37469006 -0.7748191 -1.9225916
-0.633356 -0.0076404307 0.25548372 0.30492696 -0.11134112 -0.10556357 -0.82246757 -0.13325843

bias f4 [16]
00000000: ba88 f33d 6021 993e e29a bb3e b9e4 06bf
00000010: 3917 3b3d 0ac0 9ebe 8abe 913e 35b8 54be
00000020: 8463 1f3f 8979 123b e0cc e9be 3b32 9b3e
00000030: 3d26 a73e da53 8f3e 1bd0 293d c094 223e
0.11891313 0.29908276 0.36641604 -0.52692753 0.045676444 -0.3100589 0.28465682 -0.20773394
0.62261224 0.0022350273 -0.4566412 0.3031176 0.3264636 0.2799366 0.04145823 0.15877056

weight_g f4 [16, 1, 1]
00000000: 9ba8 d03f 21c1 de3f 9ea8 9040 6adf 3640
00000010: b73e e83f 333d f13e 3074 4240 e84d f43f
00000020: 64c3 6840 48de 1340 3d13 b73f 61bf 6640
00000030: 495c 6740 f495 9f40 7c97 fe3f fe9b 0740
1.6301454 1.7402688 4.520583 2.857386 1.8144139 0.47117004 3.0383415 1.9086275
3.6369257 2.310442 1.4302746 3.6054308 3.6150076 4.987055 1.9889979 2.118896

weight_v f4 [16, 16, 2]
00000000: 0db7 c13c 5c55 a2b9 89ca 023c de87 fcbb
00000010: feb5 ab3b cbaf 9ebb 3b5e f6bb f6a4 dfbb
00000020: 160b cb3c ed36 893b dbb7 5bbc 64dc f9bb
00000030: 0832 113b 0217 70ba 189f 19bb 1756 83bb
00000040: f57f 94bb 3ce7 22be e1fd c0bc 5d8d 063c
00000050: f0f4 df3c 1435 683b 8707 473e eb15 08bd
00000060: 25d6 6fbf 1df0 6bbe 3518 0f3d d3ff 963b
00000070: 2a82 a43c 6c20 79bc c1d0 23be e821 bbbd
00000080: 09bd 02bd 98d7 1fbc 993f 593c d8f3 6ebd
00000090: 7858 8ebd d513 83bd cfff c5be b40b 89bd
000000a0: 27d5 04bd f291 20bc ea1b 953b d84f 0b3b
000000b0: 9a1b 21bb 8860 9cbb 9211 96ba af3f 02bb
000000c0: 1963 81bb 8978 71be 42fc 253d 2055 533d
000000d0: c6cb 12bd 56e0 44bc 62fe 163e ded9 143d
000000e0: 904b c2bc 23d5 d23b cd17 8c3b 83ec c93c
000000f0: 847d eabc ad14 96bd b3a2 bb3e a706 1a3f
00000100: fe09 9cbb a82e b13b 13c6 cfbc 0a57 003c
00000110: 9d98 c9bc b15c 023b 83e8 c6bb 8f05 53bd
00000120: d252 30bc bbc3 e03a abce bcbc 2c44 0abd
00000130: 56a3 433a 8ebe c4bd 5f86 d23a 68c4 67be
00000140: 878e 4fbe 6468 02bf 4e59 2a3d 1e2c 143c
00000150: 32fe 3cbc fe12 ad39 da32 cf3e 1290 393e
00000160: bc1b ec3c 9015 44be 256a 43bf d0a4 a63a
00000170: abde 8e3a 47cd 12bf ccb4 6abe fb20 4dbe
00000180: e82a 973c bdc1 b53b 783d a1bb ad7c d03b
00000190: 9c14 f6bb 3652 9f3a b898 4f3b fcbf 543c
000001a0: fcbc 3e3c b824 0d3c c890 97bc 3c63 a63c
000001b0: e887 a93c 1b30 753c 30f0 b63b 53b5 a93b
000001c0: aa83 3b3f 1c3e 413f d7d0 463c 07f2 ec3c
000001d0: 3377 103c ae15 f43b ea75 5d3c a818 00bd
000001e0: 87c4 3fbf 7318 e9be 39ab fbbc 796e 2d3b
000001f0: 0c12 793d 2f61 343d 5f36 88be 4f04 eebe
00000200: c10d 87bf 8275 bf3a efab c63b 96e7 ab3a
00000210: e0e9 403b 9885 c73a b46e 31b9 8e6e 55ba
00000220: d10c 84bf 3cae 213a 6853 4e3c 3fdd aa3b
00000230: 6bad fdb8 3856 813c 8306 86ba 725d ac3b
00000240: f407 533d 7372 b5be c56e f43b 94c4 e6bb
00000250: 3847 32bf 21ef 7a3b ae1b 173e 74e8 f7bd
00000260: 9b5a 37bf 9310 66bd 4a07 df3c 5a4c a33b
00000270: 6946 baba 9e1b 3d3b 1e42 63bc 919e 8fbd
00000280: dbd4 eebd 6fb7 0a3c 94ac 20bd 76cf 8fbd
00000290: f45d 2cba 58d3 9bbc 45eb 84be 7daf 42bd
000002a0: 0218 983a 7cd6 b5bc 9180 6ebd 2d2c 70bd
000002b0: 69d2 f3bb 8a52 783b e4f6 11be c580 7dbe
000002c0: 50af 2a3d 78b9 cb3c 4d4b 0cbc 84d9 033d
000002d0: 01e9 23be e6a1 2cbe bff7 6ebd f8d5 0ebe
000002e0: d3f9 cd3d c50a f5bd 781a 22bd 64d9 4cbe
000002f0: 5949 dbbc e9cf 43be 19d6 3dbe d9ad 3ebe
00000300: bd47 4abd fa96 ecbe ee14 95bc 58b3 61bc
00000310: 3860 01bd b422 78bc a006 acbc f8f0 ecba
00000320: 6b8c 71bd 57ee d3be fd6b b63b fc00 8cba
00000330: 0868 46bb ed2f 18bc ac36 12bb 706a 81bb
00000340: 6883 24bf 5aec 03be 5584 a73b df61 103c
00000350: 63f2 8dbd 3f97 03bf d6b2 813d 8cf0 7bbe
00000360: 3bf7 e23d b38f 633c caf3 ecbd 04f2 38bc
00000370: 69b6 0f3d b09f 7cbf 82b5 a1ba 7a6f ba3a
00000380: d9f2 3d3c 2935 34bd 0296 3bbd 74c7 8fbe
00000390: 70ff 6f3b c547 f1be 6a2b eebe 47e8 7e3d
000003a0: c3b6 433c bd6e 32bd 21d5 963a 655f 323b
000003b0: eb96 e0be 056c 033c 8b2d 01be a654 2c3b
000003c0: c115 46be 6edc 39bd f7a3 743b 0370 c53c
000003d0: 3884 703c 5604 89bd 582d a1bd 018c 213f
000003e0: fc4a dc3c d95d 0d3e 002c c33c de89 0ebf
000003f0: e56d d5be 63e1 013c 87a7 1d3c ee18 043c
0.023646856 -0.00030962646 0.007982858 -0.0077066263 0.005240201 -0.0048427335 -0.0075185574 -0.006825085
0.02478556 0.004187456 -0.013410534 -0.0076251496 0.0022155065 -0.0009158702 -0.0023440775 -0.0040080654
-0.004531855 -0.15908521 -0.023558559 0.008212415 0.027338475 0.0035432028 0.19436465 -0.033224028
-0.93686134 -0.23040815 0.034935195 0.0046081333 0.020081598 -0.015205484 -0.15997602 -0.091373265
-0.03191856 -0.009755991 0.013259792 -0.058338016 -0.06950468 -0.06400267 -0.3867173 -0.06691685
-0.03242984 -0.009800421 0.0045504468 0.0021257307 -0.0024583102 -0.0047722496 -0.0011449328 -0.0019874384
-0.003948581 -0.23581137 0.040523775 0.051594853 -0.035838865 -0.0120163765 0.14745477 0.036340587
-0.023717672 0.0064340993 0.004275298 0.02464891 -0.028624304 -0.07328162 0.36647567 0.601664
-0.0047619333 0.005407173 -0.025363004 0.007833252 -0.024608904 0.0019891674 -0.006070198 -0.051518973
-0.010761933 0.0017148176 -0.023047766 -0.03375642 0.00074629986 -0.09606658 0.0016061774 -0.22633517
-0.20269214 -0.5094054 0.041589074 0.0090437215 -0.011535214 0.00033011282 0.40468484 0.18121365
0.028821819 -0.1914885 -0.7633384 0.0012713913 0.00109001 -0.5734448 -0.22920531 -0.20032112
0.018453076 0.005546777 -0.0049206577 0.0063625188 -0.007509781 0.0012155238 0.003167672 0.012985226
0.011641737 0.008614711 -0.018501654 0.02031099 0.020694688 0.0149650825 0.005582832 0.0051790862
0.7324778 0.75485396 0.012134752 0.028924001 0.008817482 0.0074488735 0.013516882 -0.031273514
-0.7490925 -0.45526466 -0.030721294 0.0026463552 0.060808226 0.044037994 -0.26603982 -0.46487662
-1.0551072 0.0014607164 0.0060629766 0.0013115283 0.0029436275 0.0015222309 -0.00016921276 -0.0008141779
-1.0316411 0.00061676255 0.012593128 0.005214363 -0.00012096282 0.015788183 -0.0010225329 0.005260163
0.051521257 -0.3543888 0.007459494 -0.007042477 -0.6963992 0.0038289505 0.14756653 -0.12104884
-0.7162263 -0.05616815 0.027225155 0.004983467 -0.0014211658 0.0028855572 -0.013870744 -0.07012666
-0.11661693 0.008466586 -0.039227083 -0.07021992 -0.00065752794 -0.019021675 -0.25960746 -0.04753064
0.0011603835 -0.022197 -0.05822808 -0.05863588 -0.0074408543 0.0037890994 -0.14254338 -0.24756153
0.041671097 0.024868712 -0.008562875 0.03218986 -0.16006853 -0.16858634 -0.058341738 -0.1394881
0.10057416 -0.11964945 -0.039576024 -0.20004803 -0.026768373 -0.1912228 -0.18538703 -0.18621005
-0.04938482 -0.46208936 -0.018198457 -0.013775669 -0.031585902 -0.015144993 -0.020999253 -0.0018077185
-0.058971804 -0.41392776 0.0055670724 -0.0010681446 -0.003027441 -0.00928877 -0.002231042 -0.003949456
-0.6426301 -0.1288313 0.0051122108 0.008812397 -0.06930997 -0.5140266 0.063329384 -0.2460348
0.11082312 0.013889241 -0.115699366 -0.01128817 0.03508607 -0.98681164 -0.0012337419 0.0014223896
0.011593544 -0.04399601 -0.045797355 -0.28081858 0.0036620758 -0.47125068 -0.46517497 0.062233236
0.011945429 -0.04356264 0.0011507609 0.0027217504 -0.4386514 0.008021359 -0.1261503 0.0026295572
-0.19344236 -0.045376234 0.0037329176 0.024101263 0.014679961 -0.0669028 -0.07869977 0.63104254
0.026891224 0.13805331 0.023824692 -0.5567912 -0.41685405 0.007927272 0.009622461 0.008062584

weight f4 [16, 16, 2]
00000000: b864 1b3d cda7 14ba c28e 543c e634 49bc
00000010: c7da 0c3c c59c fcbb a603 45bc 71f0 33bc
00000020: df42 233d 92b7 de3b ea0b b1bc 4911 4cbc
00000030: e6a0 5e3b d37d ccba 29bc 76bb e161 d9bb
00000040: caa2 f1bb 0487 82be 99dc 1abd e7e0 573c
00000050: ed57 343d c9e6 bb3b 0c7c 9f3e 11fa 59bd
00000060: e042 c0bf 3325 bdbe cb75 663d 9368 f13b
00000070: be88 033d 5639 c9bc 3145 83be 762f 16be
00000080: c4c1 82bd a7eb a0bc 0f49 da3c ad0b efbd
00000090: a486 0ebe da12 03be b106 46bf b2d5 08be
000000a0: 80ef 84bd f8e6 a0bc 20e0 133c f4d5 883b
000000b0: efb8 a1bb 6693 19bc 1d6e 1cbb 1136 81bb
000000c0: a5a3 08bc c77a f1be bedd a53d db05 d33d
000000d0: 21ee 92bd d3ef c4bc 0c2b 973e 9d0b 953d
000000e0: ebb3 40bd 442c 583c 8e42 113c fd57 4a3d
000000f0: 88c5 6abd f9f5 15be a5a2 3b3f 1c04 9a3f
00000100: 8227 8dbc 73da 9e3c a22d b8bd ff21 e03c
00000110: 66db b3bd 1506 e03b cfcc b3bc baba 3cbe
00000120: d53a 1fbd 607a c13b 3775 a8bd db29 f8bd
00000130: 640e 1e3b 6a97 afbe 1974 b03b 758d 4ebf
00000140: bdee 38bf 9f84 e8bf f5f3 163e cceb 013d
00000150: 16c5 29bd 0417 8e3a cda3 b83f 9b49 253f
00000160: fcbb d23d ebbb 2ebf cc32 2ec0 7db9 903b
00000170: c161 763b bddc 02c0 0a54 51bf 23fb 36bf
00000180: 5908 123d 764d 313c 5299 19bc cbee 4a3c
00000190: 4397 6dbc 411a 1f3b 2755 cf3b e2bf ce3c
000001a0: be7a b83c eb3a 883c 58ef 12bd 8ba3 1f3d
000001b0: a6f4 233d 4ced ec3c 31de 323c fc10 233c
000001c0: 02bd b53f bc42 bb3f 73b6 bd3c 9062 663d
000001d0: 8a7d 8b3c c8a5 6c3c 90f9 d63c fa2b 78bd
000001e0: d2de b9bf 3af5 61bf cc9b 73bd b831 ab3b
000001f0: 6b78 f13d b5f3 ae3d b0fc 03bf dfb8 66bf
00000200: 36e3 85bf 2d75 bc3a ef8e c53b 914f ac3a
00000210: bc51 403b 1917 c53a 15b9 dcb8 fae6 3eba
00000220: 75e9 82bf db07 273a 7cb1 4b3c 1391 a73b
00000230: 1b55 32b9 fa99 803c 2455 8dba c6b0 ae3b
00000240: 4639 513d 40d4 b3be a571 f13b f793 e6bb
00000250: 67bc 30bf 965f 793b 02b0 153e b758 f6bd
00000260: fac5 35bf e307 64bd c8cb dd3c b146 a23b
00000270: 50cc b9ba 997a 423b 15f0 61bc 8873 8ebd
00000280: 5c3c abbd 80e9 c63b eb65 e6bc 6737 4ebd
00000290: 422a f7b9 0e72 5fbc 4999 3ebe 9595 0bbd
000002a0: 2818 5a3a 745f 82bc edff 2abd 8332 2cbd
000002b0: 55d0 aebb 610a 323b 204e d1bd 40c1 35be
000002c0: bec0 f43c a510 923c 9f2c c9bb bd10 bd3c
000002d0: d609 ebbd b08b f7bd 6055 2bbd a5d1 ccbd
000002e0: e0ad 933d 49b0 afbd 9772 e8bc 14df 12be
000002f0: fa38 9dbc 5f64 0cbe 891b 08be 3ab6 08be
00000300: 29d8 d0bd 16b3 74bf 6647 1abd 2f46 e9bc
00000310: 464b 85bd 355f 00bd 4d8e 31bd ce6e 76bb
00000320: 2311 fabd 9a2e 5bbf e596 3a3c 3d3e 0cbb
00000330: 720f c8bb 563a 9ebc 6ace 97bb b996 09bc
00000340: 3a26 aabf 2d95 88be 99c7 2c3c 967c 953c
00000350: 71a3 12be 9e16 88bf c5fa 053e a046 02bf
00000360: db4f 6b3e 78f3 ed3c 04ba 74be e2fd c0bc
00000370: 4a77 943d 44a5 02c0 17a4 2bbb e954 4a3b
00000380: 0363 8b3c 73c9 83bd 3402 8abd c32c d3be
00000390: fa61 a93b 3328 31bf d1e3 2ebf e2ec ba3d
000003a0: e9f1 8f3c c8b2 82bd 2bcd f23a 4c58 873b
000003b0: 8be5 24bf 27b7 413c aece 3dbe 97a6 803b
000003c0: 4d6e 91be e764 88bd 83d7 b73b 691d 113d
000003d0: 1a2c b03c ad0a c9bd 298d ecbd 2b30 6d3f
000003e0: 5a11 213d 0283 4f3e 645e 0e3d e94c 51bf
000003f0: 5caf 1cbf df8d 3e3c 9fac 693c ab2b 433c
0.03793785 -0.0005670756 0.012973489 -0.012280678 0.008597082 -0.007709118 -0.012024796 -0.010982619
0.039858695 0.0067967856 -0.021612126 -0.012455293 0.0033970415 -0.0015601463 -0.0037648773 -0.0066339825
-0.0073741423 -0.25493634 -0.037808035 0.0131761795 0.044029165 0.005734299 0.31149328 -0.053216998
-1.5020409 -0.36942443 0.05626468 0.0073672025 0.03211283 -0.024563473 -0.25638726 -0.14666542
-0.06384614 -0.019643618 0.026646165 -0.11672149 -0.13918549 -0.1280016 -0.7735396 -0.13362768
-0.064909935 -0.019641384 0.0090256035 0.004175896 -0.004935376 -0.009373521 -0.0023869344 -0.003943213
-0.008339797 -0.47163984 0.080989346 0.10303851 -0.07174326 -0.024040138 0.2952503 0.07277606
-0.047046583 0.0131941475 0.0088659655 0.04940032 -0.057317287 -0.14644612 0.7329505 1.2032504
-0.017230753 0.019391274 -0.08993079 0.02735996 -0.08782081 0.0068366625 -0.021948246 -0.18430606
-0.038874466 0.005904481 -0.08225482 -0.12117358 0.0024117464 -0.34295207 0.0053849337 -0.80684596
-0.72239286 -1.8165473 0.147415 0.031719014 -0.04144772 0.00108406 1.4424988 0.6456544
0.102897614 -0.6825549 -2.7218504 0.004416643 0.0037594887 -2.0447228 -0.8176886 -0.71476954
0.035652492 0.010821691 -0.009374933 0.012386034 -0.014501396 0.0024277123 0.0063272896 0.025237981
0.022519466 0.016629657 -0.035872787 0.038974326 0.040028237 0.028921746 0.010917232 0.00995278
1.4198306 1.4629741 0.023158288 0.05624634 0.017027635 0.014443822 0.026242048 -0.060588814
-1.4521124 -0.8826481 -0.05947475 0.005224433 0.11790546 0.08542577 -0.51557446 -0.9012584
-1.0459964 0.0014378183 0.006029002 0.0013146271 0.0029345592 0.0015036791 -0.00010524892 -0.0007282343
-1.0227495 0.0006371715 0.012432452 0.0051137297 -0.00017007107 0.015698422 -0.001078282 0.0053311316
0.05108001 -0.3512287 0.007368284 -0.0070366818 -0.6903748 0.0038051358 0.14617923 -0.1202864
-0.71005213 -0.055671584 0.02707471 0.0049522747 -0.001417527 0.0029675125 -0.01379015 -0.069556296
-0.08361122 0.006070316 -0.02812477 -0.050345805 -0.00047142996 -0.013638033 -0.18613161 -0.0340782
0.00083196396 -0.015914656 -0.041747976 -0.04204036 -0.0053348937 0.002716683 -0.10219979 -0.177495
0.029877063 0.017830202 -0.0061393525 0.02307927 -0.114764854 -0.1208719 -0.041829467 -0.10000924
0.072108984 -0.085785456 -0.028374953 -0.1434291 -0.019192208 -0.13710164 -0.13291754 -0.13350764
-0.10197479 -0.95585763 -0.037665747 -0.028475849 -0.06508498 -0.031340797 -0.0433486 -0.0037602666
-0.122103 -0.85617983 0.011388515 -0.0021399402 -0.006105357 -0.019314926 -0.004632761 -0.0083977515
-1.3292916 -0.26676312 0.010545635 0.018247884 -0.1432016 -1.0631902 0.13083942 -0.50889015
0.22979681 0.029046759 -0.23899084 -0.02355856 0.07249315 -2.041337 -0.0026190334 0.0030873364
0.017014986 -0.06434908 -0.067387015 -0.41245088 0.0051691504 -0.69201964 -0.6831637 0.09127213
0.017571406 -0.06381756 0.001852428 0.004130399 -0.64412755 0.011823452 -0.18535873 0.003926109
-0.28404465 -0.066598706 0.005610408 0.03542844 0.021505404 -0.09816489 -0.11550362 0.92651623
0.03932319 0.2026482 0.034757987 -0.8175798 -0.6120508 0.011630504 0.0142623475 0.011912267

weight f4 [16, 4, 1]
00000000: 31c7 0bbc bcee 4ac0 64d3 433d 8650 cfbd
00000010: 1454 3b3f f58a 60c0 db0e b03e d96b 1abf
00000020: 7d08 4cbd 87d8 44c0 e0ca d13e f3fe 26bf
00000030: 2261 37bf 433c 3bbf 094a 2fbe 4bda d1be
00000040: ccd8 c2bf 2db3 07bd 3507 adbd cb15 d9bf
00000050: d204 70bd e10e 093e befa ea3e 8466 f2bd
00000060: ec4d 443e 53e3 4dc0 080a babe 3da2 c7be
00000070: cd9c 7cbf f2e8 86bf ab6d bdbe f2a6 fbbe
00000080: 4891 713f 0cd7 f23f 3e0e 073d f457 b4bc
00000090: 4520 57be 8719 b03f b687 d23d eefd a3be
000000a0: d552 02be d506 1640 cce2 8d3e 4055 1b3f
000000b0: 6d49 1dbc 6cdd 8fbf 6103 dcbe 947e e8be
000000c0: f2d5 a83f 3c88 bcc0 d37a 56bd 39ac 063f
000000d0: b142 3e3d cf16 7b3f 13ed cfbe 67d2 453e
000000e0: 3fee 2d3e dfa3 2dbf ea5b 9a3d 5bd0 ce3e
000000f0: 6b73 cebe f2ce 8c3f e868 74be 9290 0cbf
-0.008531378 -3.1708212 0.04780902 -0.101227805 0.7317517 -3.5084813 0.34386334 -0.6032081
-0.049812783 -3.0757158 0.40975094 -0.6523277 -0.7163259 -0.7313883 -0.17118086 -0.40986857
-1.5222411 -0.03312986 -0.0844864 -1.6959776 -0.058598347 0.13384582 0.45894426 -0.118359596
0.1917035 -3.2169998 -0.36335778 -0.38990965 -0.9867676 -1.0539839 -0.36997733 -0.49150807
0.94362307 1.8971877 0.032972567 -0.022014596 -0.21008404 1.375779 0.10279791 -0.3202967
-0.1272691 2.344167 0.27712095 0.60676956 -0.009600026 -1.1239448 -0.42971328 -0.4540907
1.3190291 -5.89163 -0.052363228 0.5260654 0.04645032 0.9808168 -0.4061056 0.19318543
0.16985415 -0.6782817 0.075370625 0.40393338 -0.40322432 1.1000655 -0.23868144 -0.54908097

bias f4 [16]
00000000: 2ee1 a03f 3a5f 363f 469d 403f 1996 a93f
00000010: 65e9 d23f 6cdf d0be 3168 7cbf 1b9e 563f
00000020: 40e1 18bf e39e de3e 5200 38bd 8f49 95be
00000030: de68 bb3f 60d5 373f ca8f 053e 764c d9be
1.2568719 0.71239054 0.7523998 1.3248931 1.6477476 -0.40795457 -0.98596483 0.83835
-0.59718704 0.43480596 -0.04492218 -0.29157683 1.4641378 0.7180996 0.13043132 -0.42441148

bias f4 [16]
00000000: 1816 86bf 0cab 34bf bcad 24bf 9144 3e3e
00000010: 829c 08bf 1d78 bd3e c19c 9aba a077 6abf
00000020: 20b1 5bbf 6b36 d8be 5e6e 7a3d 8814 aebd
00000030: 083f 0c3f b71d 5cbd 8513 35be b3f9 093f
-1.0475492 -0.70573497 -0.643276 0.18580844 -0.5336381 0.37005702 -0.0011795984 -0.91588783
-0.85817146 -0.42229018 0.06114041 -0.0850001 0.5478368 -0.053739276 -0.17683227 0.53896636

weight_g f4 [16, 1, 1]
00000000: c8e5 0640 d7ca ab3f ea04 f73f 6b2a 1840
00000010: 92b1 e33f 92c2 0f40 bf6d 1040 91da d73f
00000020: 1e96 0240 16cf 983f 992e f13f 0200 e03f
00000030: 910e fa3f b84d c43f 2daa dd3f 47b8 0840
2.1077747 1.3421277 1.9298375 2.377589 1.7788565 2.2462506 2.2566984 1.6863576
2.0404124 1.1938198 1.8842345 1.7500002 1.9535695 1.5336218 1.7317559 2.1362474

weight_v f4 [16, 16, 2]
00000000: bb5e 30bd 7fc3 9dbd 3e74 f13c 93c4 3dbe
00000010: c29e 43be 8f14 e6bd c3ff 563c 9c4e 4cbe
00000020: cebe d33d 11cb 49be 5582 3b3d d460 80bd
00000030: a6ab 63bc 36f6 d3bd 08d1 af3d e21f b03d
00000040: 24f9 20bd c86b a33c 0e90 3a3e 0dd9 84bc
00000050: 4f12 aebd 8f8a 143e 69e4 33bd bd7c 433c
00000060: f5d5 a0be d119 e4bc a315 0abc c81d 423d
00000070: f235 78bd 2cfc 13bd a137 173d 3bbe bdbc
00000080: 7020 99bd 3cf3 b73c 175b 81bd 87e8 a4bd
00000090: 4efd 493e d334 263e 19f7 1ebd bbd1 01bb
000000a0: 3e6a f1bc d31d a5bd cdc7 f93a 9476 88bd
000000b0: e8b2 143e 6ce9 1c3e 857c 1b3e 9e47 d93d
000000c0: 1b35 473e 6b3a 033f c767 13bd f10d b93e
000000d0: c85c 963d 01b6 983c af92 90bd 41c1 7bbd
000000e0: 912d e53e ef60 a8b9 2108 763d b97a 04be
000000f0: 2ef2 eabb 1918 b3bd 0f30 083d e56a 9d3d
00000100: 1df4 823c 921b 413d 6f6b 883d 0c9c 6fbe
00000110: b7a9 f43d e9de 28be 68e5 87bc bd97 1cba
00000120: 506a 123e c147 8dbe 80d0 063e af7b 78bd
00000130: 1a53 023e 0331 b43d d3d2 053e 5e91 30bd
00000140: 7839 56be 5ac9 b93d 379f 43bd 3522 1bbd
00000150: 4104 533d 072e 883c 2e42 dbbc 828c ebbd
00000160: 330c 5dbc d41c cfbe 5892 37be af45 31be
00000170: 087c aebd 517c a13d b5a2 813d 7a29 da3c
00000180: ff50 7f3e 2588 a0bd 6f63 8abd 8480 31be
00000190: 3a0c 06be f157 f03d 1ee5 44bd 5f6f adbd
000001a0: a54b cc3e 8c05 52bd ca41 0e3e 8561 6d3b
000001b0: ae28 3bbe fc70 dbbc eb78 493e 0681 9f3d
000001c0: 545b 823d 8e10 d93d a9d5 913d 07a5 813b
000001d0: 9a92 083e d6c0 7bbd 4c33 ddbd d4a2 c0bd
000001e0: eba3 b6be e10d a9bd 2c36 b03d a193 873d
000001f0: 206c 81bc e72d 133d c983 53bc b799 753d
00000200: bdd2 db3d c153 da3d b30b dbbd eb85 2bbd
00000210: 26cd e9bd fa8c f43d f8c7 dc3d 7d73 3bbd
00000220: 6487 b13c b6b2 03be 1115 25bd 7975 18bd
00000230: 93a9 c3bd f6b6 073e ebcc 103e cb4f 323e
00000240: a5e5 4a3e aa7a 433e 0370 913e de87 463e
00000250: bc9b 89bd d445 813d 3b99 363e 6a89 6d3c
00000260: 28df 8ebe 4b8e b03b 36f8 053b fe68 2abe
00000270: f62a 0fbd b920 a1bc bdb0 33be 0837 1fbe
00000280: 1383 e9bd 0875 393b 98d3 a33c 0757 673c
00000290: 4755 413d f7a9 583b 3163 1fbe 8b61 04be
000002a0: ba0a c43e ebe4 a9bd e0b4 e93b bb71 febd
000002b0: de71 9b3d 6d84 b7bd 3dad 2b3d 0067 80bd
000002c0: b482 83be a0ca c0be 5fe9 acbd 2656 383d
000002d0: 9c43 c9bd 7a36 bfbc 1391 42be 2ee9 b43d
000002e0: ed25 13bc 2571 453d b47c eebd adbc 94bc
000002f0: cb69 1bbd 81d3 13be 561f 123e 25d0 c3bb
00000300: 8747 e1bc ffb1 ea3a 0615 243e 1efd 913b
00000310: c24a 4e3d 3a07 c1bd 908f 3f3d 30a6 79bc
00000320: aebc 603e a385 abbe 54b8 0ebd e7d6 40bd
00000330: bd9e 4c3e da57 ad3a c51c 803e 82af 46bd
00000340: e6f0 a6bc 8ac9 183c 3b3d 1d3e 9e75 85bb
00000350: 80e3 ff3c dab7 eb3d 3a88 87bd 73d0 393c
00000360: 512c 55bc efe8 09be 7e31 ecbd 88eb 8b3d
00000370: 32a3 823d b7e7 143c 0fa7 cbbc 2e18 073e
00000380: 7584 683d cf54 0fbc 166f 0dbd a32e be3c
00000390: 07b1 b4bd 3f3d 9cbd 362d 513d d90c 77be
000003a0: 778f 9e3d 0196 90bd 05a8 51be 9424 163e
000003b0: 7e2d 35be aaf6 0abd 0da1 1bbd 1104 04be
000003c0: a68b 86be c800 693b 4484 30bd bc4a 39be
000003d0: 4209 cdbb c2bd 053d aac6 4dbd b2be 083e
000003e0: 1fc3 623e 1392 14bf ca46 573e e1bf bcbd
000003f0: bd13 793d 6675 23be 9e9e c2bd 15d6 65bd
-0.043059092 -0.077033035 0.029474374 -0.18532018 -0.1910353 -0.1123439 0.013122502 -0.19951862
0.103391275 -0.1970637 0.04577859 -0.062684685 -0.013895905 -0.103496954 0.085847914 0.08599831
-0.0393001 0.019948855 0.18219015 -0.01621678 -0.08499586 0.14505981 -0.043919 0.011931595
-0.31413236 -0.027844341 -0.00842801 0.047391683 -0.06059832 -0.03612916 0.036918286 -0.023161998
-0.0747689 0.02245485 -0.06316202 -0.080521636 0.19725534 0.16231088 -0.03880987 -0.0019808847
-0.029469606 -0.08062329 0.0019056738 -0.06663242 0.14521372 0.15323418 0.15184219 0.10609363
0.19453852 0.51261014 -0.03598764 0.3614345 0.07341915 0.018641474 -0.07059228 -0.0614636
0.44761327 -0.00032115678 0.060066346 -0.1293744 -0.0071699833 -0.08744831 0.033248957 0.07686404
0.015985543 0.047145434 0.06661116 -0.23399371 0.11946433 -0.16491283 -0.016588882 -0.00059735385
0.14298368 -0.27593806 0.13165474 -0.06066483 0.12727013 0.08798411 0.13068704 -0.043107383
-0.2092036 0.09071608 -0.04775926 -0.03787442 0.05151773 0.01662351 -0.026764955 -0.11501409
-0.013491678 -0.40451682 -0.1792692 -0.17311738 -0.08519751 0.078850396 0.06329862 0.026631106
0.24933241 -0.078384675 -0.06757247 -0.17334181 -0.13090602 0.117355235 -0.048070066 -0.08468508
0.39901462 -0.05127482 0.13892284 0.0036221456 -0.18277237 -0.026787274 0.19675033 0.07788281
0.06365076 0.10598861 0.071208306 0.0039564404 0.13337174 -0.0614632 -0.108008 -0.09406057
-0.35671934 -0.082546 0.086040825 0.06619955 -0.015798628 0.035932448 -0.012909838 0.059961047
0.107335545 0.10660506 -0.10695591 -0.04187576 -0.11416082 0.11940952 0.107803285 -0.045764435
0.021671005 -0.12861142 -0.040303294 -0.037221406 -0.09553828 0.13253388 0.1414067 0.17413251
0.19814165 0.19089761 0.2840577 0.19387767 -0.06719157 0.06312147 0.1783189 0.014498094
-0.2790463 0.0053880564 0.0020442135 -0.16641614 -0.03495308 -0.019668924 -0.17547889 -0.15548337
-0.114019535 0.0028298516 0.019998357 0.01411987 0.047200467 0.0033060291 -0.15565182 -0.12927835
0.38289434 -0.08295616 0.0071321577 -0.12424036 0.07590078 -0.08960805 0.04191326 -0.06269646
-0.25685656 -0.3765459 -0.084429495 0.045004033 -0.098273486 -0.023341406 -0.19000654 0.08833538
-0.00898121 0.048203606 -0.11644879 -0.018156374 -0.03794269 -0.14436151 0.14269766 -0.0059757405
-0.027499927 0.001790583 0.16023645 0.0044552227 0.050364263 -0.094252065 0.04676777 -0.015237376
0.21946976 -0.33500394 -0.034843758 -0.047079947 0.19982429 0.0013225034 0.2502195 -0.04850722
-0.020378541 0.009325394 0.15355389 -0.004072859 0.03123641 0.11509676 -0.0661778 0.011341202
-0.013011054 -0.13467763 -0.115328774 0.068320334 0.06378783 0.009088448 -0.024859933 0.13192818
0.056766946 -0.008748247 -0.034529768 0.023215597 -0.08822828 -0.07628869 0.051068507 -0.24125995
0.077422075 -0.07059861 -0.2047425 0.14662391 -0.17693135 -0.033926643 -0.037995387 -0.12892176
-0.26278418 0.0035553444 -0.04309489 -0.18094915 -0.006257207 0.03265167 -0.05023829 0.13353994
0.22144745 -0.5803539 0.21023098 -0.092162855 0.06080984 -0.15962753 -0.0950291 -0.056112368

weight f4 [16, 16, 2]
00000000: 22ef 14be 035d 85be d735 cd3d cc7a 20bf
00000010: 9769 25bf 1e6d c2be 3356 343d bafb 2cbf
00000020: f1fa b23e c1dd 2abf d01a 1f3e 08bd 58be
00000030: a37d 42bd 6d9a b3be 6691 943e b7c4 943e
00000040: ceb1 07be e745 8b3d a210 1e3f a4f7 5ebd
00000050: 190a 93be 389d fb3e a4a6 18be 355b 233d
00000060: 0124 88bf 34e6 c1bd 253c edbc 8cbc 233e
00000070: 4d93 51be 9e5b f9bd 1803 ff3d e08e a1bd
00000080: f921 debd 7066 053d bbab bbbd 8138 efbd
00000090: ea75 923e c506 713e 7e66 66bd a982 3abb
000000a0: fdf1 2ebd 686d efbd 4d74 333b 05f2 c5bd
000000b0: afb1 573e d293 633e 2187 613e 5093 1d3e
000000c0: 0868 903e 834e 3e3f 62d4 55bd 3a2f 063f
000000d0: 8c0a da3d 0968 dd3c 819d d1bd 4c89 b6bd
000000e0: 5e2d 263f 67b2 10ba 9a7d b23d 141e 40be
000000f0: f0ce 2abc b4e3 01be a4a0 453d 1f5a e43d
00000100: 8101 263d 88bd f43d e6d0 2c3e 2bb5 17bf
00000110: 48f2 9a3e 1dd6 d5be 7554 2cbd 52f9 caba
00000120: 8860 b93e 8ff4 32bf d3c1 aa3e 724e 1dbe
00000130: 0a01 a53e 9326 643e 8570 a93e c9af dfbd
00000140: 2f9f 07bf 7266 6b3e 0d9b f7bd 3e4d c4bd
00000150: a7ab 053e dbb2 2c3d a9f7 8abd e52a 95be
00000160: 8fa0 0bbd 111e 83bf 0f80 e8be 5382 e0be
00000170: 7de5 5cbe 6b91 4c3e 4419 243e cd08 8a3d
00000180: 2848 413f 24c8 72be ab30 51be ef42 06bf
00000190: 8bc5 cabe b707 b63e 5555 15be f162 83be
000001a0: c78a 9a3f e626 1fbe 8676 d73e f92b 383c
000001b0: e0b6 0dbf 0fa4 a6bd cd66 183f eb2b 713e
000001c0: 61d7 453e 175a a43e 7110 5d3e 14e4 473c
000001d0: 80d7 ce3e 5643 3ebe 738c a7be 52eb 91be
000001e0: 6834 8abf abc7 7fbe 023a 853e f7f1 4c3e
000001f0: 6cba 42bd 5c45 df3d 2849 21bd 69a1 393e
00000200: 1968 813e 438b 803e 78e5 80be 59cc c9bd
00000210: 5694 89be 2dfb 8f3e 66df 813e 41d0 dcbd
00000220: ee61 503d 450a 9bbe 8d15 c2bd 4052 b3bd
00000230: 9667 66be 6ab7 9f3e da69 aa3e cddb d13e
00000240: 5ef6 ee3e b829 e63e 2a3d 2b3f 1ebf e93e
00000250: e3e3 21be 2640 183e 12e7 d63e 9e78 0b3d
00000260: 1d2e 28bf 7b72 4f3c 17df 993b 98a4 c8be
00000270: 4853 a8bd e36b 3dbd 1e95 d3be 9273 bbbe
00000280: 5102 adbe 6e68 073c 0410 723d c139 2a3d
00000290: 24fc 0e3e 68a6 1e3c 6106 ecbe 2cfa c3be
000002a0: 211b 913f 6848 7bbe f2a0 ac3c 3867 bcbe
000002b0: 3e3d 663e 65c5 87be 4a49 fe3d 34f2 3dbe
000002c0: 5ca2 42bf a1cc 8ebf af14 80be 0360 083e
000002d0: 1e06 95be 77d8 8dbd 8405 10bf 5e02 863e
000002e0: c3db dcbc 61ec 113e a387 b0be 3ffb 5bbd
000002f0: 794d e6bd 1dfa dabe ea65 d83e 21b2 8fbc
00000300: f6ac c5bd 4810 d83b 6ea4 103f fc49 843c
00000310: 7a0d 363e 64d3 a9be 6bad 283e f9eb 5bbd
00000320: 3ae1 453f 821b 97bf 14d2 fabd dea0 29be
00000330: 8810 343f fe3f 8c3b f793 613f 4842 2fbe
00000340: b7e0 92bd 8206 093d 4eb1 0a3f a2c2 5dbc
00000350: f2f0 e13d f7c6 cf3e d0fd 6ebe 5f2c 223d
00000360: 2dce 3abd 5fae f2be 1f1b d0be bc53 763e
00000370: b0a9 663e d873 063d 0562 b4bd e69d ed3e
00000380: f8f7 d93d ad3a 86bc 54a4 84bd 4050 323d
00000390: 6062 29be e069 12be 5606 c43d a389 e7be
000003a0: 34a4 143e b18f 07be 5c83 c4be f7ba 8c3e
000003b0: d6c9 a9be fc3c 82bd c7ca 91bd 4f7a 77be
000003c0: 8c35 fcbe d83f db3b 0c75 a5bd 60a6 adbe
000003d0: f626 41bc 1abf 7a3d 5fcc c0bd 5827 803e
000003e0: 4d87 d43e ca3d 8bbf b9c8 c93e 7aef 30be
000003f0: 0460 e93d 0430 99be d35b 36be d173 d7bd
-0.14544347 -0.26047525 0.10020035 -0.62687373 -0.6461424 -0.37973875 0.04402752 -0.67571604
0.34957078 -0.6674462 0.15537572 -0.2116586 -0.047483098 -0.35078755 0.2901718 0.29056332
-0.13251421 0.06800442 0.6174413 -0.054435387 -0.2871864 0.49143386 -0.14907318 0.039881904
-1.0635988 -0.09467736 -0.028959343 0.15989894 -0.20466347 -0.12175678 0.12451762 -0.07888579
-0.108463235 0.032568395 -0.09163614 -0.11680699 0.28605586 0.23537739 -0.056250088 -0.0028459227
-0.042711247 -0.116907895 0.0027382553 -0.09665302 0.21063875 0.22224358 0.22024204 0.15388227
0.2820437 0.7433855 -0.052204497 0.5241581 0.10646543 0.027027147 -0.102351196 -0.08912906
0.64912975 -0.0005519748 0.08715363 -0.18761474 -0.010425314 -0.12684518 0.048248902 0.11150002
0.040528778 0.11950213 0.16876563 -0.59260815 0.3026297 -0.41764918 -0.042072732 -0.001548568
0.3620646 -0.69904417 0.33351 -0.15361956 0.32227355 0.2228034 0.33093658 -0.109222
-0.5297727 0.22988299 -0.120901205 -0.09585045 0.13053761 0.042162757 -0.06785519 -0.29134288
-0.034088667 -1.024355 -0.454102 -0.4384943 -0.21571918 0.19977348 0.16025263 0.0673996
0.75500727 -0.2370916 -0.20428722 -0.5244588 -0.39603838 0.3555276 -0.14583333 -0.25661424
1.2073601 -0.15542182 0.42082614 0.011240953 -0.5535717 -0.081367604 0.5953186 0.2355191
0.19320442 0.32099983 0.21588303 0.012200374 0.40398788 -0.18580374 -0.32724342 -0.28499848
-1.0797243 -0.24978511 0.2602082 0.20014177 -0.047541067 0.10901901 -0.039376408 0.1812798
0.25274733 0.25106248 -0.2517507 -0.09853429 -0.26870984 0.2812132 0.25365752 -0.10781909
0.050874643 -0.30281273 -0.09476767 -0.08755922 -0.22500452 0.3119462 0.33283883 0.40988007
0.46672338 0.44953704 0.66890204 0.45653623 -0.15809588 0.1486822 0.41973168 0.034050576
-0.65695363 0.012661572 0.004695784 -0.39188075 -0.0821901 -0.046245467 -0.41324705 -0.3661161
-0.3379083 0.008264644 0.059097305 0.041558985 0.13963372 0.009683229 -0.46098617 -0.38276803
1.1336404 -0.2453934 0.021072838 -0.367975 0.224843 -0.26517788 0.124163225 -0.18549424
-0.7602899 -1.1156198 -0.2501578 0.13317876 -0.2910623 -0.06926053 -0.56258416 0.2617368
-0.02696026 0.14250328 -0.34478483 -0.053706404 -0.112452455 -0.42768946 0.42265254 -0.017540993
-0.0965213 0.0065937378 0.565009 0.01614856 0.17778578 -0.3316909 0.16472404 -0.053691838
0.77296793 -1.180527 -0.122471005 -0.16565272 0.70337725 0.0042800894 0.881164 -0.17115128
-0.07171767 0.033453472 0.54176795 -0.013535174 0.11032285 0.40581486 -0.2333901 0.039593097
-0.04560678 -0.4739866 -0.40645692 0.2405538 0.22525668 0.03282532 -0.08807758 0.4640953
0.106429994 -0.0163854 -0.064766556 0.043533564 -0.16541433 -0.142982 0.09571521 -0.45222196
0.14515764 -0.13238408 -0.3838147 0.27486393 -0.331618 -0.06359288 -0.07118755 -0.24167751
-0.49259603 0.0066909604 -0.080789655 -0.33915997 -0.011789074 0.061217405 -0.09413981 0.25030017
0.41509476 -1.0878232 0.39410952 -0.17278853 0.11395267 -0.29919446 -0.17808466 -0.10520137

bias f4 [16]
00000000: 3876 903f 2fe2 a0be 4e00 53be 0b91 023d
00000010: a428 b4bd 942a f63d 4c57 0a3e 6115 223f
00000020: de31 58be efc4 363c 997a 04bf 65f9 ab3d
00000030: 59a0 f2bd 41d5 4e3e 6db4 3f3d 51ae 9fbd
1.1286077 -0.31422564 -0.20605585 0.031876605 -0.08796814 0.1201984 0.13509864 0.6331387
-0.21112773 0.011155351 -0.5174957 0.083971776 -0.1184699 0.20198537 0.046802927 -0.0779692

weight_g f4 [16, 1, 1]
00000000: 921f 8640 0010 8e3f cc42 a43f 2ebd 7940
00000010: 8e54 2640 3008 2540 20dc 7040 f4d8 3040
00000020: 774a d93f 7f60 b03f dd7d fe3f 9ffb 963f
00000030: d639 803f 57c2 0b40 a2d6 f93f f772 3c3f
4.191354 1.1098633 1.2832885 3.9021716 2.5989108 2.5786247 3.7634354 2.7632418
1.697585 1.3779448 1.988216 1.1795539 1.001765 2.1837366 1.9518626 0.7361292

weight_v f4 [16, 16, 2]
00000000: 4292 8ebd 5ac9 6fbd 8af8 e3bd 6574 49be
00000010: 16a8 93bd 881a 0abe 1b47 043d b6bd b13d
00000020: af70 b43d 2797 cd3d 1d61 a0bd ee7f e93d
00000030: e937 95bd 9e50 54be e4ba 85be 6ceb eabc
00000040: 44af 8fbd 9216 0dbe f011 ffba 87e0 a6bc
00000050: 453a 9cbc 2ae1 733b c1bb 4ebd 09d4 3fbc
00000060: 9f7d 01be 6ab9 fabc 67ba f63b 8b20 463d
00000070: 8a03 8abe ac69 c4be 9133 b3be fa62 94be
00000080: e0c1 813e 2ea7 343f 1ee4 c23d 9447 153e
00000090: cd6a 4dbe 963f a3be 395a 27be f9de 89bd
000000a0: ab10 943e a709 e9bd 34b9 583d 1558 363e
000000b0: b5d8 873d 900e dc3c 508f 233e e60b d9bd
000000c0: 204d 8f3d 2097 973e 0798 f43c b6b7 993c
000000d0: 93c5 583d d105 2ebd 010d 9c3a b56f a63c
000000e0: 2b5d 6dbd 4fff 1bbd 326c 3cbd f59e c23c
000000f0: 4896 ebbe e3ca b5bd 8471 393c d18d 623d
00000100: 40e1 d7be c222 fdbd e33d ac3d 0db1 2dbe
00000110: 2665 96be de51 41be 3f20 02be 2bcf 16bd
00000120: 2bc1 cfbc 7dd9 98bd e16d e1bd d955 12bf
00000130: c6b1 c8be 1b66 1cbd 3c0d 0cbb a4a8 923d
00000140: 5da6 b0bc ba3e 233e ffaa 46bc 585d 173d
00000150: c393 78bd b9aa 97be 076a f2bc cfa0 073d
00000160: 904a 2ebd de02 9a3d e9f0 d83c 62f1 053d
00000170: 8a6d 963e 0f71 833d 89a1 cd3b 6467 aabb
00000180: 3e04 b3be 536b acbe 6556 54bc 6fa5 95bc
00000190: fe18 89be 7e60 79be 6895 a7bc e3e6 f1bd
000001a0: 20b1 e23d df8b 133e b91d c73d 64ca e03d
000001b0: ee58 40be 1836 85be 602c 68bd c65f 463d
000001c0: 42c9 a5be dc07 393c 876b 25bd e540 97bc
000001d0: 6a92 83bc 24e8 b0bb 6daa 623b 059c 0e3b
000001e0: 3c6e a33d 7f56 253d aec4 333c f19d 823c
000001f0: 0875 5abd a068 8f3d 81ec 62bb 9341 9d3b
00000200: f8f3 babe 0643 debd de27 1a3d db58 8a3c
00000210: 80f7 d9bb 70b2 cbbd dc11 dc3c e4a2 273c
00000220: 1c12 d5be c7bd 08bc a92d 563b ce94 a33d
00000230: 0368 14be bfb5 013c c9d0 15be 027a b93c
00000240: d8db 21bd cf9c 9b3c faea 82bb 01a6 d7be
00000250: 1288 4bbd c5c3 493c f16e 223c e1ba fb3b
00000260: 7aae ae3c 9b55 3bbf 65c6 ea3c a278 e3be
00000270: 3988 3bbd 2da8 713d a672 d93b 8bd7 81bb
00000280: e6a8 b6bd 31f8 0bbd 7da8 84bb 5908 cfbe
00000290: 3d54 833c 991e aabb 0851 fdbb 279d 433b
000002a0: 74d2 8d3b 46e8 48be ff8e 4fbe 977d 3dbd
000002b0: 560e 6abc c268 aebc ed4f a0bb cdd6 09bf
000002c0: ef1c 4bbd 1470 59be 3161 a3bc 1535 04ba
000002d0: 9382 0abc 3de3 33bf bed0 d7be d4c3 1dbc
000002e0: 33df c3bb 7c8a 563a 0af4 0fbf 6416 aebb
000002f0: df25 95be 30f0 2b3e f806 6bbe cc72 12bf
00000300: db2f 8c3b 0b90 4dbe 301e 953c 2ef9 9b3c
00000310: 8097 0d3e 10a5 7bbc b17a 6d3d cd0d 0cbd
00000320: 8e7f 333c fbe7 c0be 847e 29bc 135a 85be
00000330: b6b5 753c ec17 29be e808 4cbb 2064 0dbb
00000340: 0622 95bd 6802 00be 905c aabe aede efbe
00000350: a9ce 92ba 6d95 133b 87d5 f9be 6cac febe
00000360: e87e 9dbe da6b f6be e366 0d3c 0826 0bbd
00000370: f5ea 2d3c 0f84 753d 60fe d53b 3779 59bc
00000380: 0906 acbc f628 00bd 4a91 d2be 52b7 37be
00000390: 870f b8bb 058f fbbc 7520 87ba 5d14 893b
000003a0: 65ad aa3c b2b0 78be c933 273d ea27 52be
000003b0: a582 84be 9ce2 0cbe f394 afbd 69dc b7be
000003c0: fca7 41bc 63e6 0ebd f2fc 04bc 7609 0b3b
000003d0: d02e 97bc acf0 ebbc 442a 363b 0dda a9bb
000003e0: ce9d 9fbb 5235 973c b845 083c 856f 3bbc
000003f0: b23d 27bd 9fbc de3b 1f14 c1be ca8d fabd
-0.0696149 -0.058541633 -0.111313894 -0.19673307 -0.07209794 -0.13486683 0.032294374 0.086787626
0.08810555 0.10038596 -0.07831023 0.11401354 -0.07286055 -0.20733878 -0.2611915 -0.028676711
-0.07015851 -0.13778141 -0.0019460302 -0.020370735 -0.019070754 0.0037213066 -0.050472025 -0.011708268
-0.12645577 -0.03060599 0.007529545 0.04837088 -0.26955825 -0.3836187 -0.3500028 -0.28981763
0.25343227 0.70567596 0.09516166 0.14578086 -0.20060273 -0.3188445 -0.16343011 -0.06731982
0.28918967 -0.11378794 0.052911 0.17807038 0.066331305 0.026862413 0.15972638 -0.105979726
0.06997132 0.29607487 0.029857649 0.018764358 0.052922796 -0.042486016 0.0011905731 0.020316938
-0.05795018 -0.038085278 -0.04600162 0.023757437 -0.46013093 -0.08876588 0.011318568 0.055311028
-0.4216404 -0.12360145 0.084102415 -0.16962071 -0.29374045 -0.18878886 -0.12707613 -0.036818665
-0.025360664 -0.074633576 -0.11007286 -0.57162243 -0.3919813 -0.038183313 -0.0021370193 0.07161072
-0.021563703 0.15941897 -0.01212573 0.036954254 -0.06068779 -0.2962244 -0.029591573 0.033112343
-0.042551577 0.07520078 0.026482062 0.032700904 0.29380447 0.064180486 0.00627536 -0.0052003134
-0.34964174 -0.33675632 -0.012960051 -0.018267361 -0.2677688 -0.24353215 -0.020456985 -0.11811616
0.1106894 0.14408825 0.09722466 0.10976103 -0.18783924 -0.26017833 -0.056682944 0.04843118
-0.3238011 0.011293378 -0.04038575 -0.018463561 -0.016061027 -0.005398767 0.0034586445 0.0021760475
0.0798001 0.040365692 0.010972185 0.015944453 -0.053334266 0.070023775 -0.003462583 0.004799077
-0.36514258 -0.108526275 0.037635677 0.016888073 -0.0066518188 -0.099461436 0.026863985 0.010231707
-0.4161538 -0.008346028 0.0032681024 0.079873666 -0.14492802 0.007916867 -0.14630426 0.022641186
-0.0395163 0.01899567 -0.0039952965 -0.42118838 -0.049690314 0.0123147415 0.009914146 0.00768219
0.021323431 -0.731775 0.028659055 -0.44427973 -0.04578421 0.058998276 0.0066359816 -0.0039624623
-0.089189336 -0.03417224 -0.0040484057 -0.40436056 0.016031379 -0.005191636 -0.007730607 0.0029848309
0.0043280665 -0.19619855 -0.20269392 -0.04626235 -0.0142856445 -0.021290187 -0.0048923404 -0.53843385
-0.04958814 -0.2123416 -0.019943805 -0.000504331 -0.008453983 -0.70268613 -0.42151445 -0.009629209
-0.005977535 0.0008184088 -0.5623175 -0.0053127278 -0.29130456 0.16790843 -0.22951877 -0.57206416
0.0042781658 -0.2007448 0.018202871 0.019039717 0.13827324 -0.015359178 0.057978336 -0.03419285
0.010955704 -0.37676987 -0.010345105 -0.26045284 0.014996937 -0.16513032 -0.0031133238 -0.0021574572
-0.0728188 -0.12500918 -0.33273745 -0.4684958 -0.0011200506 0.0022519485 -0.4879572 -0.49740922
-0.30760884 -0.4812916 0.008630487 -0.033971816 0.0106151 0.059940394 0.006530568 -0.013273529
-0.020998972 -0.031289063 -0.41126472 -0.17941025 -0.0056170854 -0.030707845 -0.0010309356 0.0041833357
0.020834634 -0.24286154 0.04082087 -0.20523039 -0.25880924 -0.1375832 -0.08573332 -0.35910347
-0.011819836 -0.034887683 -0.0081169475 0.0021215356 -0.01845494 -0.028801285 0.0027796188 -0.0051834644
-0.0048711067 0.018458042 0.0083174035 -0.011440163 -0.04083032 0.0067973877 -0.37710664 -0.12234075

weight f4 [16, 16, 2]
00000000: 641f b0be 043f 94be 84bc 0cbf 3913 79bf
00000010: c56b b6be 29a1 2abf 047c 233e 3931 dc3e
00000020: b023 df3e 8df0 fd3e ce4c c6be 1769 103f
00000030: 1dc5 b8be b436 83bf 5852 a5bf a6d7 11be
00000040: 0d02 b2be 0355 2ebf 95e3 1abc db80 cebd
00000050: 7b65 c0bd 1b68 903c 22c4 7ebe 08a4 6bbd
00000060: e72b 20bf 9994 1abe 3f61 193d aa18 753e
00000070: 728f aabf 8bab f2bf 2573 ddbf fe6e b7bf
00000080: 7fb7 7f3e e502 323f fb9e c03d 2a44 133e
00000090: 018e 4abe 7ff3 a0be 34fa 24be 9bea 87bd
000000a0: ebf1 913e c3e4 e5bd 8255 553d a9b2 333e
000000b0: 6faf 853d 9bcd d73c 8659 213e 9925 d6bd
000000c0: 63df 8c3d 3a63 953e f23a f13c 3ae5 963c
000000d0: 6997 553d 5921 2cbd daac 903a f544 a43c
000000e0: 3e39 6abd a296 19bd fbc9 39bd b9cd bf3c
000000f0: 7145 e8be 9159 b3bd c4ae 363c 1b4c 5f3d
00000100: 2869 04bf fc49 1bbe db47 d33d 5339 55be
00000110: 9f88 b8be 7b4c 6dbe 0dcb 1fbe f8f3 38bd
00000120: 7e03 ffbc ec5a bbbd 1964 0abe da7e 33bf
00000130: 4834 f6be 4b49 40bd 4585 2dbb 3281 b33d
00000140: 1566 d9bc 5d07 483e 4001 75bc 75ea 383d
00000150: 1048 98bd 7213 babe 0891 14bd 5d89 253d
00000160: cade 55bd ae8c bc3d 7dc9 043d 10ac 233d
00000170: 476d b83e 16d4 a03d 6121 fa3b 0b30 d6bb
00000180: 22ae d5bf d6d2 cdbf 51c4 7ebd a01d b4bd
00000190: 33a4 a3bf e2d2 94bf f6a6 c6bd 8d73 10bf
000001a0: 1234 073f f814 303f ce52 ed3e fe2d 063f
000001b0: ff85 65bf 2dff 9ebf 62db 8abe 48ef 6c3e
000001c0: 8fda c5bf e0bf 5b3d c86e 45be eef1 b4bd
000001d0: fda9 9ebd f8cc d5bc 96de 843c 971c 2a3c
000001e0: cdff c23e 3f17 453e b622 573d 7639 9b3d
000001f0: a8b8 82be 40c2 aa3e 7d34 8abc b61c bb3c
00000200: f0e7 54bf 111c 7dbe 607b af3d 2391 1d3d
00000210: 60d4 7abc aa0a 68be da95 7a3d 95b5 bf3c
00000220: 18a2 72bf 3817 9cbc 0f3e fd3b 9df7 393e
00000230: 99f7 a8be b15c 943c 6599 aabe e370 533d
00000240: fa5a b8bd 3429 313d d812 14bc cb94 75bf
00000250: 4fb9 e7bd e74a e53c f7b3 b83c 71ef 8c3c
00000260: 1849 463d a553 d5bf 13cc 853d 7c82 81bf
00000270: f244 d5bd f6f6 093e 3a02 773c fb22 15bc
00000280: 03f3 22be a967 7abd 7f05 edbb 0e59 39bf
00000290: 410f eb3c 78f7 18bc aa96 61bc d439 b23b
000002a0: 44c1 053c c5d2 b3be d1b3 b9be f6f8 a8bd
000002b0: cdb0 d3bc 0c8b 1cbd 6c45 10bc b5c9 76bf
000002c0: 7fcd b5bd 0eb2 c2be f0f7 11bd 47b7 77ba
000002d0: e6d9 77bc 9908 a1bf ae30 41bf 7f55 8fbc
000002e0: 1bf5 2fbc 08e1 bc3a 42dc 80bf 24b8 1abc
000002f0: 7497 05bf 29ce 993e 9182 d2be 6418 83bf
00000300: f159 5c3c 2f89 1fbf 82a3 663d c8c5 703d
00000310: 4373 db3e f916 44bd 66e4 373e 10e9 d9bd
00000320: a7a7 0b3d 1aaa 95bf bcef 02bd 2ded 4ebf
00000330: ed7f 3e3d 1d3c 03bf caf2 1abc 4947 debb
00000340: a9db 67be ff92 c6be a730 84bf 7e17 babf
00000350: 5358 60bb 74d3 e43b b2d4 c1bf a08e c5bf
00000360: 8059 74bf 7530 bfbf e0e4 d53c e009 d9bd
00000370: 3df5 043d 60f3 3d3e 1ef1 a33c 744f 29bd
00000380: d908 8ebd e2b1 d5bd 7bfb aebf 43ad 18bf
00000390: 78cc 96bc 2b88 d1bd 011d 5bbb 38b5 603c
000003a0: 64e1 8d3d dda7 4ebf 3309 0b3e be99 2ebf
000003b0: 4d22 5cbf 46f0 e9be f4f7 91be 05bd 98bf
000003c0: 8710 21bd 132c ecbd 0633 dcbc 8f63 e93b
000003d0: 192a 7bbd 6e73 c4bd 0f09 163c 18ae 8ebc
000003e0: 812c 87bc 40d8 7a3d 450c e33c 9eea 1bbd
000003f0: 8549 0bbe 1f39 ba3c 046e a0bf 3f36 d0be
-0.3439895 -0.28954327 -0.5497515 -0.97294956 -0.35629097 -0.6665216 0.15965277 0.43006304
0.43581915 0.49597588 -0.38730472 0.56410354 -0.36087885 -1.0251069 -1.2915754 -0.1424242
-0.3476719 -0.6809847 -0.009453674 -0.10083171 -0.09394356 0.017627766 -0.24879506 -0.05752948
-0.6256699 -0.15095748 0.037446257 0.2393519 -1.3325026 -1.8958601 -1.7300764 -1.4330747
0.24972342 0.69535667 0.09405323 0.14381471 -0.19780733 -0.31435773 -0.1611107 -0.06636544
0.2850488 -0.112252735 0.0520835 0.17548622 0.06527602 0.026343158 0.15756807 -0.1045639
0.06878545 0.29177266 0.029447053 0.01841985 0.05214635 -0.04202399 0.0011037842 0.020052413
-0.057183497 -0.03749717 -0.04535864 0.023413526 -0.4536548 -0.08757318 0.011150066 0.05451594
-0.51722956 -0.15164942 0.1031644 -0.20822649 -0.36041734 -0.23173706 -0.15604801 -0.04515454
-0.031129595 -0.09148201 -0.13514747 -0.70115435 -0.48086762 -0.046944898 -0.002647714 0.087648764
-0.026537934 0.19534059 -0.014953911 0.04514547 -0.0743562 -0.3634296 -0.036271125 0.040414203
-0.05221442 0.0920652 0.032418717 0.039959013 0.36020872 0.07852952 0.0076333736 -0.006536489
-1.6693766 -1.6079967 -0.06219894 -0.08794713 -1.2784485 -1.1626856 -0.09699814 -0.56426316
0.5281383 0.68781996 0.46352237 0.5241393 -0.89657587 -1.2421623 -0.271205 0.23138154
-1.5457324 0.053649783 -0.19280541 -0.08835207 -0.077472664 -0.026098713 0.016219418 0.010382793
0.38085786 0.19247149 0.052523337 0.07579319 -0.25531507 0.33351326 -0.016870731 0.022840839
-0.8316641 -0.24717738 0.08568454 0.03846849 -0.015309423 -0.22660318 0.061178066 0.023402015
-0.94778585 -0.01905404 0.007728345 0.18160863 -0.33001402 0.018110605 -0.33320156 0.05162133
-0.090017274 0.043252185 -0.009037696 -0.95930165 -0.11314642 0.027989818 0.022546751 0.017204018
0.04840955 -1.6666151 0.06533065 -1.0117946 -0.10413541 0.13473114 0.015076214 -0.009102578
-0.15913014 -0.061134014 -0.007233321 -0.7240151 0.028693797 -0.009336345 -0.013768831 0.0054390226
0.008163754 -0.35121742 -0.36270002 -0.082506105 -0.025841141 -0.038218543 -0.008805614 -0.9640153
-0.08877086 -0.3802647 -0.035636842 -0.00094496127 -0.015127635 -1.2580749 -0.75464904 -0.017496822
-0.01073959 0.0014410326 -1.0067217 -0.009443317 -0.52184224 0.300401 -0.4111524 -1.0241818
0.013449178 -0.623187 0.056308277 0.05878237 0.42861375 -0.04787347 0.17958221 -0.10640156
0.034095433 -1.1692536 -0.03196691 -0.8083065 0.04650872 -0.512636 -0.0094572995 -0.0067834
-0.22642387 -0.38784024 -1.0327348 -1.4538419 -0.0034232333 0.006983215 -1.5143034 -1.5434151
-0.95449066 -1.4936663 0.026110113 -0.10597587 0.03246044 0.18549871 0.020012435 -0.041335538
-0.06935281 -0.10434319 -1.3670496 -0.59639376 -0.018408045 -0.1023105 -0.0033434036 0.013715081
0.069277555 -0.8072489 0.13577728 -0.6820334 -0.8598984 -0.45691127 -0.28509486 -1.1932684
-0.039322402 -0.11531844 -0.026879799 0.007122464 -0.061319444 -0.09592329 0.009157433 -0.017416999
-0.016500713 0.06124139 0.027715812 -0.038065545 -0.13602264 0.022732316 -1.2533574 -0.40666386

bias f4 [16]
00000000: fb46 ca3e ac6e 76be 8822 bebe 92ec c43e
00000010: 52c9 f03e f5b8 103e 838d 083d 1cda 913f
00000020: 32cf a6bf c3f3 2fbf 40fc 9d3f 442d 923f
00000030: 8d3f d2bf 9f29 913e be64 3bbf 1fde 573e
0.3950728 -0.24065655 -0.3713572 0.3846174 0.47028595 0.14133056 0.03333808 1.1394687
-1.3031981 -0.68731326 1.2342606 1.1420064 -1.6425644 0.28352067 -0.73200595 0.21080826

weight_g f4 [16, 1, 1]
00000000: 8109 0d40 72ab 1e40 1fdd e13f 73a2 3e40
00000010: d735 0040 a8ae e23f be24 0540 e77f d33f
00000020: 374c 1240 361c e53f 976b c13f 60c1 4340
00000030: ce51 1840 1b48 0340 25df eb3f 96fa 1540
2.203705 2.4792142 1.7645606 2.978665 2.0032861 1.7709551 2.0803676 1.6523408
2.2859018 1.7899234 1.5110959 3.0586777 2.379993 2.051276 1.8427473 2.3434196
