weights/gen_tcnwgan_minmax.model (torch, 61159 bytes, 56 tensors)

bias f4 [8]
00000000: 6206 a9bd afd6 35bd 1579 cdbd 4187 dc3d
00000010: 6a43 43be b607 99be a77f eebd 4b1e acbe
-0.082531705 -0.04439419 -0.1003286 0.10767985 -0.19068685 -0.29888695 -0.116454415 -0.33616862

weight_g f4 [8, 1, 1]
00000000: a846 ac3e e2a9 d53e e068 fd3e 7384 003f
00000010: 77cd 083f 925b b93e 989d a63e cf7b 883e
0.33647656 0.41731173 0.49494076 0.502021 0.53438514 0.36202675 0.3254211 0.26656958

weight_v f4 [8, 8, 2]
00000000: 8b65 793e be96 a83e 3160 24bb ccce 3b3d
00000010: 122d 95bc 5738 d5bd 0e54 9fba dacc 4d3d
00000020: e5dc 1bbe 4778 43be 9bf9 6f3d dece d93d
00000030: 5bf7 ef3c 114f 553d add2 25bd cdb8 97bd
00000040: d0bf a13e 54ab 463d 158a 033c f713 18be
00000050: 0c05 873c 74cb 363d f23b 743e 158c 853d
00000060: 10da 71be 2136 183d 1c0f 913d c1dd 843d
00000070: 3532 383d e0e9 5c3d 2ed5 f8bd 9841 71bd
00000080: 92d3 8b3e c96d dabd bc08 20bd d7a3 163d
00000090: 0247 0c3a 51fa 87bc 17ef aa3e 32b0 be3c
000000a0: f283 68be a16e da3d 12d5 033d c1ba b83d
000000b0: e739 eb3d 6454 a7bd 3e2d 18be a13c 8a3d
000000c0: f339 e0be 25b8 a83b dd16 16bd 6f4c 6e3c
000000d0: 5075 27bd f877 1bbd 2cbf aebe 4fd0 103d
000000e0: a919 8d3e 042a ebbd 1afe 22bd 07b6 48bc
000000f0: be58 48bd a6fe c4bb 4cbe 1e3e 8551 5abc
00000100: 1f3c f33e c3c8 b3bc ebc7 173e 8701 a63d
00000110: 339a 31bd 6425 71bc 75c5 5d3e 30b3 c13d
00000120: 33f9 90bd bab7 bebd 2116 003e cbb8 13be
00000130: 1257 623d 725d 19bd 390c 28be c564 ef3c
00000140: 47f6 dc3d c0da 05be b710 5dbc bc2b e6be
00000150: ad21 adbd b6c8 f33d eeff d3bd 6fd5 c63d
00000160: 5c14 1f3e 5858 4f3e f3e2 9f3c e935 823e
00000170: a074 b2bd 1039 923d 2fe4 0abd 2f09 babd
00000180: 3e38 2ebe 69ae 223e 44f1 eabc dafe cd3b
00000190: 4a72 8e3c 9b3e 0c3e 27b2 5f3d 1bc6 563e
000001a0: fa4f 5b3d c622 06be 62db 0ebe b437 50bc
000001b0: ced6 a0bd c475 5ebd 53c0 8e3d be86 25bd
000001c0: 183f 683d 87eb e53b c63f 0b3b 4122 6fbe
000001d0: 858e 60bd 20bd 9a3e b406 703e 726c 893e
000001e0: 41e5 873d 37ca 243d 7ee5 bbbd e4d8 1cbd
000001f0: a238 553d 5b12 5f3d 9843 a93d 8087 48bc
0.24355142 0.32927507 -0.0025081749 0.045851514 -0.018209968 -0.104111366 -0.0012155788 0.05024419
-0.15220983 -0.19088851 0.05858765 0.1063516 0.029292753 0.052077357 -0.04048412 -0.07408295
0.31591654 0.048503235 0.008028527 -0.14851366 0.016481899 0.04462762 0.23850992 0.06520859
-0.2361834 0.037160996 0.0708296 0.06487609 0.044969756 0.053933978 -0.12150036 -0.058900446
0.27309853 -0.10665471 -0.03907083 0.036777344 0.0005351157 -0.016598852 0.33385536 0.023277376
-0.22706583 0.10665632 0.03218562 0.090199955 0.11485653 -0.08170393 -0.14861009 0.06749845
-0.43794212 0.005148905 -0.036642898 0.01454459 -0.040883362 -0.037956208 -0.34130228 0.03535491
0.2755864 -0.11482623 -0.03979311 -0.01225043 -0.048912756 -0.006011802 0.1550228 -0.0133251
0.47506806 -0.021946317 0.14822356 0.0810576 -0.043359946 -0.014718387 0.21657355 0.094580054
-0.07078781 -0.09312387 0.12508442 -0.14425962 0.055258818 -0.037442632 -0.16410913 0.029222855
0.10789161 -0.13071728 -0.013492755 -0.44955242 -0.08453689 0.11903517 -0.10351549 0.09708678
0.1553511 0.20248544 0.019517398 0.25431755 -0.08713651 0.0713979 -0.03390902 -0.09083783
-0.17013642 0.15886845 -0.028679498 0.006286484 0.017388482 0.13695757 0.05461326 0.20974009
0.05354307 -0.13099203 -0.13950875 -0.012708593 -0.07853471 -0.05431153 0.06970277 -0.040411703
0.056700796 0.0070166024 0.0021247729 -0.2335291 -0.054823417 0.30222416 0.23440057 0.2684055
0.066355236 0.04023191 -0.091746315 -0.03829278 0.052055962 0.054460865 0.082648456 -0.012239337

weight f4 [8, 8, 2]
00000000: a5ed 213e 4de8 5a3e aecf d6ba fbf5 f33c
00000010: d8b4 41bc 7872 8abd 64f1 50ba cd94 053d
00000020: 5e5f cabd 5fcd fdbd 24cd 1b3d 096d 8d3d
00000030: 3fd6 9b3c fd75 0a3d 714e d7bc 3100 45bd
00000040: 9b32 803e ca72 1d3d 6fb1 d03b 4f14 f1bd
00000050: 0c1c 563c ece6 103d e98e 413e f4aa 533d
00000060: 2dac 3fbe 9c48 f13c 2bf1 653d 01ad 523d
00000070: 61f1 113d 9319 2f3d e73d c5bd 8d36 3fbd
00000080: 71c6 743e 2734 bfbd 9913 0cbd fbeb 033d
00000090: 13a3 f839 f90d 6ebc 259f 953e e5ec a63c
000000a0: 9285 4bbe 6534 bf3d 15bf e63c 6fb7 a13d
000000b0: ece4 cd3d 4272 92bd 5333 05be b6f4 713d
000000c0: 5c52 abbe 01de 803b cf4a e5bc 011e 363c
000000d0: 0cd8 ffbc 23a0 edbc 8083 85be e05d dd3c
000000e0: d99d 573e 15b3 b3bd 6624 f9bc 252a 19bc
000000f0: d315 19bd 8fee 95bb df90 f23d 12cf 26bc
00000100: 18ce ce3e 97e6 98bc 850d 013e d221 8d3d
00000110: 4801 17bd 1036 4dbc 3f8b 3c3e 78aa a43d
00000120: ec74 76bd 0b2c a2bd 59d2 d93d b131 fbbd
00000130: 1563 403d 1468 02bd b6e2 0ebe dc72 cb3c
00000140: cf83 753d b2ad 94bd 689f f5bb 9db5 7fbe
00000150: 575c 40bd 836b 873d 5881 6bbd 9ee7 5c3d
00000160: 24b7 b03d b952 e63d eb86 313c 1ea8 103e
00000170: ca3f 46bd bf73 223d f555 9abc 81a9 4ebd
00000180: ab00 07be c824 fc3d d910 b6bc 21b7 9f3b
00000190: abad 5c3c bd5e d93d d85a 2d3d d171 263e
000001a0: f8f3 293d 84eb cfbd 9f6d ddbd 1b32 21bc
000001b0: 103d 79bd 3c5a 2cbd 2732 5d3d b03f 00bd
000001c0: 7a31 df3c 10ba 5c3b 9e4c 863a 99d9 e5bd
000001d0: 99dc d7bc 20b9 143e dcae e63d 3c14 043e
000001e0: b79f 023d 3c74 9e3c 0699 34bd 44c9 96bc
000001f0: a4f1 cc3c b064 d63c c4b2 223d 6102 c1bb
0.1581331 0.21377678 -0.0016388798 0.029780379 -0.011822902 -0.067601144 -0.00079705403 0.03261261
-0.09881471 -0.12392687 0.038037434 0.069055624 0.019023059 0.03380393 -0.026282521 -0.048095886
0.2503861 0.03843955 0.006368808 -0.11771452 0.01306821 0.035376474 0.18902172 0.051676705
-0.18718024 0.029453568 0.0561382 0.05143452 0.035630587 0.042749 -0.096309476 -0.046682883
0.23903824 -0.09336119 -0.034198377 0.03220747 0.00047423746 -0.0145296985 0.2922298 0.020376632
-0.19875172 0.09336165 0.028167287 0.07896315 0.10053429 -0.07150699 -0.1300786 0.059071265
-0.33461273 0.003932715 -0.027989773 0.011115552 -0.031230949 -0.029007023 -0.2607689 0.027022302
0.21056308 -0.087743916 -0.030412864 -0.009348427 -0.03737433 -0.0045755575 0.11844038 -0.010181205
0.40391612 -0.018664641 0.12602814 0.06891216 -0.036866456 -0.012525097 0.18412493 0.08040327
-0.0601701 -0.07918557 0.10635824 -0.12265337 0.046969492 -0.031837538 -0.13953671 0.024835043
0.059940156 -0.07259692 -0.0074958093 -0.24971624 -0.046963062 0.06612303 -0.0574964 0.053931825
0.08628681 0.11246247 0.01083539 0.14126632 -0.048400678 0.039661165 -0.018839816 -0.05045462
-0.13183849 0.12311703 -0.02222483 0.0048741256 0.01346914 0.10613773 0.042322963 0.16254355
0.041492432 -0.10152343 -0.10811924 -0.009838606 -0.06084925 -0.04207824 0.054002907 -0.031310737
0.027245272 0.0033680238 0.0010246222 -0.11223144 -0.026350306 0.14523745 0.112638205 0.12898344
0.031890597 0.019342534 -0.044091247 -0.018406518 0.025017567 0.026171058 0.039721265 -0.005890176

bias f4 [8]
00000000: 7887 aebd a8e3 a2bd 3daa d63d d3f7 13be
00000010: 3b44 ee3d d182 e4bd 89af 5f3d 3b97 473e
-0.08521932 -0.07953578 0.10481689 -0.14450006 0.11634108 -0.11157764 0.054610763 0.19491284

weight_g f4 [8, 1, 1]
00000000: 4958 ac3e bcf8 c33e 8ba9 9d3e b190 1f3f
00000010: cbb7 853e 420b 323f 4d21 b63e be35 e33e
0.33661106 0.38275707 0.30793414 0.62330157 0.26116785 0.6954843 0.3557228 0.4437694

weight_v f4 [8, 8, 2]
00000000: de4e 35bd 8e49 a0bd e6ca 7f3e 25f6 a03e
00000010: 9afb 0bbb 8a8f bc3d 7285 b5bd efe1 2cbd
00000020: ae32 973d 0ab7 94bc 43a3 8dbd 3377 efbc
00000030: 683c bdbd 9cc3 223e 7ea6 533d a78d a03d
00000040: a1ad 843e d6af d13c 588a 7f3e a3ce 813e
00000050: 7519 c9bc 527b 86bb 86e5 bdbd ed5b a2bd
00000060: 5963 393e db98 953e c592 19be 8f9f d93b
00000070: ab20 b63d ecc6 00be 8876 653e 6ab8 4fbd
00000080: dc9a 03be f0f0 80bd 806e aabe c4bb cb3d
00000090: 5876 89bd f35e 163e ce42 293c 0e62 253d
000000a0: 18c2 8ebe 8fe0 adbd fa85 03bd 8eea d13c
000000b0: df9d 9bbe c828 403e 9218 883e 4053 26be
000000c0: 2091 4fbe ea6e dc3d 83c2 86bd acbf 9cbe
000000d0: e5c5 ba3b 2832 153d 29b5 123e 59c6 2a3e
000000e0: 636d 143c 7e57 9ebe 5725 7cbd 1f5a dd3d
000000f0: b868 9d3d be01 a23d 63de f43b 3a82 08be
00000100: 1840 3d3d 03e4 e33d 166f 1c3e e6c7 07be
00000110: bb26 20be 4e89 45bd 7fa5 8bbd 89ad 56bc
00000120: bebf cc3b a212 b2bd 1dff f0bd 9d14 4ebd
00000130: 0ac2 8d3e a6f1 a53d 5916 bdbe a29a 16bd
00000140: d77a 11be adbe 85bd d33c b9bd 8ca5 9fbd
00000150: 5611 40be 7d9e 4ebe d22b 233d 4cde 653e
00000160: f5ad 7ebe 414d 08be a47c 803d 979a 6d3d
00000170: 241d 77bd a2e1 373e 78e0 ba3c af9f 403c
00000180: 9b3f 273e 307e 2bbe 7d16 423d b66c f63d
00000190: 460f 843d 83f0 00be 555d 1ebe 806e c7bc
000001a0: a329 633e 632c 423e e881 eb3d 4fcc 1d3d
000001b0: 8720 26be ed77 093b 0d61 b93d 6820 14be
000001c0: f2bb 6e3d a950 163e 5e4d 173e 8411 633c
000001d0: 35fd d63d c1bc 773d 6fac 8fb9 6311 0ebe
000001e0: 9059 5d3e 0bf4 8c3c 07f6 a6bc bcfc 393d
000001f0: 14fc b13d 25c0 88bd d6f2 31bb c844 b4bc
-0.044264667 -0.078265294 0.24979743 0.31437793 -0.0021359683 0.092070654 -0.08863343 -0.042207655
0.07382713 -0.018153686 -0.06915905 -0.029231643 -0.09240037 0.15894932 0.05167245 0.07839518
0.25913718 0.02559654 0.24955118 0.25352964 -0.024548272 -0.0041040564 -0.09272294 -0.0792769
0.18104304 0.29218182 -0.14997394 0.0066413353 0.0889295 -0.12575883 0.22408497 -0.05071298
-0.12852043 -0.06295955 -0.3328743 0.09947923 -0.067120254 0.14684658 0.010330869 0.040376715
-0.27882457 -0.08490097 -0.032110192 0.02562454 -0.30393884 0.18765557 0.26581246 -0.16242695
-0.20270205 0.10763343 -0.06580069 -0.30614984 0.0056998604 0.036424786 0.1432692 0.16677226
0.009059283 -0.30926126 -0.061559048 0.10808205 0.07685989 0.079104885 0.0074727996 -0.13330927
0.046203703 0.11127474 0.15276751 -0.13259849 -0.15639775 -0.048226647 -0.06818675 -0.013102897
0.0062484434 -0.0869496 -0.11767409 -0.050312627 0.27687103 0.081027314 -0.36931112 -0.036768563
-0.14207016 -0.06530509 -0.090448044 -0.077952474 -0.18756613 -0.20177646 0.039836712 0.22448081
-0.24871047 -0.1331072 0.06273773 0.058008756 -0.060330525 0.17957166 0.022812113 0.011756822
0.16332857 -0.16747355 0.047384728 0.12032454 0.06448226 -0.12591748 -0.15465291 -0.024344683
0.22183852 0.18962245 0.11499387 0.038524922 -0.16223346 0.0020976022 0.09051714 -0.14465487
0.058284707 0.14679207 0.14775607 0.0138591565 0.10497514 0.060482744 -0.00027403558 -0.1387382
0.21616197 0.017206213 -0.020380987 0.045407042 0.08690658 -0.06677274 -0.0027152798 -0.022005454

weight f4 [8, 8, 2]
00000000: d377 f8bc 81a0 5bbd 7b36 2f3e 8c83 5c3e
00000010: 00d1 bfba 6c22 813d 0ab7 78bd 75ed ecbc
00000020: 2a1f 4f3d c9d6 4bbc e90b 42bd 38fc a3bc
00000030: 7ea3 81bd 3efb de3d d9fb 103d a7f5 5b3d
00000040: 4e6b 1b3e 328f 753c 7aab 153e a50c 183e
00000050: ae85 6bbc c326 1ebb a577 5ebd fb2d 3ebd
00000060: 612c d93d c83b 2f3e 1de7 b3bd 5f3f 7f3b
00000070: 9e53 553d 93db 96bd a965 063e e159 f3bc
00000080: 0ff2 69bd dc3b e5bc a179 17be f70f 353d
00000090: 4666 f4bc bea1 853d 3d45 963b 93ed 923c
000000a0: 35c1 fdbd 3b88 1abd 8cd0 69bc 2683 3a3c
000000b0: 5b4b 0abe 62c6 aa3d 03e5 f13d 1ece 93bd
000000c0: d558 5dbe a717 eb3d b0b5 8fbd be26 a7be
000000d0: ecc2 c63b a02f 1f3d d075 1c3e e51b 363e
000000e0: 5b56 1e3c 90db a8be 4b77 86bd ca04 ec3d
000000f0: 6be6 a73d c2bf ac3d a1ce 023c fc95 11be
00000100: 1d86 ab3c 3098 4e3d 64cf 8d3d 7c39 76bd
00000110: ba36 91bd 0628 b3bc 2245 fdbc ecd9 c2bb
00000120: 182e 393b 8075 21bd 4c82 5abd a9e1 babc
00000130: 3084 003e dc73 163d b86c 2bbe 878d 88bc
00000140: 84e1 3bbe 72b7 acbd 763b efbd 172e cebd
00000150: 6a10 78be 186a 85be b6b6 523d b170 943e
00000160: c075 a4be e108 30be 09eb a53d 9362 993d
00000170: fe96 9fbd c97b 6d3e 0061 f13c 34e5 783c
00000180: 1b71 e43d 2c43 eabd b684 043d 974e a83d
00000190: 545a 343d 8e22 b0bd e155 d8bd 464a 88bc
000001a0: 7325 1b3e 509f 043e 25d6 a03d b48d d73c
000001b0: 97eb e2bd 7c2a bb3a aa32 7d3d 5853 cabd
000001c0: 3d1d 8c3d cc74 303e 6a9c 313e 6c4f 853c
000001d0: 685c fc3d 1c65 913d 8b8c a8b9 30cd 26be
000001e0: afec 813e ed7c a53c 5eff c3bc 8161 5a3d
000001f0: a7f3 d03d 0a8b a0bd 70aa 51bb 97a0 d3bc
-0.030330574 -0.053619865 0.17110626 0.21534556 -0.001463443 0.063053936 -0.060721435 -0.028921822
0.05056683 -0.0124413455 -0.04737464 -0.020017728 -0.06330012 0.108877644 0.03539643 0.05370107
0.15177652 0.014987754 0.14616194 0.14848574 -0.014375133 -0.002413199 -0.05431332 -0.04643057
0.10604168 0.17112648 -0.08784316 0.0038947684 0.052081697 -0.07366099 0.13124718 -0.029705944
-0.05711561 -0.027982645 -0.14792491 0.04420468 -0.029833924 0.065249905 0.0045858906 0.01793555
-0.12390367 -0.037727576 -0.014270913 0.011383807 -0.13505308 0.0833862 0.11811259 -0.07217048
-0.21615918 0.11479121 -0.07017076 -0.32646745 0.006065717 0.038863778 0.15279317 0.17784078
0.009664143 -0.32980013 -0.06565722 0.11524351 0.081982456 0.084350124 0.0079838345 -0.14217371
0.020937974 0.050438106 0.06924322 -0.060113415 -0.070905164 -0.02186967 -0.030916754 -0.0059463885
0.0028256234 -0.039418697 -0.053346917 -0.022812681 0.12550426 0.036731586 -0.16740692 -0.016669048
-0.18347746 -0.08433427 -0.11681263 -0.10067385 -0.24225011 -0.26057506 0.051443778 0.28992227
-0.32121086 -0.17190887 0.0810147 0.07489505 -0.07792471 0.23191752 0.029465199 0.015191365
0.11154386 -0.11438593 0.032353126 0.08218115 0.044031456 -0.08600341 -0.10563255 -0.016636979
0.15151004 0.12951398 0.07853345 0.026312687 -0.110800914 0.0014279629 0.061815895 -0.09879178
0.06841514 0.17232054 0.17344823 0.016273223 0.123223126 0.07099363 -0.0003214817 -0.1628921
0.25375888 0.02020117 -0.02392548 0.053315643 0.10202723 -0.078390196 -0.0031992458 -0.025833411

weight f4 [8, 8, 1]
00000000: 9ce3 72be 66f1 393e 0649 c63d 620b 893d
00000010: c112 413e 1efc 923c 95bc 433d 5005 dcbd
00000020: 830b 183e 52ac a53c b934 513b 59ea d23d
00000030: e7ff 9bbd 7112 0c3d d382 9b3c 8090 47bd
00000040: 5598 43bd f159 493e b52f c73d ba30 403e
00000050: 8fac c23d 00e1 893d 361a a13d c7ba 27be
00000060: c1d5 2dbe 714a 123e 0d7b c33d 2dfc d43d
00000070: 8e72 013e bdee 30bb f67b 2b3d dd32 e0bd
00000080: a6a3 4cbd bfd7 ecbd 7d35 4dbd bd0c 17be
00000090: 373e 6dbc 5396 74bd dd54 57bd 5507 db3d
000000a0: 9d0c e3bd 1466 0bbe b1e4 96bd 3397 6bbe
000000b0: f02e 353d c16a 65bd 462b 91bd 44b2 2d3e
000000c0: 1387 d53d 0f22 46be e085 e8bd 3d54 3cbe
000000d0: f205 eabd e159 1ebd db13 8ebd 5cd7 293e
000000e0: 73da a03d 05bd 8abd 5f36 f5bc aa45 86bb
000000f0: 494a ddbd 37b5 3cbd 0f53 f0bc 3baa 053d
-0.23719639 0.18158492 0.09681897 0.06691624 0.1885481 0.017942484 0.047787268 -0.10743201
0.14848141 0.02022377 0.0031922294 0.102986045 -0.07617169 0.034197275 0.01898328 -0.04872179
-0.047752697 0.19663216 0.09725896 0.18768588 0.09505569 0.067323685 0.078663275 -0.16379844
-0.16976072 0.1428621 0.095449544 0.10399661 0.12641355 -0.0026997768 0.041866265 -0.109472014
-0.049960755 -0.11564588 -0.05009984 -0.14750953 -0.014480165 -0.059713673 -0.052571166 0.10694758
-0.1108639 -0.13613158 -0.07367838 -0.23006897 0.044234216 -0.05601001 -0.07088332 0.16962534
0.10426154 -0.1934893 -0.1135366 -0.1839151 -0.11426915 -0.038659934 -0.06937381 0.1658606
0.07854166 -0.06774334 -0.029933153 -0.00409766 -0.108051844 -0.046071257 -0.02933648 0.032633048

bias f4 [8]
00000000: 4f8b 3b3e 798a 1c3d a9ca 043f 43d3 b8bd
00000010: bbb9 513e 4ee9 313d b116 b93e 052a f43d
0.18314861 0.038217995 0.51871735 -0.0902467 0.20481007 0.043435387 0.36150125 0.11922077

bias f4 [8]
00000000: 7ee1 a8bd 3296 6ebe e015 053e ae44 ca3d
00000010: d1c6 ff3d 047c b8bb 51db 523e 984e 89be
-0.08246134 -0.23299482 0.12996626 0.09876381 0.12489093 -0.005630018 0.20591475 -0.26817775

weight_g f4 [8, 1, 1]
00000000: 46f1 233f 16b6 f73e 14be ce3e 1f05 2d3f
00000010: b5ef f53e d3e8 f23e 5dde de3e 9517 193f
0.6404003 0.48381108 0.40379393 0.6758594 0.48034444 0.47443256 0.43529025 0.5980161

weight_v f4 [8, 4, 2]
00000000: 0df8 013d 3dd0 563e 9cf9 2d3e a1b8 32be
00000010: cd42 c03d 7d47 98bd 875e 673e b701 babe
00000020: 342c 6c3d 62a6 55bd a40d 6b3d e28f 4bbd
00000030: 791c bcbe 1ff8 9e3e 187b 88bd cf1e febd
00000040: 7d45 29be 4392 39bd 9ed7 1dbd 17cb 283e
00000050: b346 373e a5c1 693e 5efa 823c 21b6 9dbe
00000060: 01f9 813e 8b39 e03d 12f5 f73d 37a0 5ebe
00000070: fb0a 87be 7596 683d 3ae7 873e 0b90 aebe
00000080: 381d 2d3e b8ea 2ebe 1d6e c5bd d95e 4fbe
00000090: 1d25 84be 70a0 bbbc 7693 4b3e 4a8e 01be
000000a0: 3de1 283e bfbb 55bc 13e1 99be c7a8 f43c
000000b0: d493 b93d d396 4cbe 8939 71be 76a1 5b3d
000000c0: b6ad dc3d 7eb6 05ba 2a95 833e 859c a83d
000000d0: cc17 77bb c562 febc 48eb bbbe fec3 ffbd
000000e0: 29be 433e 7116 76be 6f2f 3bbd ea95 573e
000000f0: 6621 8d3e dc06 35be b964 9abe 0c39 0cbe
0.0317307 0.20977874 0.1698975 -0.17453243 0.09387741 -0.0743551 0.22594653 -0.36329433
0.057659343 -0.05216063 0.057386056 -0.049697764 -0.36740473 0.31048676 -0.06664103 -0.1240822
-0.16530414 -0.0453055 -0.038535707 0.16483723 0.17898063 0.22827776 0.015988525 -0.30803016
0.25385287 0.109484755 0.1210729 -0.21740805 -0.26375565 0.056784112 0.265436 -0.3409427
0.16905677 -0.17081726 -0.09640143 -0.20251025 -0.25809565 -0.022903651 0.1988047 -0.12651935
0.16492172 -0.01304525 -0.3005453 0.029865636 0.09061399 -0.1997941 -0.23557104 0.053620778
0.1077532 -0.0005100741 0.2569974 0.08232979 -0.0037703393 -0.031052956 -0.36702943 -0.124885544
0.19115509 -0.24031998 -0.045699533 0.21053281 0.27564543 -0.17678398 -0.3015497 -0.13693637

weight f4 [8, 4, 2]
00000000: 9189 173d b772 7a3e 23d6 4a3e a35b 50be
00000010: aa27 e03d e686 b1bd d3df 863e 55db d8be
00000020: bcca 5e3d 958b 49bd 68bc 5d3d 6707 40bd
00000030: 1774 b1be 6bf6 953e 90bf 80bd 06b9 efbd
00000040: ef50 0cbe 2fdf 19bd 54e2 02bd efe3 0b3e
00000050: 17e5 173e 3abc 413e 33e4 583c 3bba 82be
00000060: 7144 8b3e d443 f03d dfd8 043e 0a8a 6ebe
00000070: 95b3 90be 2d39 793d 339f 913e 4c0b bbbe
00000080: 371d 2d3e b8ea 2ebe 1c6e c5bd d95e 4fbe
00000090: 1d25 84be 70a0 bbbc 7693 4b3e 4a8e 01be
000000a0: 3ce1 283e bebb 55bc 12e1 99be c6a8 f43c
000000b0: d293 b93d d296 4cbe 8739 71be 75a1 5b3d
000000c0: 75d7 c53d 8dae f3b9 0ff0 6b3e a626 973d
000000d0: e3cc 5dbb 8b22 e4bc e77b a8be 7c53 e5bd
000000e0: 29be 433e 7116 76be 6f2f 3bbd ea95 573e
000000f0: 6621 8d3e dc06 35be b964 9abe 0c39 0cbe
0.036996428 0.24457823 0.19808249 -0.20347457 0.10945065 -0.08668308 0.2634264 -0.42354837
0.05439256 -0.04920538 0.054134756 -0.04688206 -0.34658882 0.29289564 -0.06286538 -0.11705212
-0.13702749 -0.03756636 -0.031954125 0.13661169 0.14833485 0.18919459 0.013238001 -0.25532708
0.27200654 0.11731687 0.12973355 -0.23294845 -0.2826201 0.060845543 0.28441772 -0.36532056
0.16905676 -0.17081726 -0.09640142 -0.20251025 -0.25809565 -0.022903651 0.1988047 -0.12651935
0.1649217 -0.0130452495 -0.30054528 0.029865634 0.090613976 -0.19979408 -0.23557101 0.053620774
0.09660236 -0.00046478622 0.23040794 0.073804185 -0.0033844046 -0.027848503 -0.3290703 -0.11197564
0.19115509 -0.24031998 -0.045699533 0.21053281 0.27564543 -0.17678398 -0.3015497 -0.13693637

bias f4 [8]
00000000: 9e09 253d 0a9f aabd e6f6 ff3d d6af 1d3e
00000010: 6c1d ee3c e0bc ec3c 82a6 abba 3c9b c93c
0.040292375 -0.083311155 0.12498264 0.15399107 0.029066764 0.028898656 -0.0013095888 0.024610154

weight_g f4 [8, 1, 1]
00000000: 705f 033f 924f 133f 01c7 003f b973 293f
00000010: 19d8 c03e 29d5 043f df8d b43e 5769 de3e
0.513175 0.5754329 0.50303656 0.66192204 0.3766487 0.51887757 0.3526449 0.43439743

weight_v f4 [8, 8, 2]
00000000: 284e a0bd 4ed2 46be adf9 77bd 8803 573e
00000010: 3bb7 4d3d 30ce 95bc 8b08 f0bd ee07 a2be
00000020: d110 54be 3c95 883e 28ea 8ebe 83e9 88be
00000030: b905 89bc 63fc 9bbd a9a3 623d de3b bb3d
00000040: d7bb 7d3d 5397 673e 3cff 20bd a373 413d
00000050: a6c0 413d 45aa fd3d c0b2 81be bae1 c73d
00000060: e764 97bc c2c4 30be ac37 4c3e 815b 70be
00000070: 1479 8c3d 589e cebc 0df5 73be aca3 053e
00000080: fdb8 f9bd 0b21 71bc 60e8 c6bd 69d6 45bd
00000090: 1a9d dcbd 6621 c9bd 8e62 bdbd d5a9 153e
000000a0: b408 0737 deda 06b7 0213 b1bc b7f5 0637
000000b0: 8b74 38be d48d 9bbd a313 783d 0d3a 823d
000000c0: 66e9 74be ce66 a3be c45a 373e d296 4f3e
000000d0: 1c20 aebd 61c1 8ebe a4a9 3d3d 7f11 6cbe
000000e0: 8e72 4e3e e90e 27be 09f7 4a3e d8d5 1bbe
000000f0: 8982 03be 50d4 153e 431b 463d ab9c a8bd
00000100: 373e f63d 5b72 20be 1ec5 a1be 3ca8 793e
00000110: 72be cebd 08a1 b3bd e423 e2bc 273c f13d
00000120: 7248 0f3e 8278 543e 305e 063e 2612 ed3d
00000130: aa39 74bb 49f6 bbbd d1d3 69be 102b 3ebe
00000140: c74a 193e 5c76 5d3e c0a1 113e d067 613e
00000150: c343 c3bb c21f 63be 7ae1 41bd dc1c 68bd
00000160: 3688 a73e 1793 92be a02d b7be 04ce 64be
00000170: d577 44be 4370 27be a27a fdbd 9f95 febd
00000180: 5be9 85be c0b8 153e 0c67 b3be 1199 053f
00000190: 3978 343e 5ad3 4b3c 7b52 57be dd3f e93d
000001a0: 31ab dbbe 9e50 a93e 152e e2be fc58 f9be
000001b0: d202 14be df4b 833d fd5c bc3e 7c95 9c3e
000001c0: c363 c0bc 1917 6d3d ec72 ccbe aa99 46be
000001d0: 5eac fbbd 3946 93bd 6062 e5bd 2071 cfbe
000001e0: ac8f 493e 5540 5cbe ad27 a2be 2c6d 683e
000001f0: 82d5 60bd 4eb8 163e fb1e c4be dc4c 54be
-0.07827407 -0.19416162 -0.060540844 0.20997441 0.05022357 -0.018286794 -0.117203794 -0.31646675
-0.2070954 0.26676357 -0.27913022 -0.26740655 -0.016726362 -0.07616498 0.05533186 0.09142278
0.061946716 0.2261632 -0.03930591 0.04722942 0.047302864 0.12385992 -0.25331688 0.09759851
-0.018480731 -0.17262557 0.19943112 -0.23472406 0.06859031 -0.025221989 -0.23823948 0.13050717
-0.12193487 -0.014717351 -0.09712291 -0.04830018 -0.10772152 -0.09820823 -0.092473134 0.14615567
8.048653e-06 -8.037981e-06 -0.021615509 8.044232e-06 -0.18013208 -0.07595411 0.060565602 0.063587286
-0.2391716 -0.3191437 0.17905718 0.20272377 -0.08502218 -0.2788191 0.04630436 -0.23053549
0.20160887 -0.16314282 0.19820799 -0.15218294 -0.12842764 0.14631772 0.048365843 -0.08233007
0.12023585 -0.15668623 -0.315957 0.24380583 -0.10094918 -0.08770949 -0.027605005 0.11779051
0.1399248 0.20749095 0.13121867 0.11575727 -0.0037265816 -0.091778345 -0.22834708 -0.18571115
0.14969932 0.21627182 0.14221859 0.22012258 -0.0059590056 -0.22180083 -0.04733417 -0.056668147
0.32721108 -0.28627846 -0.35776997 -0.22344214 -0.19186337 -0.16351418 -0.12376906 -0.12430882
-0.261546 0.14621258 -0.35039556 0.52186686 0.17623986 0.012440527 -0.21027558 0.11389134
-0.42904046 0.3306932 -0.44175783 -0.48700702 -0.14454201 0.06410956 0.36789694 0.30582798
-0.02348507 0.057883356 -0.39931428 -0.19394556 -0.12288736 -0.07191128 -0.11200404 -0.40515995
0.19683713 -0.21508916 -0.31670895 0.22697896 -0.054891117 0.14718744 -0.38304886 -0.20732445

weight f4 [8, 8, 2]
00000000: 9f38 6bbd efda 11be 4ded 35bd 83bd 1d3e
00000010: a0e0 163d e8d5 5bbc 261b b0bd cabe 6dbe
00000020: d693 1bbe de66 483e 26b1 51be 85e2 48be
00000030: 8e25 49bc fee4 64bd 4146 263d b75c 893d
00000040: e55a 753d 7bf1 5f3e 6b9e 1bbd 6600 3b3d
00000050: 786d 3b3d 6451 f53d 20d2 7abe 024b c13d
00000060: c445 92bc 36ea 2abe 0775 453e 4767 68be
00000070: acdd 873d f7ab c7bc 64e2 6bbe ce35 013e
00000080: 2015 32be e706 acbc a7d8 0dbe 5d17 8dbd
00000090: 1153 1dbe 2b69 0fbe ee08 07be 4376 553e
000000a0: edad 7937 4661 79b7 5f9a fcbc 2c8e 7937
000000b0: 2186 83be 63cf ddbd 84ea b03d e8bd b93d
000000c0: b7bb 5abe b4ef 91be 76c6 233e 986b 393e
000000d0: 5e7d 9bbd 60fe 7ebe fb6d 293d 7bda 52be
000000e0: 8f66 383e 6138 15be 4c4a 353e 4f32 0bbe
000000f0: baed eabd 20d3 053e 1cfd 303d dd9e 96bd
00000100: 5c42 8f3d 8cae babd 5c3a 3cbe 093f 113e
00000110: 0c86 70bd 72fa 50bd e68f 83bc df57 8c3d
00000120: 93b9 a63d c339 f73d 255a 9c3d 4cee 893d
00000130: a193 0dbb 8ba8 5abd 8409 08be c246 ddbd
00000140: 30ba c43d b419 0e3e f6e9 ba3d 4ca5 103e
00000150: d6fd 79bb 04bd 11be 0bd4 f8bc a6f3 14bd
00000160: c702 573e 741d 3cbe 1f17 6bbe afd3 12be
00000170: 271f fcbd 40de d6bd 21ab a2bd b760 a3bd
00000180: 0696 97bd bb7e 293d ca13 cbbd f73a 173e
00000190: 834f 4c3d 2eef 663b ffbd 73bd c106 043d
000001a0: c3a8 f8bd 71a8 bf3d db03 00be ca20 0dbe
000001b0: b188 27bd 4daa 943c 9138 d53d 0e3f b13d
000001c0: 0644 35bc 4094 df3c b6c0 40be 623e bbbd
000001d0: 5145 6dbd c0d3 0abd 8a3e 58bd 0090 43be
000001e0: 0209 be3d d6a7 cfbd 21e1 18be 4a22 db3d
000001f0: e4f8 d3bc a317 8e3d c9e6 38be db28 c8bd
-0.057427045 -0.14243673 -0.04441576 0.15404324 0.036835313 -0.013417698 -0.08598928 -0.23217312
-0.15193114 0.1957049 -0.20477733 -0.1961766 -0.01227702 -0.055882446 0.040594343 0.06707137
0.059901137 0.21869461 -0.037992876 0.045654677 0.045758694 0.11978415 -0.24494219 0.09438135
-0.017855532 -0.16690907 0.19282924 -0.22695647 0.066340774 -0.024373991 -0.2303558 0.12618181
-0.17390871 -0.020999385 -0.13852178 -0.06889222 -0.15363719 -0.14004962 -0.13187 0.20845895
1.4882052e-05 -1.4864205e-05 -0.030835329 1.48746585e-05 -0.2568827 -0.108305715 0.0863848 0.09069425
-0.2136067 -0.2850319 0.15993676 0.1810745 -0.07592271 -0.24901724 0.04136465 -0.20591156
0.18007873 -0.14572288 0.17704123 -0.1359341 -0.11471124 0.13068819 0.043210134 -0.073545195
0.06995079 -0.091153234 -0.18381637 0.14184202 -0.058721587 -0.051020093 -0.016059827 0.068526976
0.08140864 0.12071564 0.07634381 0.06734905 -0.0021602886 -0.05338339 -0.1328488 -0.108045116
0.09605825 0.13876992 0.09126656 0.14125556 -0.0038145683 -0.1423226 -0.030374547 -0.036365174
0.20997153 -0.1837061 -0.22958039 -0.14338563 -0.12310629 -0.104916096 -0.079427965 -0.07977431
-0.074016616 0.041380625 -0.09915884 0.14768587 0.049880516 0.0035237777 -0.059507366 0.032233004
-0.12141564 0.093582995 -0.1250147 -0.1378204 -0.040901843 0.018147612 0.1041118 0.08654605
-0.011063581 0.02729237 -0.18823513 -0.09142758 -0.057927433 -0.033893347 -0.052794017 -0.190979
0.09279062 -0.10139434 -0.1492963 0.106998995 -0.025875516 0.06938102 -0.18056788 -0.097734176

weight f4 [8, 4, 1]
00000000: adb6 96be 2c13 e1be cc6f 6bbe aa0b b6be
00000010: db45 78be 7537 d2be 0d9f 673e a5ab 703e
00000020: 0980 193e ef12 cd3e 1a74 f63e 03ef 31be
00000030: edf3 d7be 3870 4e3e 04fc b5be f497 aa3e
00000040: fba2 d53e dfdb 323d d177 2c3d edd8 653e
00000050: 2624 0c3f 1c69 613e 8ccc 013f 05e0 123f
00000060: 0a6b efbd 4a37 91be ff4d 0d3e cdfa a63e
00000070: 42c6 3f3e e7f1 bdbe 3b64 04bf e5ba d6be
-0.29436246 -0.4395994 -0.22991866 -0.35555774 -0.24245398 -0.41057935 0.22619267 0.23502977
0.14990248 0.40053508 0.48135453 -0.17376332 -0.42178288 0.20159996 -0.35543835 0.33319056
0.41725907 0.043666717 0.042106453 0.22446032 0.5474266 0.22012752 0.5070274 0.57373077
-0.11690338 -0.28362495 0.13799284 0.3261322 0.18727973 -0.3709862 -0.5171544 -0.41939464

bias f4 [8]
00000000: 9e3e 603d cc19 38be 07bd 78be 25fd b03d
00000010: ce4a 88be 97c8 2d3e e67f bdbe d581 c6bd
0.054747216 -0.1797859 -0.24290858 0.086420335 -0.2661957 0.1697105 -0.3701164 -0.09692732

bias f4 [16]
00000000: 517d 9cbd e92f 2dbd 22d9 2cbd cc09 08bd
00000010: 8133 c13c b8d2 9fbd d021 60bd 5b56 1e3e
00000020: 19db 59bd 7626 75be dff6 a33d aac2 84bd
00000030: f98c 8e3d fe32 9d3d 6c0b febd cf5c ccbd
-0.0764109 -0.04228202 -0.04219926 -0.033212468 0.02358413 -0.07803863 -0.054719746 0.1546263
-0.053187463 -0.23940453 0.08006071 -0.06482442 0.06960482 0.076757416 -0.12404522 -0.09978639

weight_g f4 [16, 1, 1]
00000000: 34db 103f 5661 1d3f ab63 0d3f 7e58 193f
00000010: ce47 223f e76e 173f 8288 183f 9821 0b3f
00000020: 8e53 453f 5cd7 1b3f a759 383f 8cdc 0e3f
00000030: c189 0d3f 677b 473f 17ca 0a3f 67af 0e3f
0.5658448 0.6147665 0.55230206 0.59900653 0.63390815 0.591536 0.59583294 0.54348135
0.7708062 0.6087549 0.720118 0.5580528 0.5528832 0.7792267 0.54214615 0.5573639

weight_v f4 [16, 16, 2]
00000000: 6a75 9fbc 1498 853d df3a 4bbe 265b 833d
00000010: 715b f4bd ed43 ea3d ccc3 30be b59b d43d
00000020: a043 3d3d 72ba 5d3d 5ff9 1bbe a779 f53c
00000030: 015c 163e 9a76 bb3d dad2 c83d a89d 2b3e
00000040: 2ab4 21bd 6bef 72bc a516 0dbe 4f63 61bd
00000050: e502 86bd b1cb 42bc 8122 a73d 1f5b fd3c
00000060: bedc e83d 84ad 953d 8a70 17be 30e9 b23d
00000070: 50bc 31bd 482a 31be 7213 aebd ea88 cd3c
00000080: f21e b9bc 0846 90bd f874 943d 02ae 4c3b
00000090: e2b8 f1bd f659 5dbe db05 2f3e 0b09 21bd
000000a0: 0b35 8abd c978 2cbe 54a9 fbbd 14eb e8bc
000000b0: f2ba ce3d 44c0 573d b3b0 cebd 5160 1b3e
000000c0: 1b90 0b3e 0628 31bd ab91 a03c b184 b63d
000000d0: 7f1c 49be 5e88 743e 8002 1f3e f360 0a3c
000000e0: 2ec5 07be 6d3b 46bc be55 97bd 42a0 13bd
000000f0: e2b7 4f3c c23b 34bd 1494 9e3d b870 c83d
00000100: 86f2 283d d84c 02be 2ce7 38be 8c8c 233d
00000110: 8c30 63bc 4faa 39be 8529 0bbe 9afc 933d
00000120: a4a3 833d f96c b7bd d34f e0bc 4173 d9bc
00000130: 2e4f 143e 1daa 373c 8eaf 703e 09c2 2fbc
00000140: f1f2 943d db90 18bc 113a 25be c89a 323e
00000150: 7aca 31be a612 063e 05c7 a9bc 441e bcbc
00000160: 5c5e 553d 2ddc 55bd ff2f 40bc 8ff0 963d
00000170: a16d aabc 3c5c f33d b89d d0bd eaa0 863d
00000180: edd3 1b3d 9cfd 36bc d88a edbd ce9b 9f3d
00000190: 248f 88bd ea48 7fbd 59d3 83bd 2ed8 3a3c
000001a0: 0cc7 5c3e d98f bfbd defb 3fbe 2303 473d
000001b0: 815a 843d 1653 fa3c c81f e93d ef46 dd3d
000001c0: 5e83 8fbd 7d48 cf3d 2b78 7f3d bf20 4ebd
000001d0: 66e6 23bd 3351 8e3d c458 51bd 2ac2 443c
000001e0: 93e2 983d 937d 2abe 953c a73d cd1b f23d
000001f0: 5df6 00be dc2f 193e bc9b 2b3e f155 b23d
00000200: f564 5fbd 593a f13b 0e9b 37bc c435 ed3c
00000210: 76b4 133d 5b26 253e bbd1 f9bd dd1c 8fbd
00000220: 3c5a 2f3e 9de7 423d 89a0 25be 28fb 13bb
00000230: e5fa 95bd 3af3 023d a46d 933d 9c93 8e3d
00000240: 2553 b1bd 6f86 15bd 8d9c 8b3c 2392 d8bd
00000250: 30f1 e63d 3753 9fbd 187e 4bbd 440b d6bc
00000260: 3bc3 b13c 3d5a 97be 71e5 9a3d 6feb d23d
00000270: f467 3a3d b634 263e 64fe 073e 1e60 0bbe
00000280: 8cff 0d3e 2b4e 5fbd 4638 873d 6133 01be
00000290: b046 253e b5c3 04be 7216 473c f6b5 cf3d
000002a0: 76a6 2c3e 19bc 013e ac9e 9c3d 37b7 d03d
000002b0: ecda e3bd 1ade ef3d 77ac 70bd f61a f7bd
000002c0: 8541 0a3e e712 123d d03f 483d 968a 4c3e
000002d0: 21d7 1bbd 735a c0bd cec3 523d 0f41 c4ba
000002e0: 2ec5 763e deb7 6fbd f5b9 013e 19ec 16be
000002f0: 5693 f03d 1c4c 26be 20c0 023d 776c c23d
00000300: c437 17be 2bcc 473d d478 dc3d becf bc3d
00000310: 8d3e c4bd 5dcb 9c3c 9cbb dcbd 1311 ca3c
00000320: 5ef3 233e 72ad 373e 70d1 8d3d a6ca 46bd
00000330: 021b af3d 7ae8 4fbc d25e abbd ad0a c23d
00000340: 3cc0 b33d 1a91 c6ba e4fe c33d 3324 d23d
00000350: a4d6 e53c bf61 fc3d 8d62 c63d 264f 943d
00000360: acc8 ec3d 134c d6bd 1a3e fabd ba3f 2b3e
00000370: 17bd f73d e128 e7bd e94f 313e cdf7 0e3e
00000380: 1ea3 463e db3f a53c f9ee d9bb ea09 2fbe
00000390: 4986 463d f7ca dbba 9c5e 073e 1581 a9bd
000003a0: 196b 293e 92fe f93d 5d35 9ebd 1d2d 233d
000003b0: a51f 6cbc f5b9 d2bd 8688 b3bd 82b7 083e
000003c0: 58a5 0f3d 6e16 ed3d 2c4c f3bd 3928 b33c
000003d0: 8cc3 f7bd 621d f3bc 5a83 c53c 003e 58bd
000003e0: 5b4b f5bd 0798 bc3d b6cc abbb 2b99 373e
000003f0: b89a 043e 3030 743d 16fb 0f3c d185 39bd
-0.019465167 0.06523147 -0.19846676 0.064138696 -0.119315036 0.11438737 -0.1726219 0.10381261
0.04620707 0.054132886 -0.15231846 0.029965235 0.14683534 0.09153481 0.09805842 0.1675936
-0.03947846 -0.0148275895 -0.1377817 -0.05502635 -0.06543521 -0.011889384 0.08160878 0.030927239
0.11370228 0.07308486 -0.14789024 0.08735883 -0.04339248 -0.17301285 -0.08499803 0.0250897
-0.022597764 -0.070446074 0.072488725 0.0031231646 -0.11802842 -0.21616349 0.17092077 -0.039315265
-0.067483984 -0.16842951 -0.12288156 -0.028432406 0.10094251 0.052673593 -0.100922965 0.1517346
0.1362919 -0.04325106 0.01960071 0.089120276 -0.19639777 0.23880145 0.15528297 0.008445966
-0.13258812 -0.012099129 -0.07389401 -0.036041506 0.012678118 -0.044002302 0.077430874 0.097871244
0.041246913 -0.12724626 -0.18056935 0.039928958 -0.013866555 -0.18131374 -0.13590057 0.07225914
0.06427696 -0.08956332 -0.027381813 -0.026544215 0.1448333 0.011209992 0.23504469 -0.010727414
0.072729 -0.00931188 -0.16135432 0.17441857 -0.17362395 0.13093051 -0.020724783 -0.02296365
0.05209194 -0.05221193 -0.011730193 0.07370102 -0.020804228 0.11882827 -0.101863325 0.06573661
0.038043905 -0.011168864 -0.11598748 0.07793389 -0.06667927 -0.062325396 -0.06436796 0.01140408
0.21560305 -0.09353609 -0.18748423 0.048586976 0.06462575 0.030557197 0.11383015 0.10804545
-0.07007478 0.10121248 0.06237046 -0.050324198 -0.040014647 0.06949081 -0.051110044 0.012009183
0.074650906 -0.16649465 0.08165852 0.11821709 -0.1259398 0.14959663 0.16758627 0.08707798
-0.05453964 0.007361692 -0.0112064015 0.028956302 0.036060773 0.16127913 -0.12198206 -0.06987927
0.17124265 0.047584165 -0.1617452 -0.002258012 -0.07323245 0.03197024 0.07198647 0.06961748
-0.08658437 -0.03650516 0.017042423 -0.10574748 0.112764716 -0.07779544 -0.0496808 -0.026128419
0.021699538 -0.29561034 0.07563294 0.10298812 0.045509294 0.16231045 0.13280636 -0.13610885
0.13867015 -0.054517906 0.0660253 -0.12617256 0.16140246 -0.12965281 0.0121513475 0.10142128
0.16860375 0.1266941 0.07647452 0.101911955 -0.111257404 0.117122844 -0.058758225 -0.12065689
0.13501556 0.035662558 0.04888898 0.19974741 -0.03804696 -0.09392252 0.051456265 -0.0014973002
0.24098656 -0.05852496 0.12668593 -0.14738502 0.11746852 -0.16239971 0.031921506 0.09493344
-0.14767367 0.048778694 0.10765234 0.09219311 -0.09582243 0.01913994 -0.10777971 0.024666345
0.16010806 0.17937258 0.06924713 -0.048533104 0.08550073 -0.012689704 -0.08367695 0.094746925
0.087769 -0.0015149445 0.09570101 0.10260811 0.02805645 0.12323331 0.09686766 0.07241659
0.115617126 -0.10463729 -0.12218876 0.16723529 0.12096613 -0.11287094 0.1731564 0.13961716
0.19398162 0.02017205 -0.006650802 -0.17093626 0.048467908 -0.0016768862 0.13219684 -0.082765736
0.16544761 0.122067586 -0.07725022 0.039837945 -0.0144118415 -0.10289375 -0.08766274 0.13351253
0.035069793 0.11576544 -0.11879763 0.021869766 -0.120978445 -0.029677097 0.024110485 -0.052793503
-0.119772635 0.092086844 -0.0052429093 0.17929523 0.12949646 0.059616268 0.008787891 -0.045293633

weight f4 [16, 16, 2]
00000000: 2fa2 9bbc ae63 823d d75a 46be 7f34 803d
00000010: d97e eebd 4fa5 e43d 4a86 2cbe 1682 cf3d
00000020: 5cb9 383d d168 583d 8a3b 18be 3296 ef3c
00000030: a7c0 123e 65f7 b63d 9a01 c43d c47f 273e
00000040: 25d3 1dbd 8f1b 6dbc 3ab4 09be 35fb 5bbd
00000050: efcb 82bd 751f 3ebc 2220 a33d 4547 f73c
00000060: be46 e33d 5916 923d 8dce 13be 809e ae3d
00000070: d878 2dbd 50ea 2cbe 73e6 a9bd bb9a c83c
00000080: 92c1 b6bc 9b6a 8ebd 9187 923d df5b 493b
00000090: cc9f eebd 9680 5abe 69c1 2c3e 2cf9 1ebd
000000a0: c068 88bd 6d3d 2abe e36e f8bd fdf9 e5bc
000000b0: 770c cc3d 64f0 543d 0804 ccbd 0661 193e
000000c0: aec0 093e 88d7 2ebd b798 9e3c 8d2b b43d
000000d0: dc83 46be 2764 713e 9cf2 1c3e 79a3 083c
000000e0: 8c03 06be 0c99 43bc 165d 95bd ceae 11bd
000000f0: 66e8 4c3c eff0 31bd c28c 9c3d 17df c53d
00000100: cde6 1d3d 3788 f3bd bbcc 2cbe e2db 183d
00000110: 8944 54bc 5083 2dbe a50d 02be 0850 8a3d
00000120: b308 763d 3d6e abbd 2e9b d1bc 3731 cbbc
00000130: a09b 0a3e 12b4 2b3c 06ee 603e 805d 24bc
00000140: 1031 8b3d ac8a 0ebc 746b 1abe bcea 263e
00000150: 6328 26be ec99 fa3d a2ac 9ebc 09ba afbc
00000160: 5f61 473d 70e4 47bd 2499 33bc 890f 8d3d
00000170: 1b3f 9fbc 3c71 e33d dbf8 c2bd 7c9f 7b3d
00000180: c451 263d 4655 43bc dc98 fdbd 0a70 aa3d
00000190: a7c6 91bd 4442 88bd cfb8 8cbd f8b7 473c
000001a0: 4ab6 6b3e 6890 ccbd fcf7 4cbe 1f8d 543d
000001b0: 1d49 8d3d 8ab3 053d 34e1 f83d 393c ec3d
000001c0: 6d33 99bd 3b4a dd3d a05a 883d a41e 5cbd
000001d0: 2af0 2ebd acf3 973d 5576 5fbd c546 523c
000001e0: 1735 a33d d90a 36be e087 b23d 183c 013e
000001f0: 08ae 09be 3693 233e a736 373e 6c61 be3d
00000200: b835 74bd 2c88 033c c3a5 48bc daa8 013d
00000210: 9e7c 213d 3d8e 343e 378d 08be 0170 9cbd
00000220: fdb1 3f3e 7d0d 553d d50f 35be ab50 21bb
00000230: fff2 a3bd fb2f 0f3d 242e a13d 1de0 9b3d
00000240: 8bd4 c1bd c571 23bd f79a 983c adcc ecbd
00000250: 8674 fc3d 662c aebd 7f74 5ebd c4fd e9bc
00000260: 2857 c23c c876 a5be d750 a93d 7190 e63d
00000270: bfcf 4b3d 52b5 353e 9faa 143e 4d60 18be
00000280: 0ee1 003e a1ac 4abd 3574 753d 2487 eabd
00000290: a301 163e 37ff f0bd b2b1 343c 4285 bc3d
000002a0: 00b3 1c3e 507f eb3d 5b26 8e3d bf6e bd3d
000002b0: c6cd cebd d7b4 d93d 2270 5abd 8446 e0bd
000002c0: 15f7 fa3d 0494 043d 97bf 353d d9a4 393e
000002d0: 4071 0dbd fb94 aebd df4a 3f3d 541f b2ba
000002e0: a9f8 5f3e 2392 59bd 6e7b eb3d 8afa 08be
000002f0: 5459 da3d e8ee 16be 5357 ed3c 0676 b03d
00000300: 55e6 16be 9260 473d 1902 dc3d 0f6a bc3d
00000310: ded4 c3bd ed76 9c3c bc44 dcbd 41a4 c93c
00000320: 139b 233e 874a 373e 1185 8d3d 975f 46bd
00000330: b5bc ae3d 8378 4fbc 8802 abbd 2ea2 c13d
00000340: 6f5f b33d 2b26 c6ba 5795 c33d 08b3 d13d
00000350: dd5a e53c d4d9 fb3d b7f7 c53d 48ff 933d
00000360: 2849 ec3d abd8 d5bd 57b7 f9bd 81e3 2a3e
00000370: ad37 f73d 65ac e6bd 6cf0 303e cfaa 0e3e
00000380: 6a42 433e 8872 a23c 3f73 d6bb 9713 2cbe
00000390: 8e20 433d db64 d8ba 1411 053e 78a2 a6bd
000003a0: 318d 263e 58c4 f53d b88a 9bbd 5360 203d
000003b0: d53e 68bc 582a cfbd 5b7b b0bd 8665 063e
000003c0: b439 0d3d ff09 e93d 492a efbd 1223 b03c
000003d0: f191 f3bd f0eb eebc 561e c23c 6d97 54bd
000003e0: ce1f f1bd 9c65 b93d 9e8c a8bb 447e 343e
000003f0: b158 023e dc03 703d 34ab 0d3c 5158 36bd
-0.018998234 0.06366669 -0.1937059 0.06260013 -0.11645288 0.111643426 -0.16848102 0.10132234
0.045098647 0.052834336 -0.14866462 0.029246423 0.14331304 0.089339055 0.09570618 0.16357332
-0.03853144 -0.0144719025 -0.13447657 -0.053706367 -0.063865535 -0.01160418 0.07965113 0.030185351
0.110974774 0.07133169 -0.14434262 0.08526325 -0.042351574 -0.16886258 -0.08295908 0.024487844
-0.022309098 -0.06953927 0.071547635 0.0030724925 -0.116515726 -0.21338114 0.16870655 -0.038811848
-0.066606045 -0.16624995 -0.12130525 -0.028073305 0.09963315 0.051987067 -0.099617064 0.14978418
0.13452408 -0.042686015 0.01935993 0.08797369 -0.19386238 0.23573361 0.15326923 0.008339756
-0.1308729 -0.011938345 -0.07293145 -0.035567097 0.01250658 -0.043442663 0.07644035 0.09661692
0.038550187 -0.11891215 -0.16874973 0.03731907 -0.012955793 -0.16944623 -0.12700517 0.06753546
0.06006689 -0.08370636 -0.02558669 -0.02480374 0.13535929 0.010479944 0.21965799 -0.010032058
0.06796467 -0.008700054 -0.15080053 0.16300482 -0.16226344 0.122363895 -0.019369427 -0.021451013
0.048676845 -0.04880184 -0.010961805 0.06887729 -0.01943927 0.11105582 -0.09520122 0.061431393
0.04060532 -0.011922186 -0.12382671 0.08322151 -0.07117968 -0.06653264 -0.06871187 0.012189858
0.23018757 -0.09988481 -0.20016474 0.051892396 0.06898711 0.032641925 0.12152329 0.11534924
-0.07480512 0.10805174 0.0665791 -0.05374016 -0.042709507 0.074195236 -0.05455621 0.012834256
0.079691105 -0.17777576 0.08717322 0.1262058 -0.13445294 0.15974125 0.17891942 0.092959255
-0.059621543 0.008028071 -0.012246552 0.03165517 0.039425485 0.17632385 -0.13335119 -0.076385505
0.18720241 0.052014817 -0.1768182 -0.0024614732 -0.08005332 0.034957867 0.07870129 0.076111056
-0.094643675 -0.03990342 0.01862858 -0.11562476 0.123269126 -0.08504562 -0.054310318 -0.028563388
0.0237232 -0.32317185 0.08267372 0.11258019 0.04975867 0.1774495 0.14518212 -0.14880486
0.12585852 -0.049481038 0.059925277 -0.11451557 0.14649062 -0.11767428 0.011028694 0.092051044
0.15302658 0.11498892 0.069409095 0.09249639 -0.10097842 0.106301956 -0.053329594 -0.1095095
0.122541584 0.03236772 0.044372167 0.1812929 -0.03453183 -0.085245095 0.046702262 -0.0013589659
0.218722 -0.053117882 0.11498152 -0.13376823 0.10661569 -0.14739573 0.028972303 0.08616261
-0.14736302 0.04867608 0.107425876 0.091999166 -0.095620856 0.019099677 -0.107552975 0.024614455
0.15977125 0.17899524 0.06910146 -0.048431005 0.08532087 -0.01266301 -0.08350092 0.094547614
0.08758437 -0.0015117576 0.09549969 0.102392256 0.027997429 0.12297407 0.096663885 0.072264254
0.11537391 -0.10441717 -0.121931724 0.16688348 0.12071166 -0.112633504 0.17279214 0.13932346
0.19068304 0.019830003 -0.0065445 -0.16804348 0.04763847 -0.001650955 0.12994796 -0.08136457
0.16264798 0.1200034 -0.07594818 0.039154362 -0.014175137 -0.10115498 -0.08617278 0.13124666
0.034478858 0.1137886 -0.11677987 0.021501098 -0.118930705 -0.029165238 0.023696106 -0.051902223
-0.117736444 0.090525836 -0.005143716 0.17626292 0.12729146 0.05859743 0.008646775 -0.04451782

bias f4 [16]
00000000: 5261 bc3c 6d64 a8bd 609c 383d f1d3 123d
00000010: 93bb b6bd b991 3b3d 1ddb 39bd 3198 08bd
00000020: 8112 a83d 2331 5ebe 8c99 09be 2cff 05be
00000030: b0f2 e4bc 2d32 823d 257c a53c ecd0 673d
0.022995625 -0.0822228 0.045071006 0.035846654 -0.08922496 0.04579327 -0.04537498 -0.033348266
0.08206654 -0.21698432 -0.1343748 -0.13085622 -0.027947754 0.063572265 0.020200798 0.056595728

weight_g f4 [16, 1, 1]
00000000: e589 d33e a180 f73e e818 143f aa00 123f
00000010: f386 2e3f 5cc8 203f 2ff6 f13e f541 2f3f
00000020: 8da3 323f 54d9 1c3f 4541 eb3e d242 093f
00000030: 2416 0f3f 1786 353f 1e96 0f3f b6b5 0a3f
0.41316143 0.48340324 0.57850504 0.57032263 0.68174666 0.62805724 0.47258136 0.6846002
0.6978081 0.61269116 0.45948234 0.53617585 0.5589316 0.7090773 0.56088436 0.5418352

weight_v f4 [16, 16, 2]
00000000: f514 603e 6ef2 03be 193a 05bc e7c8 17bd
00000010: 251a 9bbd bce1 09ba b270 59be f1c4 19be
00000020: 4a46 8d3d 8693 b33b 1b0f 2ebe 3283 48be
00000030: 62af 60be c525 42be c060 b4bb f8b8 043d
00000040: 60e6 80bc f988 b6be ed6a 10be 2bc5 c1bc
00000050: e8f3 90bd 48a2 003d 5da5 c8bc 2615 9b3c
00000060: 9a7a c13d 0f95 41be c365 ba3c fe40 6ebe
00000070: c4a5 3b3d 8e7a da3d 4cf1 8f3e d552 36be
00000080: 46f1 e03d 85aa d7bd 0751 67be ce81 7abe
00000090: c636 bfbd c040 033e 8914 fbbd 7c52 ddbd
000000a0: 60ba 963d 3226 80bd da19 13be 9f36 7bbe
000000b0: b29c f7bd 7e0c 373e 2b23 4fbd e1af bfbd
000000c0: 9bee d83d aa2c cbbd d196 133d e81d 5a3d
000000d0: d3b8 45be c47d f5bd 4f54 0bbe 9140 673d
000000e0: ac4a 58be 5d8a 0cbe 48ae c43d 504f 4cbe
000000f0: 148a 3fbe 1a1a aebd da5e ccbd d38b 48be
00000100: 350c fc3d 812e b6af f168 babc 1720 ffbd
00000110: f62b 32be aa9d 31be eac9 523d 925a 7c3e
00000120: e063 a43c 97fd 223e 5b5d f0bd 0985 8cbd
00000130: 50a2 bc34 dc5b 153d 3fe9 053d 9f35 55bd
00000140: 31a9 eebd 6070 ba3c 7888 c0bd 2ddd 3abe
00000150: 5f26 a03d a3ac 05bd a2f3 6cbd 8ad0 67bb
00000160: 84a7 a23d 2801 033d 8f70 3cbe 4cc9 c93d
00000170: 315e 3abe e81a 15be 0c7f ba3c 117b 7b3c
00000180: 7046 3bbc cb79 01be 1733 a8bc c966 db3d
00000190: de8a 72ba e240 9b3c 1255 febd 90f9 dfbc
000001a0: 7d5c 553c d51c 7dbd 09a2 75bd 3203 61bd
000001b0: ae9d 63bd 4165 b12d c974 bd3d d74f 203e
000001c0: 943f 4cbd ae0c 343e dbf1 eebd 573f cabd
000001d0: c989 81bd a3b4 f1bd 5059 033b c550 ac3c
000001e0: 0544 1026 0339 ef3d 3053 82bb 26d9 163e
000001f0: ed02 9cbd 570c 1fbe 2196 bfb6 689d 54b7
00000200: 66d4 6bbd 05b9 c63d 27ed cbbc 8b14 68bb
00000210: 6d22 d23d e047 e43d 08bc 7aba ec91 56bc
00000220: b715 a7bc ec55 cbbd ad64 0d3c 7a4e 073c
00000230: cd48 dcbd 77cb 87bc 98cd 14bd 1acb 59bd
00000240: f757 813d 5dc9 e13d 4479 993e 88af 2e3e
00000250: 9828 093c cd40 0abe c1d4 a03c 541c 4cbd
00000260: 2a4f bdbd 6fc8 983d ceb7 0c3e 3cc1 863e
00000270: 10c7 d13d 1259 3c3d 91e9 173d 9998 10bc
00000280: 3466 b4b4 1db1 6337 eb59 553b 173e 7abd
00000290: 1dee 16bd ba26 80bd ba19 0e3d c841 553d
000002a0: de52 873d 4278 873d 2dbb 2936 ca2a 9fb7
000002b0: 6293 8937 9dca 6cb5 bb17 d8bd f170 b9bd
000002c0: dc42 923d dc32 d93d 018e df3d 4071 123e
000002d0: 2ad6 fd3b 2035 e6bc ee61 8c38 1d44 a937
000002e0: 8b46 1b32 0985 2036 a16f 1fbd 60f3 6bbc
000002f0: fa08 7e3d 3bbc b13d bcfc 90b2 59ca 16b3
00000300: 2add 66bd cad2 d73d 5a64 d83d 5261 433c
00000310: 46a4 c33c c816 d63d 22f4 ff3c bdfb f9bc
00000320: 652f bfbd bb41 9dbc 7fb8 25be d633 733d
00000330: e31a 9ebd 6291 84bd ff95 2e3e 4c0e 223e
00000340: c3e1 20be 6223 e1bc 314f 68bd 4a3a 803d
00000350: f8a2 b63b 2c85 7e3d ab4f 323d 3eca 1d3e
00000360: 6259 77bd 2d3e 013e 552c e7bd 960b 223e
00000370: 02f1 15bd b48c 623c cda2 27be 773c 56be
00000380: b56e 58b7 96ca 463d 2352 49bc 4f54 b8bb
00000390: 90d4 85bc 2517 78bc dd35 503d 4ca1 cc3b
000003a0: b2f7 383d 22cc f03b c8de 253d 34bc f13c
000003b0: 6662 43bd a1d1 18bc 9c2b 17be 220c dabd
000003c0: 6e06 ca3d faf3 3a3e 4d52 813e 142b 423e
000003d0: d1b8 30be 6bf7 22be 37a0 02bc 68f6 2cb8
000003e0: bf4b 61bd ab55 8033 e4dd 263e b385 283d
000003f0: 0704 f33d 7fbf 003e 6752 81b6 6b82 54bd
0.21882994 -0.12885448 -0.008131527 -0.03705683 -0.07573346 -0.00052597723 -0.21234396 -0.15016533
0.06898172 0.0054802326 -0.1699795 -0.19581297 -0.21941903 -0.1895972 -0.0055046976 0.032402962
-0.015734851 -0.35651377 -0.14103289 -0.023653587 -0.070777714 0.031404763 -0.024492914 0.018930983
0.094472125 -0.18904518 0.022753602 -0.2326698 0.045812383 0.10667907 0.28113782 -0.17805035
0.10983519 -0.10530571 -0.22589503 -0.24463579 -0.09336619 0.12817669 -0.12259776 -0.10806748
0.07359767 -0.06257285 -0.1436533 -0.24532555 -0.12090434 0.17875859 -0.05057065 -0.09359718
0.105923854 -0.09920628 0.0360325 0.053251177 -0.19308786 -0.119868785 -0.1360638 0.05645806
-0.21122235 -0.13724656 0.09603554 -0.1995213 -0.18705016 -0.08501072 -0.09979029 -0.19584589
0.12307016 -3.313865e-10 -0.022755118 -0.124572925 -0.17399582 -0.173453 0.05146209 0.24643925
0.020067155 0.1591705 -0.11736556 -0.06861312 3.5135827e-07 0.036464557 0.032693144 -0.05205309
-0.116533644 0.022758663 -0.09401029 -0.18248434 0.07819819 -0.032635342 -0.057849534 -0.0035372102
0.07942107 0.031983525 -0.18402313 0.098528475 -0.18199994 -0.14561045 0.022765659 0.015349166
-0.011430368 -0.12644117 -0.020532174 0.10712964 -0.000925226 0.018951837 -0.124185696 -0.02734068
0.013022539 -0.061795074 -0.059968982 -0.054934688 -0.055570297 2.0167536e-11 0.092507906 0.15655456
-0.04986532 0.17582962 -0.11667224 -0.09875362 -0.063251086 -0.11802032 0.0020042248 0.021034608
5.005222e-16 0.11680796 -0.003977202 0.14731273 -0.076177455 -0.15532051 -5.709721e-06 -1.2672834e-05
-0.057575606 0.097032584 -0.024893356 -0.0035412635 0.102604724 0.111465216 -0.0009564762 -0.013096314
-0.020396097 -0.09928498 0.00862996 0.008258456 -0.10756073 -0.016576512 -0.036328882 -0.05317221
0.06315606 0.11024735 0.2997533 0.17059147 0.008371495 -0.13501282 0.019632699 -0.049831703
-0.09243615 0.07460105 0.13741991 0.263193 0.10243046 0.04598338 0.03708798 -0.008825445
-3.3601975e-07 1.3571492e-05 0.0032554816 -0.06109437 -0.036848176 -0.062573865 0.034692504 0.052064687
0.066076025 0.06614734 2.5291913e-06 -1.8974202e-05 1.6400303e-05 -8.821169e-07 -0.10551401 -0.09054745
0.07141659 0.10605404 0.10915757 0.14301014 0.0077464776 -0.028101504 6.693961e-05 2.0178088e-05
9.038227e-09 2.3919295e-06 -0.038924817 -0.014401287 0.06202028 0.0867848 -1.6878737e-08 -3.510863e-08
-0.056363262 0.10538252 0.105660155 0.011925058 0.023882043 0.10453564 0.031244341 -0.030515546
-0.09335212 -0.019196382 -0.16183661 0.059375606 -0.07719972 -0.06473042 0.17049406 0.15825766
-0.15711121 -0.027482692 -0.056716148 0.06261118 0.0055736266 0.06213872 0.04353301 0.1540918
-0.060387976 0.12621374 -0.112877525 0.15824732 -0.036606796 0.013827492 -0.16370697 -0.20921503
-1.2900379e-05 0.048533045 -0.012287649 -0.0056252847 -0.01633671 -0.015142237 0.050832618 0.006244814
0.045158096 0.0073485533 0.040495664 0.029508688 -0.047701262 -0.009327323 -0.1476273 -0.106468454
0.098645076 0.18257132 0.25258103 0.18961746 -0.17258002 -0.15914695 -0.0079727685 -4.123748e-05
-0.055003878 5.9760474e-08 0.16295582 0.04114313 0.118660025 0.1257305 -3.8540925e-06 -0.05188219
