weights/gen_tcngan_minmax.model (torch, 72423 bytes, 56 tensors)

bias f4 [16]
000000 a3 da ad 3b 06 1d 5c 3d 0f c2 94 bd 4d 25 de 3d
       0.0053056045 0.053738616 -0.07263576 0.10846958
000010 f6 62 e1 3d e9 c7 35 be b2 e2 73 bd 74 72 dc bd
       0.110052034 -0.17752041 -0.059542365 -0.10764018
000020 95 a6 9c bd 13 35 76 be 4a 83 c1 bd 9e 43 39 be
       -0.076489605 -0.24043684 -0.094488695 -0.180922
000030 39 1a 7c be 9f ae 2c be 05 6f 1a be f9 5a 8a bd
       -0.24619378 -0.16863488 -0.15081413 -0.06755633

weight_g f4 [16, 1, 1]
000000 25 e8 df 3e 8c 06 e2 3e a3 37 d2 3e 28 81 b3 3e
       0.437318 0.4414562 0.41058072 0.35059476
000010 c4 87 e7 3e 47 e8 d3 3e c5 68 a8 3e 9a b2 e0 3e
       0.45220768 0.4138815 0.32892433 0.43886262
000020 f4 97 dd 3e b8 39 ff 3e 42 03 c2 3e cc d5 e0 3e
       0.43279994 0.49848723 0.3789311 0.43913114
000030 23 36 91 3e 53 95 dc 3e c3 56 cf 3e d5 e8 a1 3e
       0.28361616 0.43082675 0.4049588 0.3162295

weight_v f4 [16, 16, 2]
000000 d8 57 e7 3d 5c b6 4e bd d1 19 47 be 0a bd c1 bd
       0.11296052 -0.05046688 -0.19443442 -0.094598845
000010 ec c9 8d 3c 56 89 cd 3d 08 75 cc 3d 6b db 9f 3d
       0.017308198 0.100359604 0.099832594 0.078055225
000020 49 bb 21 be 88 61 72 bd 83 b0 04 3d 62 0e 4a bd
       -0.157941 -0.059175044 0.032394897 -0.049330123
000030 d4 a2 96 3d 3e 3c d4 3d 64 9d 08 bd 6d e5 c5 3c
       0.07355276 0.10363053 -0.033353224 0.02415725
000040 4d 9e 61 be db db 37 3e 1d 1b b9 3d 99 8f 83 be
       -0.22033043 0.17954962 0.090383746 -0.25695494
000050 7f 4e 2d be e6 c6 34 bd f5 93 21 be 82 f6 3d be
       -0.16924475 -0.044134997 -0.15779097 -0.18551067
000060 85 26 af 3d e3 1e f9 bd 37 b1 8e bd fb a3 ce 3a
       0.08552269 -0.12164094 -0.06967395 0.0015765423
000070 8a 15 2f 3b bb 7f 8e 3d 9e 30 e1 bd 77 32 97 3d
       0.002671572 0.069579564 -0.10995601 0.07382672
000080 f2 83 79 bd f4 d0 aa 3d 6c 15 88 3c c4 53 a9 bd
       -0.06091685 0.08340636 0.016611777 -0.0826793
000090 49 97 0f be 77 88 23 be a2 60 1e bd a8 18 31 3d
       -0.14022554 -0.15970026 -0.038666375 0.043236405
0000a0 26 76 f5 bd e3 e2 97 3d 0e 0f 4f bd bf a1 74 bd
       -0.11985426 0.07416322 -0.050551467 -0.059724566
0000b0 5e d3 fe 3c f8 0f 2f 3e 5e 7b 40 be cd e3 11 bd
       0.031106647 0.17095935 -0.18797061 -0.03561764
0000c0 01 73 70 be 45 32 a5 3c f2 87 94 bc f3 54 86 bd
       -0.2348137 0.020165572 -0.01813123 -0.065591715
0000d0 33 08 ec 3d 6e 51 5d 3e 98 9b 88 3c e1 62 3e 3d
       0.115250014 0.21613094 0.016675755 0.046481017
0000e0 3e 62 51 bd e7 62 ae bd f9 20 38 3d 69 a7 80 bd
       -0.05111908 -0.08514958 0.04495332 -0.06281931
0000f0 54 df fc bd d6 96 7b bd 79 d3 0b 3e 27 f1 32 3e
       -0.12347284 -0.061423145 0.13654889 0.17474805
000100 80 f3 b2 3b dd 29 a8 3c db b1 2b be 81 d9 b6 bd
       0.0054611564 0.020527774 -0.16767065 -0.08928204
000110 56 dd a9 bd ed c6 92 3c d6 6a 61 3d e9 66 1a be
       -0.082941696 0.01791712 0.055033527 -0.1507832
000120 1a db 8f bc a6 ae e5 3d 86 17 8d bd 17 a8 4d bc
       -0.01756053 0.11214952 -0.06889252 -0.012552283
000130 a3 c2 f9 3d 59 81 90 bd b4 ce 22 bd 8c 00 21 3e
       0.12195327 -0.07055921 -0.03974791 0.15722865
000140 f5 65 8d 3d cc 87 dd 3d 1e e9 3a bd 5f de 12 be
       0.069042124 0.10816917 -0.045632474 -0.1434264
000150 f9 ff f8 3d a9 31 81 bd b8 95 e6 3d e7 0d c8 bd
       0.12158198 -0.063083 0.11259025 -0.09768277
000160 49 7b 57 3d 6b e7 8c bd 2c f3 c8 3c 22 b6 bf bd
       0.05260781 -0.06880077 0.024530016 -0.09360911
000170 89 c5 31 3e d3 f9 48 bd b9 3e a0 3d 5a f3 25 be
       0.1736051 -0.049066376 0.078244634 -0.16206113
000180 a1 88 ac 3d fb 1c 5c 3d a0 71 3f bd a4 5d 97 bd
       0.084244974 0.053738575 -0.04673922 -0.073909074
000190 2e 20 00 3e a8 fd 81 3d b8 fc 33 be be f4 bc 3d
       0.12512276 0.06347209 -0.17576873 0.09226368
0001a0 d3 7f 97 bc d4 32 c2 bb eb 3b 04 bd 62 90 11 3d
       -0.018493569 -0.0059264693 -0.032283705 0.035538085
0001b0 42 38 8e 3d ea 97 62 3d d7 d2 c7 bd cd 6e f8 bd
       0.06944324 0.055320658 -0.097570114 -0.121305086
0001c0 f9 c8 85 bd 5f fa 19 be 01 a8 8d 3d ab 3c 45 bd
       -0.06532473 -0.15036915 0.0691681 -0.04815356
0001d0 6d 72 2d 3d 52 6b f5 bc e0 f7 0e be 86 ab e5 bd
       0.042345453 -0.0299584 -0.13961744 -0.11214356
0001e0 b3 90 02 3d f3 a8 27 3e b2 23 86 3d 79 a2 5e 3d
       0.031876277 0.16373043 0.06549777 0.054354165
0001f0 28 8e ff 3d a2 45 8a bd a0 22 66 be 99 2b f2 3c
       0.12478286 -0.06751563 -0.22474146 0.029561805
000200 96 6b 1f 3e 5c 3b ec bd 94 8a 85 3d 19 e9 19 3e
       0.15568385 -0.115347594 0.06520572 0.15030326
000210 03 24 fd 3c 22 fc 8c 3d ea 25 f5 3c 2a a8 b8 3d
       0.03090096 0.06884028 0.029925305 0.0901645
000220 2e 2f 00 bd 9f 1a 10 3e b6 4e b8 3d 54 ec 25 bd
       -0.031294994 0.14072655 0.08999388 -0.040508583
000230 3b 3a ec 3c c2 3f 78 bd a1 90 ec 3d 76 e6 73 3d
       0.02883636 -0.06060768 0.11551023 0.059545957
000240 fa 59 f8 3d 26 f1 53 3d e2 00 10 3e 91 0d ec bd
       0.12126537 0.05174365 0.14062837 -0.11526025
000250 9f 72 c5 3d db 75 1b be 2c ed 37 3e 85 1b 86 3d
       0.09641003 -0.15181677 0.17961568 0.06548218
000260 7b 47 77 3d b8 ef 36 3e ef 7b d3 3d 85 14 21 be
       0.060370903 0.17864883 0.10326373 -0.15730484
000270 49 d3 2d 3e 01 12 c0 bd cf c2 d2 bd 94 1e 2d bd
       0.1697513 -0.09378434 -0.10291063 -0.04226549
000280 eb 2b 13 3a 49 1e e2 bd 8e 83 dd bc b7 69 08 3e
       0.0005614149 -0.11040933 -0.02704027 0.13321577
000290 1e 0e 4b bd 67 a3 0b be 59 b0 c6 bd d2 49 21 be
       -0.04957401 -0.13636552 -0.097016044 -0.15750816
0002a0 e2 e5 61 3d 96 6f 16 3c 59 db e0 bd 45 99 8d 3d
       0.055150874 0.009181878 -0.10979337 0.069139995
0002b0 ad 9e 22 be ae 8f 0c 3e 47 5a 57 3e a3 2d 91 3d
       -0.15880843 0.13726684 0.21030532 0.07088783
0002c0 e1 79 a3 3d ca 47 87 3d df 14 18 3e 38 bf 28 3e
       0.07982231 0.066054896 0.14851712 0.16479194
0002d0 48 4d ce bd 5a 53 32 bd d8 07 95 3c a2 08 04 3e
       -0.10073334 -0.04353652 0.018192217 0.12893918
0002e0 a2 f4 53 3d f1 b8 1f be db 4b 7c bc d3 57 23 3d
       0.051746972 -0.15597893 -0.015398945 0.039878678
0002f0 3f 33 62 bd 51 08 3f 38 cc 1c 0b 3c b1 be 9a ba
       -0.055224653 4.5545694e-05 0.008490752 -0.0011806098
000300 60 c5 3c 3b 7c fe aa bd 9c b7 2a 3e 0b 16 57 3e
       0.0028804168 -0.0834932 0.16671604 0.21004502
000310 9d 35 98 bd 78 e6 24 3d 4b 59 b7 bd 05 a0 11 3b
       -0.07432101 0.040258855 -0.08952578 0.0022220623
000320 45 ce c7 3d 13 3f dd 3b ac b5 77 3d a0 7c 37 3d
       0.0975614 0.006751904 0.06047599 0.044796586
000330 4a 18 ff 3d 50 ab a3 bd 9a 84 84 3c 93 a8 00 3e
       0.12455805 -0.0799166 0.01617651 0.12564306
000340 ec ef a9 3d 8d 56 58 3b 2f 27 c0 bd c1 13 80 3e
       0.082977146 0.0033010573 -0.09382474 0.2501507
000350 00 13 27 bd 40 ad c6 bd 1b d8 ad bc 22 15 16 be
       -0.040789604 -0.097010136 -0.021221211 -0.14656499
000360 81 03 1b 3d 7e 8f 8c 3d 36 b7 72 3d ea 58 08 bd
       0.03784514 0.068633065 0.059256755 -0.03328792
000370 b7 f1 9e bc ac f6 17 bc af f6 08 be 65 8e 33 3b
       -0.019402368 -0.00927512 -0.13375352 0.0027398106
000380 75 42 c6 bd 8d bc c2 bc 23 66 22 be 6a 7b 3d be
       -0.096806444 -0.023771549 -0.15859275 -0.1850411
000390 9e bc 57 3c 20 1d 14 be 75 42 ad bd 90 86 0a 3d
       0.013167528 -0.14464235 -0.08459941 0.033819735
0003a0 58 d5 1e 3e 4c a9 21 3e 62 57 b5 bd c9 60 5c bd
       0.15511072 0.15787238 -0.088545576 -0.05380324
0003b0 ee b9 7f 3d f7 b7 d1 bc 57 dc b9 3d 98 ad 98 3c
       0.062433176 -0.025600417 0.090752296 0.018637463
0003c0 bb bf dc 3d 50 cf 9c 3d df fa 6d be e0 ab 2f be
       0.10778757 0.07656729 -0.23240231 -0.17155409
0003d0 0e 5a 9b 3d e7 1c 31 bd 06 85 f9 bd d1 1b d2 bc
       0.07585536 -0.043240454 -0.12183575 -0.02564803
0003e0 81 46 3e be 42 b6 ba 3d 4b b4 8e bd 79 0e 53 bd
       -0.18581583 0.09116794 -0.06967982 -0.051527474
0003f0 28 e7 a5 bd 24 8e 97 3d 6d 06 bc 3d a4 79 a6 bd
       -0.0810073 0.07400158 0.09180913 -0.0812867

weight f4 [16, 16, 2]
000000 03 d6 99 3d 0f 75 09 bd 57 65 04 be 7c d4 80 bd
       0.075115226 -0.0335589 -0.12929283 -0.06290528
000010 f9 91 3c 3c e3 ac 88 3d 28 f5 87 3d 98 99 54 3d
       0.011509412 0.066736005 0.06638557 0.05190429
000020 ca 17 d7 bd 01 2d 21 bd 01 78 b0 3c 6f 5c 06 bd
       -0.10502584 -0.03934956 0.021541597 -0.032802995
000030 28 56 48 3d 3f 21 8d 3d 6e b0 b5 bc 45 98 83 3c
       0.04891029 0.06891107 -0.022178855 0.016063819
000040 78 07 16 be 51 85 f4 3d e9 2d 76 3d c4 f7 2e be
       -0.14651287 0.119394906 0.060102377 -0.17086703
000050 ad 7c e6 bd 0d 6c f0 bc 7c e3 d6 bd 8b a3 fc bd
       -0.11254249 -0.029348398 -0.10492608 -0.12335881
000060 70 f0 68 3d 50 a8 a5 bd 94 c5 3d bd d7 68 89 3a
       0.056869924 -0.08088744 -0.046331003 0.0010483515
000070 da d9 e8 3a c4 83 3d 3d 89 be 95 bd 2f 15 49 3d
       0.001776512 0.04626824 -0.07311732 0.049092468
000080 6c 23 36 bd 82 61 79 3d 6f ac 46 3c 00 35 77 bd
       -0.044467375 0.060884006 0.012126072 -0.06035328
000090 3b a2 d1 bd 79 bf ee bd 9a 38 e7 bc 54 46 01 3d
       -0.10236021 -0.11657614 -0.028225232 0.03156121
0000a0 dd 2d b3 bd 8f be 5d 3d 79 25 17 bd d0 92 32 bd
       -0.08748982 0.05413681 -0.03690097 -0.043597043
0000b0 c1 03 ba 3c 7b 94 ff 3d 76 81 0c be 6d fd d4 bc
       0.022706868 0.12479492 -0.1372126 -0.02599975
0000c0 35 85 2f be 1e 2d 71 3c 8e d8 58 bc b1 1d 44 bd
       -0.17140658 0.014720229 -0.013235224 -0.04787988
0000d0 c1 4b ac 3d 22 8e 21 3e 51 70 47 3c d7 f9 0a 3d
       0.084128864 0.15776876 0.012172774 0.033929672
0000e0 f2 d7 18 bd d1 97 7e bd 80 68 06 3d 9e d3 3b bd
       -0.037315316 -0.062156502 0.032814503 -0.04585611
0000f0 be 96 b8 bd f4 a6 37 bd 20 23 cc 3d 3c 9f 02 3e
       -0.09013127 -0.044836953 0.09967637 0.12756056
000100 c6 32 87 3b b0 18 7e 3c 50 b7 01 be c5 24 8a bd
       0.0041259257 0.015508816 -0.12667584 -0.067452945
000110 59 55 80 bd 04 c8 5d 3c bf 4d 2a 3d 7b 4d e9 bd
       -0.06266279 0.013536457 0.04157805 -0.11391731
000120 0c 5e 59 bc 9e 86 ad 3d e4 30 55 bd d8 5f 1b bc
       -0.013267051 0.08472942 -0.05204858 -0.0094833
000130 e6 b1 bc 3d 3f 59 5a bd dc 00 f6 bc 88 46 f3 3d
       0.09213619 -0.053307768 -0.030029707 0.11878687
000140 68 a7 55 3d fe 5d a7 3d 34 36 0d bd 71 eb dd bd
       0.052161604 0.081722245 -0.03447552 -0.108359225
000150 d4 1e bc 3d 91 36 43 bd 31 35 ae 3d 4f 24 97 bd
       0.091855675 -0.04765946 0.08506239 -0.07379972
000160 16 cc 22 3d 34 e8 54 bd 86 d1 97 3c ba d6 90 bd
       0.039745413 -0.05197926 0.018532526 -0.07072206
000170 a3 4e 06 3e 8d d6 17 bd aa 21 72 3d b0 c0 fa bd
       0.13115935 -0.037069846 0.059114136 -0.122437835
000180 61 e2 61 3d 8f 16 10 3d 4c a4 fa bc bd 2b 46 bd
       0.055147532 0.035177764 -0.030595921 -0.048381556
000190 98 be a7 3d b7 2f 2a 3d 7b a4 eb bd 7b 62 77 3d
       0.0819065 0.04154941 -0.115059815 0.060396653
0001a0 7e 58 46 bc 8f 3f 7e bb 8c 1f ad bc 36 93 be 3c
       -0.012106059 -0.0038795208 -0.021133207 0.023263555
0001b0 5b 32 3a 3d 83 54 14 3d 6d ce 82 bd 5b a0 a2 bd
       0.04545818 0.03621341 -0.06387029 -0.07940742
0001c0 62 27 2f bd 40 97 c9 bd 7f 75 39 3d f6 1c 01 bd
       -0.042762168 -0.09843302 0.04527807 -0.03152176
0001d0 78 14 e3 3c 57 a7 a0 bc 3a 2d bb bd 16 58 96 bd
       0.027719721 -0.019611044 -0.09139486 -0.0734102
0001e0 3a f0 aa 3c e4 80 db 3d 28 9e 2f 3d 1a bd 11 3d
       0.020866502 0.10717943 0.04287544 0.035580732
0001f0 f1 49 a7 3d 3a 07 35 bd 0d a6 16 be e3 86 9e 3c
       0.081684 -0.044196345 -0.14711781 0.019351428
000200 3f 9d ec 3d 46 4f af bd 4c 34 46 3d c6 6f e4 3d
       0.1155343 -0.08560042 0.048389718 0.111541316
000210 9b db bb 3c 8e 40 51 3d 2e ed b5 3c 13 09 89 3d
       0.022931864 0.051086955 0.022207823 0.06691184
000220 d8 40 be bc af e1 d5 3d b0 c6 88 3d 15 44 f6 bc
       -0.02322428 0.10443436 0.06678522 -0.03006176
000230 70 4e af 3c 4c 3a 38 bd 8e 8e af 3d 1c 00 35 3d
       0.021399707 -0.04497747 0.08572112 0.044189557
000240 c1 4d b8 3d b1 48 1d 3d 7c bb d5 3d 4b 2d af bd
       0.089992054 0.038399402 0.104361504 -0.08553561
000250 13 87 92 3d a7 bc e6 bd 4e 7e 08 3e 6c 0b 47 3d
       0.071546696 -0.11266451 0.13329431 0.048594877
000260 0c 82 37 3d 37 c2 07 3e b4 f1 9c 3d f0 13 ef bd
       0.044801757 0.13257681 0.07663289 -0.11673725
000270 4b ff 00 3e 79 89 8e bd 52 68 9c bd 31 79 00 bd
       0.12597387 -0.069598146 -0.07637085 -0.031365577
000280 30 50 d7 39 0f 68 a5 bd d1 09 a2 bc c3 92 c7 3d
       0.0004106774 -0.08076488 -0.019780071 0.097447895
000290 23 89 14 bd c0 4a cc bd 7c 57 91 bd 5b f7 eb bd
       -0.036263596 -0.09975195 -0.070967644 -0.11521789
0002a0 cd 3e 25 3d c6 16 dc 3b d5 7b a4 bd fc 28 4f 3d
       0.040343095 0.006716582 -0.080314316 0.050576195
0002b0 07 ea ed bd 6d a4 cd 3d 08 88 1d 3e a4 65 54 3d
       -0.11616903 0.10041127 0.15383923 0.051854745
0002c0 b9 2a 6f 3d 99 ea 45 3d 1e 7f de 3d d2 e0 f6 3d
       0.058390353 0.048319433 0.108640894 0.120546
0002d0 24 e9 96 bd 28 72 02 bd 78 08 5a 3c 9c 2a c1 3d
       -0.07368687 -0.03184715 0.013307683 0.09431955
0002e0 e2 0b 1b 3d de ac e9 bd 4a 8e 38 bc e7 f8 ee 3c
       0.03785313 -0.11409925 -0.011264393 0.02917142
0002f0 65 77 25 bd b6 bd 0b 38 d3 85 cb 3b a1 64 62 ba
       -0.040397067 3.3316865e-05 0.0062110214 -0.00086362107
000300 fe 8b e7 3a dd bd 51 bd ee 66 d1 3d 9a e9 03 3e
       0.0017665622 -0.05120646 0.102247104 0.1288208
000310 4b b3 3a bd 59 44 ca 3c 5e e5 60 bd be 9f b2 3a
       -0.045581143 0.024690794 -0.05490624 0.0013627929
000320 04 15 75 3d cb b0 87 3b a9 eb 17 3d b5 10 e1 3c
       0.059834495 0.0041409484 0.037089977 0.027473787
000330 2e 73 9c 3d c6 c1 48 bd fb 8b 22 3c 10 d0 9d 3d
       0.07639156 -0.04901292 0.009921069 0.077057004
000340 fd 71 50 3d 2b ae 04 3b ff b1 6b bd 84 19 1d 3e
       0.050889958 0.0020245414 -0.057542797 0.15341765
000350 fd ee cc bc 80 b2 73 bd d2 3c 55 bc 6f 17 b8 bd
       -0.025016302 -0.059496403 -0.013014989 -0.089888446
000360 dc 23 be 3c 6b 69 2c 3d 95 db 14 3d 6e 3e a7 bc
       0.023210458 0.042092722 0.036342222 -0.020415511
000370 14 f6 42 bc 17 66 ba bb f4 ff a7 bd 77 3e dc 3a
       -0.01189949 -0.0056884396 -0.08203116 0.0016803284
000380 90 74 8e bd 85 ec 8b bc 77 60 e9 bd 00 26 08 be
       -0.06955826 -0.017080555 -0.11395352 -0.13295746
000390 61 03 1b 3c 20 d9 d4 bd f4 fb 78 bd c7 11 c7 3c
       0.009461255 -0.10392976 -0.060787156 0.02430047
0003a0 bb 40 e4 3d 17 51 e8 3d 90 4c 82 bd 1d 59 1e bd
       0.11145159 0.11343592 -0.063622594 -0.038659204
0003b0 2f bf 37 3d 60 b0 96 bc de 8b 85 3d 4a 68 5b 3c
       0.04486006 -0.018394649 0.06520818 0.013391564
0003c0 55 9d 9e 3d 49 58 61 3d de fe 2a be 37 73 fc bd
       0.077448525 0.055015836 -0.16698787 -0.12326663
0003d0 e5 3f 5f 3d 88 85 fe bc 83 49 b3 bd 1f f8 96 bc
       0.054504294 -0.031069532 -0.087542556 -0.01842886
0003e0 ec b7 08 be 73 28 86 3d 0b 13 4d bd 7a a6 17 bd
       -0.1335141 0.06550684 -0.05006699 -0.037024
0003f0 8a 69 6e bd 34 cb 59 3d fe 19 87 3d 0b 3c 6f bd
       -0.05820612 0.053172305 0.065967545 -0.05840687

bias f4 [16]
000000 e0 14 d3 bc fe ee 44 3a 5c 7a ff 3d 1d 6f d6 3d
       -0.02576679 0.0007512419 0.1247451 0.10470412
000010 af 99 6e 3d ad 37 aa bd e3 5c 08 bd 30 7f b0 bd
       0.058252033 -0.083114006 -0.03329171 -0.08618009
000020 0b bd 8e 3d 17 79 9a bd 0a 75 13 3d 0c 09 de 3c
       0.06969651 -0.07542627 0.03600029 0.027103923
000030 e3 22 d2 3d 4c f0 7d 3c de d1 4d bd 70 7d c4 3c
       0.1026056 0.015499186 -0.050248973 0.023985595

weight_g f4 [16, 1, 1]
000000 00 50 e9 3e e6 d5 96 3e a8 02 f1 3e 70 c9 c8 3e
       0.45568848 0.29460067 0.4707234 0.39216185
000010 e5 59 cb 3e 32 63 ac 3e 91 c7 c7 3e a4 13 cb 3e
       0.39717022 0.3366943 0.39019445 0.39663422
000020 36 d2 bb 3e 0c a0 cc 3e 23 20 ac 3e 70 cc b5 3e
       0.36683816 0.39965856 0.33618268 0.35507536
000030 83 fe c5 3e 8b 14 8e 3e 3f 9d 89 3e 95 0d e9 3e
       0.3867074 0.27750048 0.26877782 0.45518175

weight_v f4 [16, 16, 2]
000000 5d c8 e2 3d c0 75 b5 3c 20 9f 0c 3e d2 bf 0d be
       0.110733725 0.022150874 0.13732576 -0.13842705
000010 59 43 1f be 34 43 fd 38 01 2a 22 be 1c c2 fd 3d
       -0.15553035 0.00012076498 -0.15836336 0.12390539
000020 42 54 41 3d fd 4e 10 be 5b c0 57 3d 4c c3 b9 3d
       0.047199495 -0.14092632 0.05267368 0.09070453
000030 65 b2 66 bd dc 7f 73 bd 1b 4b b3 bd 29 9a 73 bd
       -0.056322474 -0.059448108 -0.087545596 -0.05947319
000040 20 06 95 3d 90 3c ab 3d 0c 4e 26 3e 80 85 c0 3d
       0.07276559 0.08361161 0.1624071 0.09400463
000050 ce 6e 10 3e f9 79 b0 3c e6 72 15 3e b7 aa 81 bd
       0.14104769 0.021542536 0.14594612 -0.063313894
000060 94 b1 b4 3d a3 09 10 3d 92 04 18 be 1d de ad bd
       0.08822933 0.03516544 -0.14845493 -0.0848963
000070 2f 29 2e 3e 3d 10 11 bd 3f b7 aa 3d 79 76 c5 3d
       0.17007898 -0.035415877 0.08335733 0.096417375
000080 b4 b9 b3 3b 85 86 89 3d 40 d5 30 3e a2 54 f2 bd
       0.005484784 0.06715111 0.17268848 -0.11832549
000090 ed 58 01 3d 2e ba d0 3d 6a 60 19 be 36 62 1a 3e
       0.031578947 0.10191761 -0.14978185 0.15076527
0000a0 d0 e5 47 3d ab 2b 95 bd 2a d5 5c 3c 71 78 ec bb
       0.04880315 -0.0728372 0.013478557 -0.007216506
0000b0 88 6f bc 3d 11 f5 25 bd c6 f1 0a bc b1 74 37 bc
       0.092009604 -0.040516917 -0.008480495 -0.011197255
0000c0 5a 36 0d bb 95 46 8e bd 90 00 e5 3c ef f9 0b 3d
       -0.0021547289 -0.06947056 0.02795437 0.034173902
0000d0 37 1d 20 3d a0 1b 29 be 32 f5 ba 3d 2d 5c 30 be
       0.03909036 -0.16514444 0.091287985 -0.17222662
0000e0 63 71 2c be 98 7e 24 3e aa 90 37 3b 1b 59 0d 3e
       -0.16840129 0.16063917 0.002800981 0.13803522
0000f0 89 99 ee 3d fd 8e a9 bd 3b de f8 bd a8 71 0a be
       0.11650378 -0.08279226 -0.12151762 -0.13519919
000100 df c4 f5 bd 71 4e f8 bd d4 b9 03 3e 5d 79 11 3d
       -0.12000441 -0.121243365 0.12863857 0.03551613
000110 a2 90 ee 3d 0a 79 0b 3e a5 b5 a4 3d 8d 8c 86 3b
       0.1164868 0.13620391 0.080424584 0.0041061104
000120 2c 0a 43 bd 54 a9 ed 3d 38 60 77 bc de 1a 48 be
       -0.047617123 0.116045624 -0.015098624 -0.19541499
000130 ec 7c 30 3d 5c 91 73 be 71 47 2b 3e c8 06 30 be
       0.043087885 -0.23785919 0.16726471 -0.17190087
000140 54 ee 22 bd 4a 86 64 be 8a eb 34 3e 33 f4 bc bb
       -0.03977807 -0.22316852 0.17667976 -0.0057664155
000150 2a 5e 0b 3e 08 e8 83 bc 8b 2f 93 bc 34 9c a3 bd
       0.1361014 -0.016101852 -0.017967006 -0.07988778
000160 e1 1a a4 3d 93 85 59 3d 75 93 f7 bd d8 f7 93 3d
       0.08012939 0.053105902 -0.12088672 0.07225007
000170 a5 8c 9c 3c 21 bf ea 3d 60 8b ff bc 27 cc b8 bd
       0.019110033 0.11462236 -0.031194389 -0.09023314
000180 4a 00 27 3d cf 24 10 be 21 7d 97 bc 8d 73 24 be
       0.04077176 -0.14076541 -0.018492283 -0.16059704
000190 77 7f 44 be 53 ff 05 bd d2 eb 1e bd 1d e1 c0 bd
       -0.19189249 -0.0327142 -0.038799115 -0.09417937
0001a0 e8 c5 5e bd 86 69 77 bd 71 f8 9b 3d 0c fd de 3d
       -0.054387957 -0.06040337 0.07615746 0.108881086
0001b0 33 05 b5 3d ea 52 3f 3b 1e 0d 87 3d 0f 1e d1 bb
       0.08838882 0.0029193708 0.06594299 -0.006381757
0001c0 30 2c 57 3e f8 38 d6 3d 36 c3 1b be 3c df 93 3c
       0.2101295 0.10460085 -0.15211186 0.018050782
0001d0 c5 54 e2 3d a0 9e e8 bc e5 7e 4d 3d 77 9f 3c be
       0.11051325 -0.02839595 0.050169844 -0.18420206
0001e0 98 38 90 3d 64 43 f5 3d 6a 28 c9 3b 69 9f 5d ba
       0.070420444 0.11975744 0.006138851 -0.0008454235
0001f0 4c 11 2e be ec 42 8d 3d 3d 53 68 3d 9a 92 3b be
       -0.16998786 0.0689753 0.056720007 -0.18317643
000200 a5 0e 37 3b 2b 56 1f 3d 38 67 9a 3d 11 c2 c6 bd
       0.0027932313 0.038900536 0.07539219 -0.09704984
000210 17 25 a7 bd db b4 29 be 1a 5a 25 3e 4c ad 80 3d
       -0.08161371 -0.16572897 0.16147652 0.06283054
000220 42 8a ba bd ed 59 a7 bd ca 0a b9 bd 64 04 e5 bd
       -0.09108402 -0.08171449 -0.09035261 -0.11182478
000230 47 c3 f3 bd 0c c2 9e 3d 96 bf 96 bd 8c 5a 05 be
       -0.119024806 0.07751855 -0.07360761 -0.13022822
000240 49 6e 5d bd 7b ff 9d bd f4 58 1d 3e 7b 4f 86 bd
       -0.054060254 -0.07714745 0.15365964 -0.065581284
000250 03 5c 85 3d a2 64 f2 3d d2 6c 46 be 3c 3c c5 3d
       0.065116905 0.118356004 -0.19377449 0.096306294
000260 96 f2 21 3e 47 ca 4c 3e ad 99 01 bd d5 b0 e4 3d
       0.15815195 0.19999038 -0.031640697 0.111665405
000270 49 23 42 3e b4 39 4d 3d 3b 3f 47 3e f4 de 3c 3e
       0.18958773 0.050103858 0.19457714 0.18444425
000280 a1 bb eb 3c 30 0c 2c bc 7c e9 12 bd 65 1b 8a 3d
       0.028775992 -0.010500953 -0.0358672 0.06743506
000290 0f e8 b3 bb 5b 09 38 3e d1 5e da bc 18 c9 58 3d
       -0.00549031 0.17972319 -0.02665654 0.052926153
0002a0 b3 d4 68 bd a7 23 a5 bd 3d 35 64 3d 40 3d 7e bd
       -0.05684347 -0.08063441 0.055714834 -0.06207013
0002b0 44 da 61 3e 09 59 e6 b9 09 95 9d bc 9b 29 08 bd
       0.22055918 -0.00043935355 -0.019236105 -0.033242803
0002c0 ab c3 a7 3d 3d 55 31 bd 97 6d cf bc 31 d5 d1 3c
       0.081916176 -0.04329418 -0.025320811 0.025614353
0002d0 16 45 10 3e 6c 3d 18 3e 5c e5 51 bd 26 f1 0a 3e
       0.14088854 0.1486718 -0.051244125 0.13568553
0002e0 46 75 75 3e 4a 07 a1 3e 28 ff 0b 3e c4 f8 9d 3d
       0.23970518 0.31450874 0.13671553 0.07713464
0002f0 93 e4 9e 3d db 6b 48 3d 0a 7c 0c bd 6e e7 0a 3e
       0.07758441 0.048930984 -0.03429798 0.13564846
000300 4d c7 84 bd 37 2b e4 bc 4b 16 a7 bd 58 8e 77 3d
       -0.06483326 -0.027852638 -0.08158549 0.060438484
000310 ba 18 99 bd 79 32 45 bd 22 f7 17 bd 60 d0 96 bd
       -0.07475419 -0.048143838 -0.03710092 -0.07363963
000320 63 50 6d bc 2d 8c 0e 3d d6 70 82 bd 41 0b b5 bd
       -0.014484498 0.03480165 -0.06369178 -0.08840037
000330 5d b7 eb 3d 9f 65 9f bd 0a ef d8 3d 6b c7 44 3e
       0.11509583 -0.077830546 0.10592468 0.19216697
000340 3a fa 25 39 00 7a 7e bd c2 d7 b3 3b de 09 4f 3e
       0.00015828843 -0.062128067 0.005488367 0.20218608
000350 95 54 85 3d d8 a0 c2 3d f0 51 be bd c6 f9 5c 3d
       0.06510273 0.09503335 -0.09292972 0.05394914
000360 10 71 71 3d e0 29 07 3e 28 c4 ee 3d 31 b5 c1 bb
       0.058945715 0.13199568 0.116585076 -0.0059114923
000370 92 85 a8 bd a8 6e 29 3e f5 a2 d8 bd 24 9a 89 3e
       -0.082286015 0.16546118 -0.105779566 0.26875412
000380 c7 35 9e 3d cd aa de ba 34 2a 35 3d cc 0e df 3c
       0.07725101 -0.0016988158 0.0442297 0.027228735
000390 67 7e 8d 3d 5c f5 3b 3c de d7 85 3d 10 48 c0 3d
       0.06908875 0.011472072 0.06535314 0.09388745
0003a0 d5 40 01 bc d4 f1 ca 3d e7 04 0c 3e 7f 68 84 3c
       -0.007888992 0.09909406 0.13673745 0.016163109
0003b0 02 7d b3 bd d8 87 3a be 60 e3 25 3e cc d9 80 bd
       -0.08764078 -0.18215883 0.16200018 -0.062915415
0003c0 9f 88 9d bc 27 71 ca bd 57 84 f7 3b e6 bd 6a 3d
       -0.019230185 -0.09884863 0.007553618 0.057310008
0003d0 b6 28 2c bd e9 b0 fe bd d1 95 3e bd 2b 65 2f be
       -0.042031012 -0.12436087 -0.046529595 -0.17128436
0003e0 c9 07 ab bd 47 98 1c 3e fb b9 7b bc d9 ee 19 3d
       -0.08351094 0.15292464 -0.015364165 0.0375813
0003f0 87 15 ff 3d 49 67 38 3e c1 43 c3 bd 4f 66 37 be
       0.12455278 0.1800815 -0.095344074 -0.17910121

weight f4 [16, 16, 2]
000000 01 22 b0 3d bb ee 8c 3c 19 6e da 3d 88 2e dc bd
       0.08600236 0.01720368 0.10665531 -0.10751063
000010 e1 62 f7 bd da b2 c4 38 76 e4 fb bd 6a 15 c5 3d
       -0.120794065 9.379322e-05 -0.12299435 0.09623225
000020 9d 26 16 3d 38 28 e0 bd b6 90 27 3d 41 46 90 3d
       0.03665792 -0.10945171 0.04090949 0.0704465
000030 3e 2c 33 bd b6 1d 3d bd f5 3f 8b bd 23 32 3d bd
       -0.043743365 -0.046170913 -0.06799308 -0.046190392
000040 49 7b 67 3d 11 fe 84 3d 85 29 01 3e 08 86 95 3d
       0.05651406 0.06493772 0.12613495 0.07300955
000050 a3 59 e0 3d e3 0f 89 3c 3e 24 e8 3d f5 69 49 bd
       0.10954597 0.016731208 0.11335038 -0.049173314
000060 5e 56 8c 3d 7d bc df 3c d1 21 ec bd 30 09 87 bd
       0.06852411 0.027311558 -0.115298875 -0.06593549
000070 7e 43 07 3e 66 54 e1 bc 87 96 84 3d 7c 5c 99 3d
       0.1320934 -0.027506065 0.06474023 0.07488343
000080 f5 34 3a 3b 2d 7c 0e 3d cd 35 b7 3d de 11 7b bd
       0.0028412913 0.034786392 0.089458086 -0.061296336
000090 15 03 86 3c 2f 41 58 3d 69 e8 9e bd 81 f3 9f 3d
       0.016358892 0.05279654 -0.077591725 0.078101166
0000a0 4c 1b cf 3c d6 8c 1a bd ec cb e4 3b 93 ff 74 bb
       0.02528157 -0.037731968 0.006982317 -0.003738378
0000b0 33 3b 43 3d 36 f1 ab bc 88 f4 8f bb 62 12 be bb
       0.04766388 -0.020989042 -0.004393164 -0.0058005312
0000c0 0c 4e 92 ba 18 68 13 bd c0 42 6d 3c 38 06 91 3c
       -0.0011162176 -0.035987943 0.0144812465 0.01770316
0000d0 6a e3 a5 3c db 34 af bd 39 b3 41 3d 5c b8 b6 bd
       0.020250041 -0.08555003 0.04729006 -0.089218825
0000e0 69 a9 b2 bd 3b 6d aa 3d 5e 2f be 3a 0e 72 92 3d
       -0.08723719 0.08321615 0.0014509966 0.071506605
0000f0 53 34 77 3d 61 ac 2f bd e9 eb 80 bd cb 6f 8f bd
       0.060352635 -0.042889003 -0.06294996 -0.07003745
000100 29 7d b3 bd 8d 57 b5 bd 24 67 c0 3d e1 7b d4 3c
       -0.08764107 -0.088545896 0.093946725 0.025937976
000110 48 3a ae 3d e1 b7 cb 3d 70 94 70 3d c5 86 44 3b
       0.0850721 0.099471815 0.05873531 0.0029987555
000120 c5 70 0e bd 5b 91 ad 3d 92 a9 34 bc c5 23 12 be
       -0.034775514 0.0847499 -0.011026757 -0.14271457
000130 52 e4 00 3d 9e e1 31 be eb 2c fa 3d 0b 8e 00 be
       0.031467743 -0.17371222 0.12215599 -0.12554185
000140 63 fb ed bc 1f e5 26 be f3 20 04 3e f6 fe 89 bb
       -0.029050535 -0.1629834 0.12903194 -0.004211302
000150 a0 90 cb 3d a0 aa 40 bc e6 fb 56 bc 5c f9 6e bd
       0.099396944 -0.01175943 -0.013121581 -0.058343276
000160 62 b2 6f 3d 08 dc 1e 3d fe ce b4 bd 76 20 58 3d
       0.05851973 0.038784057 -0.08828543 0.052765332
000170 2e a9 64 3c 66 70 ab 3d c6 a0 ba bc df f5 86 bd
       0.013956351 0.08371048 -0.02278174 -0.06589865
000180 6a 5b dd 3c 61 0f bf bd b6 cb 48 bc 39 fa d9 bd
       0.027021129 -0.09329105 -0.0122556 -0.10643429
000190 2f 3a 02 be 76 9c b1 bc b2 a5 d2 bc 81 a8 7f bd
       -0.12717508 -0.021681052 -0.025713775 -0.062416557
0001a0 13 a4 13 bd 65 f8 23 bd 74 bc 4e 3d 9e c8 93 3d
       -0.036045145 -0.04003181 0.05047269 0.07215999
0001b0 74 f0 6f 3d b3 98 fd 3a 11 02 33 3d 3b 97 8a bb
       0.058578923 0.0019347876 0.043703143 -0.004229454
0001c0 91 9a 0e 3e 60 f9 8d 3d e6 75 ce bd 74 00 44 3c
       0.1392615 0.0693233 -0.10081081 0.011962999
0001d0 bd ff 95 3d a8 2a 9a bc c3 30 08 3d 32 04 fa bd
       0.07324169 -0.018819168 0.033249628 -0.122078314
0001e0 9b 29 3f 3d cc 8b a2 3d cd 50 85 3b e6 e0 12 ba
       0.046670537 0.079368204 0.00406847 -0.00056029705
0001f0 39 b9 e6 bd 52 3d 3b 3d b3 f8 19 3d d1 9f f8 bd
       -0.11265797 0.045712776 0.037590694 -0.121398576
000200 df d9 d8 3a 5d c0 bc 3c 44 e8 36 3d 4f 73 6b bd
       0.0016544423 0.023040945 0.0446551 -0.057483014
000210 4e 00 46 bd 20 09 c9 bd 95 e0 c3 3d 87 6e 18 3d
       -0.048340134 -0.098161936 0.0956432 0.037214782
000220 14 fa 5c bd e5 3e 46 bd d2 33 5b bd d6 a5 87 bd
       -0.05394943 -0.048399825 -0.053516217 -0.066234276
000230 b7 61 90 bd e6 10 3c 3d e8 93 32 bd cd f8 9d bd
       -0.070498876 0.045914553 -0.043598086 -0.077134706
000240 84 27 03 bd 6a 2a 3b bd 25 65 ba 3d f3 1a 1f bd
       -0.032020107 -0.045694746 0.09101323 -0.03884406
000250 89 fa 1d 3d 06 92 8f 3d 54 0e eb bd 83 a5 69 3d
       0.038569007 0.07010274 -0.11477342 0.05704261
000260 2d d8 bf 3d 98 98 f2 3d 8b 86 99 bc 57 74 87 3d
       0.09367404 0.11845511 -0.018740913 0.06613987
000270 2d fa e5 3d 96 1c f3 3c 94 07 ec 3d ef bc df 3d
       0.11229358 0.029676717 0.11524883 0.10924708
000280 7b c3 7d 3c 07 35 b9 bb 26 26 9e bc a6 ab 14 3d
       0.015488501 -0.0056520733 -0.0193053 0.03629651
000290 c8 aa 41 bb f2 1c c6 3d b2 12 6b bc f0 5d e9 3c
       -0.0029551256 0.0967349 -0.014347719 0.028487176
0002a0 ba a3 fa bc 38 c5 31 bd be a9 f5 3c bc d7 08 bd
       -0.030595649 -0.043400973 0.029988166 -0.033408865
0002b0 a7 20 f3 3d 70 f7 77 b9 a1 a2 29 bc c9 93 92 bc
       0.11871462 -0.00023647933 -0.010353715 -0.017892735
0002c0 a3 98 34 3d 92 e5 be bc 35 4b 5f bc e5 e1 61 3c
       0.04409088 -0.023302827 -0.013628771 0.013786768
0002d0 03 4e 9b 3d 69 e2 a3 3d 4e f3 e1 bc c0 91 95 3d
       0.07583239 0.08002169 -0.027581837 0.0730319
0002e0 c6 1d 04 3e 5d 58 2d 3e 69 b4 96 3d fc 0d 2a 3d
       0.12901983 0.16928239 0.07358629 0.041517243
0002f0 d5 0b 2b 3d 47 c0 d7 3c d8 3a 97 bc 4a 87 95 3d
       0.04175933 0.026336802 -0.018460676 0.07301195
000300 91 b8 33 bd f1 6a 9a bc b1 28 62 bd d6 89 27 3d
       -0.043877188 -0.018849822 -0.055214588 0.040902935
000310 e7 38 4f bd 02 75 05 bd ed b0 cd bc f5 21 4c bd
       -0.050591376 -0.03258229 -0.025108779 -0.04983707
000320 60 9b 20 bc 99 f1 c0 3c 85 8e 30 bd d7 0c 75 bd
       -0.009802669 0.023552703 -0.043104667 -0.0598267
000330 8f 86 9f 3d 05 c0 57 bd 6e d0 92 3d 8f 2c 05 3e
       0.07789337 -0.05267336 0.07168661 0.13005279
000340 33 a8 e0 38 d7 38 2c bd a0 6c 73 3b 10 1e 0c 3e
       0.00010712482 -0.042046394 0.0037143603 0.13683343
000350 cc 77 34 3d f2 b7 83 3d 88 cd 80 bd b6 8c 15 3d
       0.04405956 0.06431569 -0.06289202 0.036511146
000360 81 66 23 3d 00 f3 b6 3d fb 96 a1 3d 77 18 83 bb
       0.039892677 0.08933067 0.07890125 -0.004000719
000370 d2 19 64 bd 50 55 e5 3d f2 9c 92 bd f8 3f 3a 3e
       -0.055688687 0.11197913 -0.07158841 0.18188465
000380 31 72 61 3d e8 a5 9e ba fd 13 01 3d 27 ed 9e 3c
       0.055040542 -0.0012103887 0.031513203 0.019400192
000390 2c a0 49 3d 1f eb 05 3c 4d b9 3e 3d a2 ff 88 3d
       0.049225017 0.008173733 0.046563435 0.06689383
0003a0 e6 2e b8 bb 90 98 90 3d 3e 86 c7 3d ce ad 3c 3c
       -0.005620825 0.07060349 0.097424015 0.011516048
0003b0 62 c4 7f bd b2 e6 04 be 20 63 ec 3d 14 9c 37 bd
       -0.062443145 -0.12978628 0.11542344 -0.044826582
0003c0 73 7b 60 bc e2 3c 90 bd 6f 5a b0 3b 48 40 27 3d
       -0.013701308 -0.070428625 0.0053818743 0.040832788
0003d0 b4 52 f5 bc f9 76 b5 bd 3d ca 07 bd 3c ef f9 bd
       -0.029946662 -0.08860583 -0.033151854 -0.122038335
0003e0 fd b6 73 bd f7 24 df 3d 3e 5a 33 bc f1 59 db 3c
       -0.059500683 0.10895722 -0.010946808 0.026776286
0003f0 a9 be b5 3d b4 62 03 3e c1 1f 8b bd 9c ab 02 be
       0.08874256 0.12830621 -0.06793166 -0.12760776

weight f4 [16, 16, 1]
000000 d9 01 8e 3c 10 6f bf bc 2b 97 d3 bd d8 b4 17 3d
       0.017334865 -0.023368388 -0.103315674 0.0370377
000010 7d b5 d0 bb f8 da 53 bc 4a 8c 81 3d ba 23 19 3e
       -0.0063692913 -0.012930624 0.06325586 0.14955035
000020 51 9a f0 3c 21 ba b7 bd 44 39 23 3c d0 96 e1 bc
       0.029370459 -0.08971048 0.009962384 -0.027537733
000030 3a 01 27 3e 30 e9 ad bd bd c6 d4 bd 4a 2d 83 3d
       0.16309062 -0.084917426 -0.10389469 0.064051226
000040 66 b3 92 bc 9f 79 7c 3e 7e d0 11 3d bc db a5 bd
       -0.01790781 0.2465577 0.035599224 -0.08098552
000050 96 ae 08 3e 9f de fb bd d3 81 9a 3d d5 a1 94 bd
       0.13347849 -0.12298321 0.07544293 -0.072574295
000060 a6 37 52 3b 2c 24 0a be 0e 3e e5 3b 1a 4d e2 bc
       0.0032076626 -0.13490361 0.006995923 -0.027624656
000070 bb 5e e3 bc 87 07 19 3b 0c 96 1a be c4 9f d7 bd
       -0.027755132 0.0023350434 -0.15096301 -0.1052852
000080 07 a3 be 3c 75 e1 31 3d 1d 49 d5 3d 96 df 80 bd
       0.023271097 0.043427903 0.10414336 -0.06292646
000090 74 b1 d4 3d 76 60 5c bd 16 13 c6 3c 9d d9 6f 3d
       0.10385409 -0.05380293 0.024179023 0.05855714
0000a0 a1 07 5c 3c fa bc 2a bd 5a 76 94 bc 3e d5 03 bd
       0.013429553 -0.04168413 -0.01812284 -0.032185785
0000b0 56 e2 e4 bd 26 4f e8 3c 35 41 55 bd 3e 77 04 be
       -0.11175983 0.028358053 -0.05206414 -0.12936112
0000c0 e3 98 30 bc 9f 11 24 bd 08 b2 25 3d 41 e3 fb ba
       -0.0107786385 -0.040055867 0.040452987 -0.0019217507
0000d0 4d b2 0f 3d cc 4b 80 bd 4a ac 48 3d ee 29 eb 3d
       0.03508215 -0.06264457 0.048992433 0.11482607
0000e0 f7 0d d0 bc 2b 9f 0d be 78 18 ab bd ca ca 86 bc
       -0.025397284 -0.13830249 -0.083542764 -0.01645412
0000f0 d9 38 aa 3d 14 cd 2d 3c 36 24 49 bd 17 2f 78 bc
       0.08311624 0.0106079765 -0.0491068 -0.015147946
000100 58 08 e2 3b 7e db 9e bd 5f 49 07 bb 39 12 26 bd
       0.0068979673 -0.077567086 -0.0020643098 -0.040544722
000110 76 8b 9f bc 8a f0 11 3d d9 e4 f0 bd 3a 61 ab bc
       -0.01947568 0.035629787 -0.11762399 -0.020920385
000120 a1 22 31 3d 2f 5b 0d 3e c4 58 8d bb 5a 02 77 3d
       0.043245915 0.13804315 -0.00431356 0.060304977
000130 c6 af e2 bd dd 02 10 bd de 3b 07 3d 4e f9 36 3c
       -0.110686824 -0.03515898 0.03301608 0.011167837
000140 e0 a6 e6 bd 6e fa 12 3d 8a 08 8c 3d 68 e2 be 3b
       -0.11262298 0.03588336 0.06837566 0.0058253296
000150 0c 24 e9 3c c5 ac 46 bb 8b be 9e 3d 74 8e cd 3d
       0.028459571 -0.003031538 0.07751187 0.100369364
000160 e2 cf e7 bd 1e c9 05 bd 3f ef bb bd ab f2 f8 bc
       -0.113189474 -0.032662503 -0.09176492 -0.03038915
000170 aa 23 d2 3d 90 08 0f 3e d0 10 aa 3d 26 22 53 3d
       0.10260709 0.1396811 0.08303988 0.05154624
000180 b7 6d 1b bc 4a 6b d8 3c 74 50 01 bd 8d 01 83 3c
       -0.009486607 0.026418347 -0.031570867 0.01599195
000190 cd a9 dc bd 7b 3e 70 3d a2 66 54 3d 5b b4 16 3c
       -0.107745744 0.058653336 0.05185569 0.0091982735
0001a0 88 22 c0 bd ef 19 8c 3d 77 3b c3 bd 70 a8 15 bd
       -0.09381586 0.06840884 -0.095328264 -0.036537588
0001b0 13 a8 de 3d 95 50 79 3d a5 40 c1 3c 09 1d 0a 3e
       0.10871901 0.060867865 0.023590395 0.13487639
0001c0 8a 94 df bb 2f 95 c8 bd e7 ac 37 bd 19 33 bb bd
       -0.006823127 -0.097940795 -0.044842627 -0.091406055
0001d0 2e 7f 88 3c 13 55 c3 bc 68 a4 15 3b 08 5e cc 3d
       0.016662207 -0.023844277 0.002283359 0.099788725
0001e0 0b 45 66 3d b5 86 26 bd 8d 98 24 be 9b a5 32 3d
       0.05621819 -0.04065581 -0.16073819 0.043614965
0001f0 a4 47 71 3b 3d ec de bd e0 b4 12 be b2 d0 88 3d
       0.0036816383 -0.108849026 -0.14326811 0.066804305
000200 91 2b b1 bd c5 04 1d 3e 03 97 5e 3d 9b 60 55 bd
       -0.08650888 0.1533385 0.054343235 -0.052094083
000210 d4 55 f8 bb 57 38 38 3d d7 30 46 3d b1 24 b0 bd
       -0.007578591 0.044975605 0.04838642 -0.08600748
000220 77 ae de bc c7 35 a3 3d c1 25 db 3c 50 37 93 bd
       -0.0271828 0.079692416 0.0267514 -0.071882844
000230 96 0f 8d bd 85 c4 cb 3d 48 22 f3 3d d3 51 54 bd
       -0.068877384 0.099495925 0.11871773 -0.051835846
000240 20 71 d4 bd e8 b6 d9 bd b7 32 00 3e 48 7b 97 3d
       -0.103731394 -0.1063059 0.12519346 0.07396561
000250 09 02 1d bb e5 8e cc 3d 6d 10 7f bd a4 22 c3 3d
       -0.0023957512 0.099881925 -0.062271524 0.095280915
000260 c8 5f 44 bd 79 4f 71 3d 96 ca f8 3c b8 98 c2 3c
       -0.047942907 0.05891368 0.030370038 0.023754463
000270 9a ba 87 bd 1c eb 55 3d 38 d7 08 3e d0 17 5d 3d
       -0.06627388 0.05222617 0.1336335 0.053977787
000280 fa a2 e6 bd 1b 50 49 3e 90 3d a6 3d 4e d2 83 3d
       -0.11261554 0.19659464 0.08117211 0.06436597
000290 17 6c be 3c 62 fa b3 3b 23 96 05 3e 56 aa ec bd
       0.0232449 0.0054924944 0.13045554 -0.115559265
0002a0 3b 72 32 be 3b cd 3f bd 10 05 57 3c 04 f2 d8 bd
       -0.17426388 -0.046826582 0.013123766 -0.10593036
0002b0 1e 1e c8 3d fd 45 70 3e 5d a2 43 3e 94 0c 0b bd
       0.097713694 0.23464198 0.19104905 -0.033947542
0002c0 e0 45 9c 3d 54 d8 0b 3d 8a 98 8b bd 2e 4c 5a 3d
       0.07630515 0.034141853 -0.06816204 0.053295307
0002d0 c8 95 01 bb 7b be 33 bd c8 6c ac 3c 1f 59 8e bd
       -0.0019773114 -0.04388283 0.021047965 -0.06950592
0002e0 58 9d 1a bd 64 d4 0a bd 70 d2 f6 3c 90 58 12 3a
       -0.03774771 -0.033893958 0.030129641 0.0005582655
0002f0 87 83 a0 3d 0a 33 b2 bc 13 3f 9f bd e4 bd dc 3c
       0.07837587 -0.021752853 -0.07775702 0.026946016
000300 35 38 68 3d 09 fd bc bd 62 04 e1 bd d4 2a 0b 3d
       0.05669423 -0.0922795 -0.10987164 0.03397639
000310 d7 74 8b 3c 01 e6 f1 3c 26 7e c3 bc 96 2c a2 3d
       0.017023487 0.02952862 -0.023863863 0.0791866
000320 7d 2e b5 3d 44 0e e6 bc 87 85 08 3d ca ae 61 3d
       0.088467576 -0.028082974 0.033330467 0.055098332
000330 3e 30 56 3c bc e8 30 be f8 80 35 be ab 19 de 3d
       0.013073025 -0.17276281 -0.17724979 0.108447395
000340 0d be 0c 3c ff b6 f9 3b 30 98 a3 3d 46 c4 58 3b
       0.0085902335 0.007620692 0.07988012 0.0033075972
000350 0a d2 d8 bc 27 10 4b 3d 64 c4 c3 bd 72 50 73 bd
       -0.026467342 0.04957595 -0.09558943 -0.05940289
000360 32 f8 8d 3c e8 0a 19 3e de a5 ec 3d f8 dd 84 bc
       0.017330263 0.14945567 0.11555074 -0.016219124
000370 ea 15 22 be 28 0d 94 3c cc 62 db 3d c9 a8 ab bd
       -0.15828672 0.01807268 0.107122034 -0.083818026
000380 04 b9 06 bc 8a a5 7b 3d 9d 53 5e 3c e6 cb 5b bd
       -0.008222822 0.061437167 0.01356974 -0.05366125
000390 49 8b ef bb 09 06 5d bc 17 5c 72 bd cc 31 ba bd
       -0.0073103053 -0.013490208 -0.059169855 -0.09091529
0003a0 41 0d 1e 3d c6 aa 7d ba 16 de 87 bc c2 45 8a 3d
       0.03858686 -0.00096766313 -0.016585391 0.067515865
0003b0 ba 1a c3 bd db d4 94 bd f9 89 cc bd f9 de d3 3c
       -0.09526582 -0.072671615 -0.09987254 0.025863158
0003c0 db dc 34 bd 4f b0 c8 bd fe 41 47 bd b3 48 5c 3d
       -0.044155937 -0.09799253 -0.04864692 0.05378027
0003d0 02 cd 70 3d dd 60 94 3c 79 a4 19 3c 4d 8d e2 3d
       0.05878926 0.018112594 0.009377592 0.11062107
0003e0 0b 27 1b 3b 8a 64 32 bd 01 a3 b3 bc f3 dd 87 3d
       0.0023674394 -0.043552913 -0.021928312 0.0663413
0003f0 39 33 4d 3d e6 e8 a6 bd 73 e8 c8 bd c1 f1 20 3e
       0.050097678 -0.081498906 -0.09809961 0.15717222

bias f4 [16]
000000 6a 4b 57 3e a5 55 a5 3d af ea e4 3d 52 88 48 3e
       0.21024862 0.08072976 0.11177575 0.19583252
000010 f2 2c bb 3d 73 db 3b 3e 25 85 14 3e 80 f3 b0 3d
       0.09139432 0.18345432 0.14503916 0.08640194
000020 36 7f 1c be 6e 22 26 be 7e de 93 be 57 07 ee 3d
       -0.15282902 -0.16224071 -0.28880686 0.11622494
000030 c2 ec 8f bc 69 32 5d be f0 57 64 be 34 fb 85 be
       -0.01756895 -0.21601261 -0.2229917 -0.26168215

bias f4 [16]
000000 28 db 59 be b6 72 26 be b7 83 ed bd 74 38 94 be
       -0.21275008 -0.16254696 -0.11597388 -0.2894932
000010 ad 9b 02 3d d5 1e b8 bc 53 b7 44 3e ea 6f 03 be
       0.031886745 -0.02247564 0.19210558 -0.1283566
000020 59 28 05 be f4 b4 1b 3e 0e 3a 75 3d 88 52 70 bc
       -0.13003673 0.15205747 0.05986982 -0.0146681145
000030 3a 63 d9 be bb 70 7e 3c 43 84 e4 3d 13 b0 bc 3e
       -0.42458516 0.015529807 0.111580394 0.36853084

weight_g f4 [16, 1, 1]
000000 eb 7a 1a 3f 28 2d 9f 3e 82 32 1d 3f 33 b3 2f 3f
       0.6034381 0.3108914 0.61405194 0.6863281
000010 82 93 12 3f 69 ca e9 3e c2 71 01 3f 5f ef d3 3e
       0.5725633 0.4566224 0.50564206 0.41393563
000020 4a f0 37 3f 79 ff 43 3f b7 9d 42 3f d8 d0 11 3f
       0.71851027 0.76561695 0.76021904 0.56959295
000030 e9 20 0d 3f 84 85 1a 3f 56 e7 2a 3f db c4 c5 3e
       0.5512834 0.6035998 0.6675924 0.3862675

weight_v f4 [16, 4, 2]
000000 8d 9f 89 3e c2 aa bf bd f0 47 70 be 47 5c d2 3d
       0.2687954 -0.09358741 -0.23464942 0.10271507
000010 ef 0f 4c be c4 5a 52 3e 7c 6c 61 3e a8 24 97 be
       -0.19927953 0.20542437 0.2201404 -0.29520154
000020 4a 90 04 bd 00 63 84 3e 92 d9 e5 bd ba bf f3 3d
       -0.032364167 0.2585678 -0.11223139 0.11901803
000030 01 26 76 bd b1 78 23 3d 61 f6 a7 bd a6 29 9e 3b
       -0.060094837 0.039910022 -0.0820129 0.004826742
000040 d6 63 4e be bd 73 10 be 98 01 3f be a0 22 39 be
       -0.20155272 -0.1410665 -0.18652952 -0.18079615
000050 11 d2 8a be 4d 66 7a 3e 03 66 a7 be f2 ab c0 bd
       -0.27113393 0.24453087 -0.32695016 -0.09407796
000060 dc f4 3c 3e e0 93 ab be 42 ec 11 3e 14 37 ac be
       0.18452781 -0.33511257 0.14250281 -0.3363577
000070 b6 b1 e4 3d 3c 08 63 3e fb f7 8f 3e f5 18 7b be
       0.11166708 0.2217111 0.28118882 -0.24521239
000080 58 b0 85 be 9f 9e 55 bd 2c 33 3e be 0a 31 b4 be
       -0.26111102 -0.052153226 -0.18574208 -0.35193664
000090 f7 99 fa bd aa ec b8 3d cd db 4a 3e 86 d3 42 3e
       -0.12236398 0.09029515 0.1981041 0.19026002
0000a0 bd ae a6 3d 4d 6c 14 bc 87 83 a8 3c 4b f1 1e 3c
       0.081387974 -0.009059024 0.02057053 0.009701083
0000b0 97 f5 99 3e a5 2f 5c be fb b5 95 3c 6c dd 2d be
       0.30070183 -0.2150255 0.018275252 -0.16978997
0000c0 97 28 a2 3e 5b 59 d9 3d ce 71 b8 be 41 d3 19 3c
       0.31671593 0.10612746 -0.36024326 0.009388746
0000d0 d5 db 8c bd 2b fd 62 bc 32 ce f0 bb 54 f9 8b bd
       -0.06877867 -0.013854305 -0.007348799 -0.06834665
0000e0 4b 1b 0c 3b 72 45 76 bc 96 63 9b 3e 51 04 a5 3c
       0.0021378573 -0.0150312055 0.30349416 0.02014366
0000f0 88 97 c7 3d 3f 64 5e be 8e 21 27 3d 64 d8 98 bb
       0.09745699 -0.21717928 0.040803485 -0.0046644676
000100 0d 1b 8e 3e b0 6b 9b 3e 27 ef 73 be 45 f0 79 be
       0.27755013 0.30355597 -0.23821698 -0.24408062
000110 17 dc 9f 3e 05 fb 40 be 37 34 42 be e1 87 7e be
       0.31222603 -0.18845756 -0.18965231 -0.24856521
000120 5c b2 bc bd 8a 9f 23 3d f9 9f 23 bc cc 7b ca be
       -0.09213707 0.03994707 -0.009986871 -0.39547575
000130 a9 c3 9b be b7 e9 f0 3d e0 32 aa be 57 54 5e 3e
       -0.30422714 0.117633276 -0.3324194 0.2171186
000140 36 be 91 3d 86 8d 0b 3e c2 16 ab be 10 f0 1c 3e
       0.07116358 0.13628206 -0.334158 0.15325952
000150 57 75 92 be e0 32 c2 be 81 71 b0 3e ea a3 9e 3e
       -0.28605148 -0.3792944 0.34461597 0.30984432
000160 c7 81 eb 3c 3a 67 5d 3e a5 6f 24 be e0 d6 17 be
       0.028748406 0.21621409 -0.16058214 -0.14828062
000170 3e 16 3d 3e a1 45 91 be 4f cb 89 be 22 fe 51 be
       0.18465516 -0.28373435 -0.26912925 -0.205071
000180 a3 95 39 3e 35 41 1a 3e 72 22 8c 3e 8e a0 0a 3e
       0.18123488 0.15063937 0.2737003 0.13537809
000190 a7 98 c1 be 0e dd 32 3e 76 25 88 bc 6a 10 ed bd
       -0.37811777 0.17467138 -0.016619425 -0.11575396
0001a0 c8 0e ab 3e eb 3e af 3c c4 d9 91 be 6a 3b 21 bd
       0.33409715 0.021392306 -0.28486454 -0.039363302
0001b0 85 8e 71 3d c5 c6 ab be 49 3f ad 3d 80 7c 5c be
       0.058973808 -0.33550087 0.08459336 -0.21531868
0001c0 c0 61 ca bd c6 ef b7 be e2 c9 9d 3e a2 67 44 3e
       -0.098819256 -0.3592512 0.30818087 0.19180158
0001d0 77 b7 b2 be 15 04 90 bc c6 de df 3d 2f 08 95 3d
       -0.34905598 -0.017580071 0.109311625 0.072769515
0001e0 02 01 8c 3c 19 88 16 3e ac 27 ad be 0c 4a 3e bd
       0.017090324 0.14700355 -0.3381933 -0.046457335
0001f0 c9 25 15 be d8 9a 44 3c 46 ee 92 3c 00 81 a0 3d
       -0.14565195 0.011999808 0.017935883 0.07837105

weight f4 [16, 4, 2]
000000 8c 9f 89 3e c0 aa bf bd ee 47 70 be 46 5c d2 3d
       0.26879537 -0.0935874 -0.23464939 0.10271506
000010 ed 0f 4c be c3 5a 52 3e 7a 6c 61 3e a7 24 97 be
       -0.1992795 0.20542435 0.22014037 -0.2952015
000020 a2 6e fc bc 64 18 7c 3e 0f d8 da bd d6 13 e8 3d
       -0.030814473 0.2461868 -0.10685741 0.113319084
000030 b4 5c 6a bd d9 a4 1b 3d 7d eb 9f bd e1 96 96 3b
       -0.057217315 0.037999008 -0.07808588 0.004595623
000040 d5 63 4e be bd 73 10 be 98 01 3f be a0 22 39 be
       -0.2015527 -0.1410665 -0.18652952 -0.18079615
000050 11 d2 8a be 4c 66 7a 3e 03 66 a7 be f2 ab c0 bd
       -0.27113393 0.24453086 -0.32695016 -0.09407796
000060 d8 10 3b 3e 60 dc a9 be 7a 76 10 3e f3 7d aa be
       0.18268144 -0.33175945 0.14107695 -0.33299217
000070 e8 67 e2 3d b0 c2 60 3e 34 87 8e 3e c5 95 78 be
       0.11054975 0.21949267 0.27837527 -0.24275883
000080 58 b0 85 be 9f 9e 55 bd 2c 33 3e be 0a 31 b4 be
       -0.26111102 -0.052153226 -0.18574208 -0.35193664
000090 f8 99 fa bd ab ec b8 3d cd db 4a 3e 87 d3 42 3e
       -0.122363985 0.09029516 0.1981041 0.19026004
0000a0 3a f7 b6 3d 25 ec 22 bc d0 f9 b8 3c 38 78 2e 3c
       0.089338735 -0.009943997 0.022580057 0.01064878
0000b0 e3 ff a8 3e 2e b2 71 be 08 56 a4 3c 88 d9 3e be
       0.33007726 -0.23603126 0.020060554 -0.18637669
0000c0 60 a2 a3 3e b8 53 db 3d 83 1f ba be a0 39 1b 3c
       0.3195982 0.107093275 -0.36352167 0.009474188
0000d0 fe 23 8e bd fe 0d 65 bc 35 ff f2 bb 6e 3f 8d bd
       -0.06940459 -0.013980387 -0.007415677 -0.06896864
0000e0 d0 32 15 3b 50 20 83 bc fc 78 a5 3e a8 b9 af 3c
       0.0022765882 -0.016006619 0.32318866 0.021450832
0000f0 40 8b d4 3d b9 d2 6c be 04 fa 31 3d 88 c3 a2 bb
       0.10378122 -0.2312726 0.043451324 -0.004967157
000100 0d 1b 8e 3e b0 6b 9b 3e 28 ef 73 be 45 f0 79 be
       0.27755013 0.30355597 -0.238217 -0.24408062
000110 17 dc 9f 3e 06 fb 40 be 37 34 42 be e2 87 7e be
       0.31222603 -0.18845758 -0.18965231 -0.24856523
000120 aa 27 dc bd be e6 3e 3d 3f e7 3e bc 80 3d ec be
       -0.10749753 0.04660677 -0.011651813 -0.4614067
000130 74 bb b5 be c4 89 0c 3e b6 92 c6 be 85 b2 81 3e
       -0.35494578 0.13724428 -0.38783807 0.25331512
000140 e2 20 8f 3d 9f 0c 09 3e 06 05 a8 be 52 1f 1a 3e
       0.06988694 0.13383721 -0.32816333 0.1505101
000150 b9 d4 8f be 03 b7 be be 2e 47 ad 3e 5b cb 9b 3e
       -0.28091982 -0.37249002 0.33843368 0.30428585
000160 c7 81 eb 3c 3a 67 5d 3e a5 6f 24 be e0 d6 17 be
       0.028748406 0.21621409 -0.16058214 -0.14828062
000170 3d 16 3d 3e a1 45 91 be 4f cb 89 be 22 fe 51 be
       0.18465514 -0.28373435 -0.26912925 -0.205071
000180 91 84 30 3e f8 b7 12 3e ce 49 85 3e c5 da 03 3e
       0.1723807 0.14327991 0.2603287 0.12876423
000190 61 23 b8 be 0a 20 2a 3e b4 7e 81 bc 7e 7b e1 bd
       -0.35964492 0.16613784 -0.015807487 -0.110098824
0001a0 c7 0e ab 3e eb 3e af 3c c3 d9 91 be 6a 3b 21 bd
       0.33409712 0.021392306 -0.28486452 -0.039363302
0001b0 85 8e 71 3d c5 c6 ab be 48 3f ad 3d 7f 7c 5c be
       0.058973808 -0.33550087 0.084593356 -0.21531866
0001c0 26 02 d3 bd e5 c6 bf be ae 83 a4 3e cf c6 4c 3e
       -0.10303144 -0.37456432 0.32131714 0.19997714
0001d0 a0 55 ba be 97 27 96 bc a8 69 e9 3d 6d 62 9b 3d
       -0.36393452 -0.018329425 0.113971055 0.075871326
0001e0 fd a0 84 3c 1c 9a 0e 3e 99 08 a4 be e9 43 34 bd
       0.016190046 0.13925976 -0.3203781 -0.044010077
0001f0 76 4a 0d be 89 3f 3a 3c d8 30 8b 3c 88 0c 98 3d
       -0.13797936 0.011367687 0.016991064 0.07424265

bias f4 [16]
000000 69 4f 02 be 00 2b 67 3d 31 fb 8e 3c 6c 62 e4 bd
       -0.12725605 0.056437492 0.017453762 -0.11151585
000010 ab da 0b 3d ad 12 8c bd 02 44 e3 3d 92 fa ed bc
       0.034144085 -0.068394996 0.11096956 -0.029050145
000020 66 e1 8d 3d c8 be 7d bd a6 9a 57 bd 31 8e a6 bc
       0.06927757 -0.06194952 -0.05263772 -0.020331474
000030 df 09 30 bc fc ce 3f bd e9 fe 80 3d 56 5f 4b 3d
       -0.010744541 -0.046828255 0.0629862 0.049651466

weight_g f4 [16, 1, 1]
000000 fd 2e 1d 3f 01 fd 09 3f 32 95 1f 3f 69 c3 0b 3f
       0.61399823 0.5390168 0.6233703 0.5459505
000010 a0 c1 1c 3f cf 99 21 3f f6 ab 22 3f 31 11 1e 3f
       0.6123295 0.6312532 0.6354364 0.6174498
000020 40 60 11 3f 86 1c 1c 3f 14 4f 1d 3f 6a 3f 0e 3f
       0.5678749 0.60981023 0.6144879 0.5556551
000030 a1 bc 11 3f dd a8 fb 3e d6 d6 17 3f b9 5a 2f 3f
       0.5692845 0.4915227 0.5931219 0.68497807
