models/gaussian_tcn_shallow_glance.model (torch, 58875 bytes, 44 tensors)

bias f4 [4]
-0.30537203 0.35984185 -0.4060615 -0.68511856
00000000: b959 9cbe 313d b83e 4be7 cfbe ee63 2fbf

weight_g f4 [4, 1, 1]
0.4862737 2.1312752 0.48697728 0.95863014
00000000: def8 f83e d066 0840 1655 f93e c968 753f

weight_v f4 [4, 4, 3]
-0.49617934 0.43351704 -0.3228197 -0.13092893 -0.28573975 0.3561971 0.12958564 -0.034630906
-0.24951366 -0.6447094 0.20237213 -0.6508196 -2.6614892 0.3059804 0.35332695 1.3986653
-0.18797205 0.20384416 -0.001481724 0.02482761 -0.026194094 -1.6918197 -0.24872318 -0.5314732
-0.30591282 -0.30111468 -0.33921978 -0.15474579 0.36719975 0.36807862 0.3147803 0.107212394
0.14329942 -0.14264984 -0.12486981 0.019059267 1.3637898 2.0418124 -0.016374266 -0.7299364
-0.90622085 -0.4344394 0.008873359 -0.0557649 0.035361268 0.10331395 1.1146878 -0.46417677
00000000: 380b febe f2f5 dd3e a048 a5be 3c12 06be
00000010: 7b4c 92be 775f b63e 19b2 043e 23d9 0dbd
00000020: 8280 7fbe ad0b 25bf a43a 4f3e 1d9c 26bf
00000030: d755 2ac0 77a9 9c3e 45e7 b43e 7707 b33f
00000040: bf7b 40be 86bc 503e 6836 c2ba 4663 cb3c
00000050: ff94 d6bc 8c8d d8bf 4ab1 7ebe a10e 08bf
00000060: 9ba0 9cbe b42b 9abe 37ae adbe ae75 1ebe
00000070: 9b01 bc3e cd74 bc3e e22a a13e 2c92 db3d
00000080: 15bd 123e cd12 12be bebb ffbd 2e22 9c3c
00000090: aa90 ae3f 0ead 0240 5323 86bc 1ddd 3abf
000000a0: 17fe 67bf d76e debe 9161 113c bc69 64bd
000000b0: fad6 103d 4496 d33d 17ae 8e3f 94a8 edbe

weight f4 [4, 4, 3]
-0.18373707 0.16053298 -0.119541354 -0.048483476 -0.1058105 0.13190112 0.04798605 -0.012823954
-0.09239584 -0.23873831 0.074939154 -0.24100094 -1.6016333 0.18413316 0.2126254 0.84169
-0.113117985 0.12266952 -0.0008916731 0.014940781 -0.015763104 -1.0181047 -0.14967684 -0.31983042
-0.17077018 -0.1680917 -0.18936317 -0.086383976 0.20498246 0.20547307 0.17572027 0.059849333
0.07999425 -0.079631634 -0.06970626 0.010639484 0.43470293 0.65082014 -0.005219236 -0.23266451
-0.2888545 -0.13847594 0.0028283503 -0.017774854 0.011271272 0.032930937 0.3553026 -0.14795463
00000000: 9225 3cbe c262 243e 19d2 f4bd 9c96 46bd
00000010: 2db3 d8bd 1611 073e 058d 443d 901b 52bc
00000020: 083a bdbd d177 74be b379 993d f3c8 76be
00000030: 5202 cdbf 678d 3c3e 79ba 593e ff78 573f
00000040: 67aa e7bd 283a fb3d 2bbf 69ba 2dca 743c
00000050: a021 81bc 4151 82bf e344 19be d0c0 a3be
00000060: 61de 2ebe 3b20 2cbe 6be8 41be 15ea b0bd
00000070: ece6 513e 8867 523e 04f0 333e 9324 753d
00000080: 06d4 a33d e915 a3bd 28c2 8ebd 3b51 2e3c
00000090: 6291 de3e 269c 263f 2006 abbb 9b3f 6ebe
000000a0: bde4 93be a3cc 0dbe d85b 393b 929c 91bc
000000b0: 24ab 383c 97e2 063d 39ea b53e 6b81 17be

bias f4 [4]
0.054995373 -0.7811942 0.23956183 0.20799662
00000000: d442 613d 58fc 47bf b24f 753e 11fd 543e

weight_g f4 [4, 1, 1]
0.6578508 0.34970483 0.6718159 1.263375
00000000: e968 283f 830c b33e 20fc 2b3f 46b6 a13f

weight_v f4 [4, 4, 3]
-0.56835496 -0.4922828 -0.38297907 0.540388 1.2859895 1.7476746 0.027507963 0.04320819
0.027920486 -0.6391851 -0.8206502 -0.8207794 -0.17295775 -0.3733838 -0.3459682 -0.32441425
-0.12708984 0.1454266 0.018031226 -0.09408094 -0.10628063 -0.26185057 -0.354299 -0.26536044
-0.14290395 0.051966123 -0.09010472 -0.019482525 -0.17805792 0.02759501 -0.24843657 -0.19134992
-0.2943108 0.12811759 0.15022223 0.1181404 0.02684255 0.012767432 0.06336158 0.19422835
0.47598153 0.41146642 -0.23783156 -0.2664279 -0.08645658 -0.3791245 -0.15749395 -1.1110287
00000000: b67f 11bf 7e0c fcbe d515 c4be de56 0a3f
00000010: 4e9b a43f cdb3 df3f 6158 e13c 12fb 303d
00000020: 81b9 e43c a2a1 23bf 2216 52bf 991e 52bf
00000030: d61b 31be 292c bfbe be22 b1be a019 a6be
00000040: d723 02be b6ea 143e 39b6 933c 82ad c0bd
00000050: a9a9 d9bd 4711 86be ae66 b5be 53dd 87be
00000060: 6a55 12be 6eda 543d d388 b8bd d199 9fbc
00000070: d154 36be ee0e e23c 2866 7ebe 3cf1 43be
00000080: e8af 96be 4231 033e dbd3 193e 98f3 f13d
00000090: e8e4 db3c 7e2e 513c b7c3 813d cce3 463e
000000a0: dab3 f33e baab d23e 1e8a 73be 3d69 88be
000000b0: 2610 b1bd 9b1c c2be 1846 21be 3036 8ebf

weight f4 [4, 4, 3]
-0.13678826 -0.11847968 -0.09217311 0.13005735 0.30950424 0.42061985 0.006620452 0.010399088
0.0067197355 -0.15383524 -0.19750918 -0.19754027 -0.071452625 -0.154253 -0.142927 -0.13402261
-0.05250359 0.060078904 0.0074490933 -0.038866892 -0.043906853 -0.10817619 -0.14636867 -0.1096262
-0.17470534 0.0635305 -0.110156335 -0.023818104 -0.21768238 0.033735916 -0.30372286 -0.23393233
-0.3598058 0.15662847 0.1836522 0.144431 0.024122095 0.01147347 0.05693997 0.17454357
0.4277415 0.3697649 -0.21372768 -0.23942581 -0.077694334 -0.34070078 -0.14153215 -0.99842745
00000000: 3912 0cbe 79a5 f2bd 41c5 bcbd c12d 053e
00000010: 5777 9e3e 7c5b d73e 60f0 d83b f060 2a3c
00000020: 3a31 dc3b fc86 1dbe d93f 4abe ff47 4abe
00000030: c155 92bd 80f4 1dbe 755b 12be 393d 09be
00000040: 010e 57bd 4c15 763d 8617 f43b e432 1fbd
00000050: acd7 33bd 7a8b ddbd abe1 15be b383 e0bd
00000060: f5e5 32be 471c 823d a599 e1bd 2f1e c3bc
00000070: 21e8 5ebe ac2e 0a3d 9081 9bbe f58b 6fbe
00000080: 7738 b8be 3763 203e 530f 3c3e b8e5 133e
00000090: b39b c53c 39fb 3b3c e339 693d 8dbb 323e
000000a0: ef00 db3e d351 bd3e 6edb 5abe 0a2c 75be
000000b0: 351e 9fbd 5570 aebe ceed 10be f198 7fbf

bias f4 [4]
0.33813465 -0.043892346 0.14475447 1.6823807
00000000: fc1f ad3e 76c8 33bd 843a 143e 4058 d73f

weight_g f4 [4, 1, 1]
0.50078005 0.7886907 0.49006727 0.8702291
00000000: 1f33 003f a2e7 493f 19ea fa3e 56c7 5e3f

weight_v f4 [4, 4, 3]
-0.27934596 0.35157242 -0.18205936 -0.28288594 0.3165186 0.35300145 0.22562139 0.17532878
0.16670094 0.053865753 0.49846786 -0.19895087 -0.15163888 -0.04062532 0.32239425 -0.06156955
-0.3597246 -0.028293986 -0.35755995 0.24514753 -0.32998583 -0.22333217 -0.18986392 -0.27228287
0.34672496 -0.32536846 -0.23775949 -0.11463946 0.12299053 -0.2460132 -0.19879155 0.021928059
-0.10057271 0.4332619 -0.27512836 0.4232916 0.38831696 -0.0009889709 0.50199795 0.3937309
0.18476371 -0.014605202 0.2660298 -0.3268808 0.29311916 0.1456289 0.012101762 0.4066989
00000000: 6f06 8fbe 4d01 b43e c56d 3abe 6dd6 90be
00000010: ba0e a23e 9bbc b43e 4b09 673e 6389 333e
00000020: a7b3 2a3e 56a2 5c3d 2e37 ff3e c7b9 4bbe
00000030: 3947 1bbe bc66 26bd dc10 a53e 5a30 7cbd
00000040: d32d b8be cac8 e7bc 1912 b7be f407 7b3e
00000050: e7f3 a8be 30b1 64be b06b 42be a968 8bbe
00000060: ef85 b13e b296 a6be 3977 73be 18c8 eabd
00000070: 76e2 fb3d e2ea 7bbe 0390 4bbe 79a2 b33c
00000080: 11f9 cdbd 81d4 dd3e a0dd 8cbe adb9 d83e
00000090: 7bd1 c63e 5ba0 81ba f082 003f 1997 c93e
000000a0: b332 3d3e a84a 6fbc 0f35 883e ec5c a7be
000000b0: b713 963e be1f 153e 7846 463c d73a d03e

weight f4 [4, 4, 3]
-0.14428727 0.18159355 -0.094036974 -0.14611574 0.16348761 0.18233167 0.116537556 0.0905605
0.08610407 0.027822642 0.25746772 -0.102761745 -0.14099671 -0.037774194 0.29976827 -0.057248533
-0.33447877 -0.026308283 -0.33246604 0.22794282 -0.30682707 -0.20765847 -0.17653906 -0.25317377
0.18279217 -0.17153311 -0.12534596 -0.06043752 0.064840175 -0.1296973 -0.1048022 0.011560395
-0.053021576 0.22841415 -0.14504671 0.22315784 0.33097002 -0.0008429189 0.4278625 0.33558443
0.15747766 -0.012448294 0.22674233 -0.2786068 0.2498311 0.12412232 0.010314564 0.3466373
00000000: 0bc0 13be a9f3 393e 7596 c0bd 5d9f 15be
00000010: 4c69 273e 27b5 3a3e 3eab ee3d c977 b93d
00000020: 5557 b03d 4fec e33c cfd2 833e c074 d2bd
00000030: 7161 10be 1db9 1abd 3a7b 993e 707d 6abd
00000040: cd40 abbe 7884 d7bc fd38 aabe d869 693e
00000050: 7018 9dbe 6ca4 54be a8c6 34be fe9f 81be
00000060: df2d 3b3e 60a6 2fbe b15a 00be 558d 77bd
00000070: edca 843d 5ecf 04be 89a2 d6bd d067 3d3c
00000080: 272d 59bd 66e5 693e 2087 14be 7d83 643e
00000090: e774 a93e 54f7 5cba cb10 db3e b9d1 ab3e
000000a0: d341 213e eef3 4bbc 242f 683e 8da5 8ebe
000000b0: b9d3 7f3e d833 fe3d 6bfe 283c 727a b13e

bias f4 [4]
0.09620993 -0.11351583 0.054047536 -0.5262401
00000000: b609 c53d fd7a e8bd f360 5d3d acb7 06bf

weight_g f4 [4, 1, 1]
0.5835892 0.5351017 0.5438703 0.46047357
00000000: 1a66 153f 6dfc 083f 153b 0b3f 31c3 eb3e

weight_v f4 [4, 4, 3]
-0.48444057 -0.56500006 -0.0068160635 -0.28805804 -0.45858955 -0.19366056 -0.17375952 -0.76256686
0.9631495 -0.5013171 -0.4430799 0.0018656951 -0.034445412 -0.034471206 -0.024557408 -0.1142048
-0.48008645 -0.06313368 -0.16901253 -0.156356 -0.28226843 -0.17044863 -0.11465998 -0.0035904127
-0.07716306 0.06850208 -0.32009217 -0.06576161 0.5060916 -0.23135515 -0.14535381 0.04110581
-0.2514951 -0.2512707 -0.31257886 -0.38195038 0.08551066 -0.016648961 0.0051537147 -0.22166601
-0.338743 0.084205806 -0.22897893 -0.33155754 -0.25699472 -0.21367465 0.034041297 -2.4315062
00000000: 9808 f8be d8a3 10bf 4959 dfbb 587c 93be
00000010: 40cc eabe f44e 46be 04ee 31be 9537 43bf
00000020: f790 763f 5156 00bf 5edb e2be 578a f43a
00000030: a216 0dbd ae31 0dbd 9e2c c9bc 35e4 e9bd
00000040: e4cd f5be 3b4c 81bd 9f11 2dbe ca1b 20be
00000050: 7d85 90be 168a 2ebe dad2 eabd 214d 6bbb
00000060: ab07 9ebd d24a 8c3d 1fe3 a3be 06ae 86bd
00000070: 388f 013f 5de8 6cbe a1d7 14be 915e 283d
00000080: f7c3 80be 8ea6 80be 560a a0be 008f c3be
00000090: 3720 af3d 6763 88bc 7ee0 a83b 6afc 62be
000000a0: b96f adbe 1874 ac3d 7479 6abe e9c1 a9be
000000b0: d094 83be 87cd 5abe e36e 0b3d cc9d 1bc0

weight f4 [4, 4, 3]
-0.16683039 -0.19457325 -0.0023472984 -0.09920067 -0.15792787 -0.06669232 -0.05983885 -0.2626108
0.33168694 -0.17264228 -0.1525867 0.00064250326 -0.028260132 -0.028281294 -0.020147692 -0.09369732
-0.39387843 -0.051796917 -0.13866335 -0.12827954 -0.23158216 -0.13984157 -0.09407076 -0.0029456906
-0.04634785 0.041145653 -0.19226277 -0.039499592 0.30398297 -0.13896303 -0.0873065 0.024690129
-0.15106006 -0.15092528 -0.1877499 -0.22941779 0.015605959 -0.0030384867 0.00094056875 -0.040454727
-0.061821636 0.015367817 -0.041789357 -0.06051027 -0.046902325 -0.03899628 0.0062126415 -0.44375733
00000000: 96d5 2abe 363e 47be 22d5 19bb b929 cbbd
00000010: d8b7 21be fc95 88bd 9519 75bd ec74 86be
00000020: dfd2 a93e 23c9 30be b03f 1cbe aa6d 283a
00000030: cb81 e7bc 2cae e7bc c60c a5bc 61e4 bfbd
00000040: 6faa c9be 0129 54bd c4fd 0dbe b65b 03be
00000050: e023 6dbe a132 0fbe 2ca8 c0bd 7d0c 41bb
00000060: 3ed7 3dbd 5888 283d 88e0 44be 53ca 21bd
00000070: a8a3 9b3e 534c 0ebe c0cd b2bd f442 ca3c
00000080: 7daf 1abe 288c 1abe 8341 40be 7fec 6abe
00000090: 23b0 7f3c 5921 47bb 8090 763a dbb3 25bd
000000a0: af38 7dbd 4cc9 7b3c 512b 2bbd 9ed9 77bd
000000b0: a71c 40bd 90ba 1fbd 6a93 cb3b 2934 e3be

bias f4 [4]
-0.18743911 0.29971159 -0.38909733 0.074489504
00000000: 0af0 3fbe cc73 993e c437 c7be f48d 983d

weight_g f4 [4, 1, 1]
0.20456119 0.72255033 0.08512168 0.5195177
00000000: 7d78 513e 0ff9 383f 4654 ae3d 1dff 043f

weight_v f4 [4, 4, 3]
-0.39393616 -0.74923426 0.33936593 -0.31321946 -0.11653935 0.34775093 -0.04575663 -0.35757804
-0.23082212 0.2559373 -0.09792131 -0.20476584 -0.14645481 -0.1855769 0.095325835 0.036039583
-0.041659184 0.053031042 0.043642953 0.09036277 0.43589213 -0.13479412 -0.0071437275 0.0024874192
-0.5415266 -0.48862532 0.66608155 0.2143399 -0.29780495 -0.08279045 -0.19687973 -0.06494325
-0.5022254 0.13833046 -0.2329281 -0.42531216 0.29735333 0.011691014 0.6206607 -0.14127055
-0.57595223 -0.010986703 0.35207614 0.07483386 -0.14007202 -0.21952432 -0.025480164 -0.02448421
00000000: 00b2 c9be d1cd 3fbf 5fc1 ad3e 4d5e a0be
00000010: 2fac eebd 690c b23e 4e6b 3bbd 7814 b7be
00000020: a25c 6cbe 370a 833e f88a c8bd 23ae 51be
00000030: 40f8 15be df07 3ebe 313a c33d 3e9e 133d
00000040: d2a2 2abd 1437 593d f4c2 323d 1e10 b93d
00000050: 412d df3e 7807 0abe ee15 eabb f803 233b
00000060: 7da1 0abf 192d fabe 5284 2a3f eb7b 5b3e
00000070: e479 98be 0a8e a9bd d79a 49be f700 85bd
00000080: d891 00bf 80a6 0d3e b484 6ebe 84c2 d9be
00000090: b23e 983e ab8b 3f3c 9fe3 1e3f 3aa9 10be
000000a0: 9b71 13bf 9301 34bc 5343 b43e 7f42 993d
000000b0: 0a6f 0fbe fcca 60be c7bb d0bc 1c93 c8bc

weight f4 [4, 4, 3]
-0.06898415 -0.1312022 0.059428085 -0.054849442 -0.020407796 0.060896423 -0.008012675 -0.0626173
-0.040420428 0.044818476 -0.017147496 -0.035857584 -0.19680336 -0.24937494 0.12809716 0.04842935
-0.055980872 0.07126217 0.05864662 0.121427886 0.5857441 -0.18113393 -0.009599614 0.0033425495
-0.03570577 -0.032217704 0.043918353 0.014132585 -0.019635886 -0.005458821 -0.012981343 -0.0042820587
-0.03311443 0.009120874 -0.015358206 -0.028043125 0.15264498 0.006001529 0.31861332 -0.07252059
-0.29566246 -0.005639974 0.18073669 0.038415622 -0.07190533 -0.112691805 -0.013080126 -0.012568857
00000000: 9047 8dbd df59 06be dd6a 733d cfa9 60bd
00000010: 402e a7bc 876e 793d 9847 03bc 803d 80bd
00000020: e48f 25bd 9493 373d e878 8cbc 67df 12bd
00000030: d286 49be 255c 7fbe e72b 033e db5d 463d
00000040: 334c 65bd e7f1 913d 7037 703d 2faf f83d
00000050: 53f3 153f 2c7b 39be b347 1dbc ad0e 5b3b
00000060: 3740 12bd b6f6 03bd bbe3 333d 5c8c 673c
00000070: 70db a0bc e9df b2bb b3af 54bc 8350 8cbb
00000080: ffa2 07bd b86f 153c fca0 7bbc b2ba e5bc
00000090: f74e 1c3e 79a8 c43b 4921 a33e ad85 94bd
000000a0: 1261 97be 88cf b8bb 0a13 393e b359 1d3d
000000b0: 1a43 93bd f6ca e6bd 064e 56bc 9bed 4dbc

bias f4 [4]
-0.6153396 -0.3266846 0.11927109 -0.39984965
00000000: e586 1dbf 3443 a7be 6744 f43d 18b9 ccbe

weight_g f4 [4, 1, 1]
0.38479573 0.44338375 0.60090065 0.38711187
00000000: f203 c53e 3203 e33e a0d4 193f 8733 c63e

weight_v f4 [4, 4, 3]
0.01687862 0.080274545 -0.13860013 -0.22733167 -0.03365267 -0.38308135 0.11973472 0.20662141
0.22473262 0.004033993 -0.014383399 -0.33564338 -0.26815546 0.045233 -0.16239603 -0.0053448123
-0.16496825 -0.011040433 -0.44690838 0.33801034 0.26150465 -0.21945122 -0.05987316 -0.13660723
-0.20724943 0.21164416 -0.1717156 -0.30548212 -0.29136816 -0.3403945 0.23611107 0.48793057
-0.6115793 0.22701997 0.3362378 0.011512576 0.080062576 -0.22707221 -0.22482659 -0.042814188
-0.15922621 -0.083331384 0.3202949 -0.23814043 -0.1741353 -0.09625693 -0.03164492 -0.013345662
00000000: 0845 8a3c fb66 a43d 31ed 0dbe a2c9 68be
00000010: 62d7 09bd 3d23 c4be 7a37 f53d 9094 533e
00000020: 4f20 663e 962f 843b 59a8 6bbc 73d9 abbe
00000030: ac4b 89be 3d46 393d 254b 26be 8923 afbb
00000040: 70ed 28be efe2 34bc 2dd1 e4be b10f ad3e
00000050: f0e3 853e d2b7 60be 8f3d 75bd c4e2 0bbe
00000060: 3239 54be 3fb9 583e 37d6 2fbe 2768 9cbe
00000070: 352e 95be 3048 aebe 1ac7 713e 09d2 f93e
00000080: 7690 1cbf ec77 683e 5c27 ac3e 3e9f 3c3c
00000090: d9f7 a33d 9e85 68be f138 66be ee5d 2fbd
000000a0: 320c 23be a5a9 aabd b1fd a33e 16db 73be
000000b0: 8650 32be 5a22 c5bd 1b9e 01bd c3a7 5abc

weight f4 [4, 4, 3]
0.009726147 0.04625746 -0.07986703 -0.13099775 -0.019392036 -0.22074705 0.06899601 0.11906366
0.12950008 0.0023245509 -0.008288299 -0.19341135 -0.15605609 0.026323857 -0.0945082 -0.003110474
-0.09600514 -0.006425105 -0.26008338 0.19670895 0.15218559 -0.12771212 -0.034843862 -0.079500124
-0.11166167 0.11402946 -0.09251678 -0.1645874 -0.15698308 -0.18339746 0.12721172 0.2628868
-0.32950616 0.122313626 0.1811579 0.0062027355 0.052941766 -0.1501526 -0.14866766 -0.028311089
-0.1052891 -0.05510328 0.21179655 -0.15747151 -0.115147814 -0.063650355 -0.020925358 -0.008824884
00000000: 6b5a 1f3c 7678 3d3d 5391 a3bd 4624 06be
00000010: 0cdc 9ebc 840b 62be c84d 8d3d a6d7 f33d
00000020: ab9b 043e 7e57 183b a5cb 07bc a00d 46be
00000030: 2bcd 1fbe 21a5 d73c 848d c1bd 18d9 4bbb
00000040: 589e c4bd b089 d2bb a629 85be 126e 493e
00000050: 8ad6 1b3e f7c6 02be 70b8 0ebd f6d0 a2bd
00000060: e0ae e4bd 4788 e93d 7079 bdbd 9989 28be
00000070: 2cc0 20be 8bcc 3bbe ca43 023e 1999 863e
00000080: 08b5 a8be 917f fa3d 7581 393e 5140 cb3b
00000090: 77d9 583d 9ac1 19be 563c 18be a8ec e7bc
000000a0: d0a1 d7bd fab3 61bd 32e1 583e 3640 21be
000000b0: 9ed2 ebbd 1e5b 82bd a86b abbc 3f96 10bc

bias f4 [4]
0.635991 -0.11017961 -0.047236137 -0.24427074
00000000: 4ed0 223f d9a5 e1bd ae7a 41bd 1c22 7abe

weight_g f4 [4, 1, 1]
1.4701703 0.43301502 0.6392841 0.5080998
00000000: 8a2e bc3f 25b4 dd3e 1fa8 233f d412 023f

weight_v f4 [4, 4, 3]
-0.45437437 -0.11493454 0.16411537 -0.0012505185 0.015337439 0.014142864 0.43877172 -0.028887998
-0.051001992 -0.0055401647 -0.03888843 0.16413103 -0.37078616 -0.12032651 -1.2747068 -0.31639525
-0.128995 0.13098338 0.26407042 0.35749826 0.11096874 -0.07820246 0.15529159 0.010679509
0.018961612 0.3818177 0.11178167 0.2148551 -0.044007625 -0.1302913 -0.29535747 -0.15816323
-0.33555055 -0.02471247 0.012705703 -0.009579909 -0.09244468 -0.098675564 -0.32974362 0.143335
-0.054198403 0.09853469 -0.3214561 -0.107966274 0.0076432186 -0.2565376 -0.14823332 -0.2239535
00000000: c2a3 e8be cd62 ebbd dc0d 283e 70e8 a3ba
00000010: e249 7b3c 79b7 673c b0a6 e03e 86a6 ecbc
00000020: 77e7 50bd 458a b5bb 7949 1fbd f711 283e
00000030: afd7 bdbe bf6d f6bd 9829 a3bf 8ffe a1be
00000040: 4417 04be 8220 063e 3d34 873e 030a b73e
00000050: 9443 e33d 9d28 a0bd c204 1f3e 1bf9 2e3c
00000060: 6255 9b3c 9c7d c33e caed e43d fa02 5c3e
00000070: 5741 34bd 156b 05be 1839 97be 8bf5 21be
00000080: 48cd abbe ce71 cabc 952b 503c 0df5 1cbc
00000090: a353 bdbd 6a16 cabd 28d4 a8be 69c6 123e
000000a0: 25ff 5dbd 8ecc c93d e595 a4be 6c1d ddbd
000000b0: f773 fa3b e558 83be 7aca 17be 1154 65be

weight f4 [4, 4, 3]
-0.9728639 -0.2460871 0.35138848 -0.0026774935 0.032839093 0.030281382 0.939457 -0.061852284
-0.10920071 -0.011862082 -0.08326427 0.351422 -0.10947438 -0.03552633 -0.37635642 -0.093415506
-0.038085695 0.038672764 0.07796663 0.10555114 0.03276345 -0.023089228 0.045849748 0.0031531185
0.018081764 0.36410078 0.10659483 0.20488551 -0.041965608 -0.12424559 -0.28165245 -0.15082423
-0.3199805 -0.023565773 0.012116141 -0.009135387 -0.07307248 -0.077997655 -0.26064435 0.113298506
-0.042840883 0.0778863 -0.25409353 -0.08534145 0.0060415477 -0.20277898 -0.11717036 -0.17702304
00000000: 9c0d 79bf 42fe 7bbe 31e9 b33e e378 2fbb
00000010: 4982 063d a910 f83c 4180 703f d258 7dbd
00000020: 9fa4 dfbd 2e59 42bc 7586 aabd 96ed b33e
00000030: 1b34 e0bd 0f84 11bd cab1 c0be a150 bfbd
00000040: bfff 1bbd 5567 1e3d f8ac 9f3d 322b d83d
00000050: f832 063d 9f25 bdbc f2cc 3b3d 8da4 4e3b
00000060: 3520 943c 6b6b ba3e 644e da3d 82cd 513e
00000070: 21e4 2bbd 7974 febd c034 90be ab71 1abe
00000080: 7cd4 a3be 020d c1bc c782 463c 97ac 15bc
00000090: 06a7 95bd 3cbd 9fbd 2d73 85be 0c09 e83d
000000a0: ec79 2fbd da82 9f3d 8c18 82be 80c7 aebd
000000b0: 2df8 c53b 4ba5 4fbe 04f7 efbd 8745 35be

bias f4 [4]
-0.32231972 -0.00096572546 0.07697487 -0.16362193
00000000: 1707 a5be bd28 7dba 00a5 9d3d 828c 27be

weight_g f4 [4, 1, 1]
0.4702753 0.6048604 0.5990896 0.58225596
00000000: edc7 f03e 22d8 1a3f f05d 193f ba0e 153f

weight_v f4 [4, 4, 3]
-0.12332069 -0.19713603 -0.2921012 -0.010531732 -0.016103249 -0.06982014 0.15468507 0.21896265
-0.2594836 0.13304244 -0.24515325 0.3465777 -0.09592794 -0.26863524 -0.017033216 -0.026507717
-0.061525524 -0.2279693 -0.24912019 -0.1511512 -0.21349704 0.19507697 -0.08269613 -0.28375876
-0.13591532 -0.18564458 -0.6874036 0.39967856 -0.064302616 -0.3179304 0.762876 -0.07798496
-0.14527531 -0.09379421 -0.1820359 -0.217519 -0.078569494 -0.18856832 -0.31897563 0.0037316955
-0.056031637 -0.26854068 0.34340948 0.2502242 -0.26522955 0.21820974 -0.31992236 -0.35538894
00000000: 8f8f fcbd 07de 49be 4a8e 95be 498d 2cbc
00000010: f6ea 83bc ddfd 8ebd c365 1e3e bf37 603e
00000020: 09db 84be 473c 083e 7409 7bbe a272 b13e
00000030: de75 c4bd 8f8a 89be 3e89 8bbc b626 d9bc
00000040: 3002 7cbd c970 69be 5d19 7fbe 61c7 1abe
00000050: f89e 5abe 42c2 473e 975c a9bd d448 91be
00000060: 632d 0bbe 9d19 3ebe aff9 2fbf aba2 cc3e
00000070: 17b1 83bd c6c7 a2be d74b 433f 94b6 9fbd
00000080: 0dc3 14be 2e17 c0bd 9e67 3abe 4dbd 5ebe
00000090: 0be9 a0bd 0e18 41be c650 a3be 768f 743b
000000a0: 6e81 65bd 2a7e 89be 5ed3 af3e 631d 803e
000000b0: 2bcc 87be 6072 5f3e ddcc a3be 8af5 b5be

weight f4 [4, 4, 3]
-0.08355513 -0.13356823 -0.19791126 -0.0071357065 -0.010910652 -0.047306184 0.104805864 0.14835672
-0.17581142 0.09014204 -0.16610199 0.23482147 -0.0924364 -0.25885758 -0.01641325 -0.025542904
-0.05928615 -0.2196718 -0.24005285 -0.14564967 -0.20572628 0.18797666 -0.0796862 -0.27343068
-0.06673246 -0.09114881 -0.33750525 0.1962364 -0.031571656 -0.15609923 0.37456107 -0.038289487
-0.07132808 -0.046051603 -0.089377 -0.10679869 -0.0529697 -0.12712833 -0.21504587 0.0025158213
-0.03777521 -0.1810438 0.23151858 0.16869527 -0.17881152 0.14711186 -0.21568413 -0.23959486
00000000: f41e abbd 1cc6 08be 40a9 4abe a5d2 e9bb
00000010: 97c2 32bc 21c4 41bd 75a4 d63d d3ea 173e
00000020: e907 34be 649c b83d a416 2abe 0a75 703e
00000030: 4c4f bdbd fb88 84be 1475 86bc 5a3f d1bc
00000040: 09d6 72bd a5f1 60be 6ad0 75be 3025 15be
00000050: e9a9 52be f47c 403e 8532 a3bd 1bff 8bbe
00000060: 07ab 88bd 3aac babd 7dcd acbe 32f2 483e
00000070: 4851 01bd 7ad8 1fbe 78c6 bf3e 70d5 1cbd
00000080: 7514 92bd 9ba0 3cbd 4a0b b7bd 46b9 dabd
00000090: c2f6 58bd ee2d 02be fc34 5cbe 7ae0 243b
000000a0: 2eba 1abd 8c63 39be 3513 6d3e 74be 2c3e
000000b0: 5e1a 37be 7ea4 163e 4ddc 5cbe 5b58 75be

bias f4 [4]
0.50902647 -0.38340718 -0.39974287 -0.2755121
00000000: 8f4f 023f f24d c4be 19ab ccbe ec0f 8dbe

weight_g f4 [4, 1, 1]
0.79034626 0.44178274 0.3806663 0.33487323
00000000: 2254 4a3f 5931 e23e b1e6 c23e 8174 ab3e

weight_v f4 [4, 4, 3]
0.013592491 0.35335973 0.07009145 0.76084477 -0.13272625 0.1700538 0.25688958 0.29352674
-0.32999152 0.7533697 0.011959517 0.25236708 -0.4530305 0.4133513 0.3715243 -0.45543534
-0.18159544 0.42006212 0.02432065 -0.21623561 -0.46255368 -0.11976225 0.19890046 -0.37718585
-0.11505181 0.18893322 -0.18967718 0.12516859 0.17434663 0.37623483 -0.04187192 -0.1584091
-0.034411646 0.2828499 0.2526301 -0.20399375 -0.28060344 -0.38804576 0.24433611 0.4205662
0.46353924 -0.30386966 -0.4451488 -0.43130004 0.01982503 -0.042308677 -0.48897725 -0.023965597
00000000: 0ab3 5e3c 91eb b43e 1b8c 8f3d b9c6 423f
00000010: 64e9 07be 9522 2e3e 0887 833e 2349 963e
00000020: a6f4 a8be d6dc 403f daf1 433c 4236 813e
00000030: 9df3 e7be c8a2 d33e 6f38 be3e d22e e9be
00000040: 28f4 39be 6212 d73e 1a3c c73c de6c 5dbe
00000050: d6d3 ecbe e945 f5bd 90ac 4b3e 811e c1be
00000060: 49a0 ebbd b677 413e bc3a 42be 322c 003e
00000070: ec87 323e daa1 c03e e481 2bbd ff35 22be
00000080: 3af3 0cbd b4d1 903e bc58 813e bde3 50be
00000090: 41ab 8fbe efad c6be 3f33 7a3e 7454 d73e
000000a0: 0455 ed3e ce94 9bbe 8bea e3be 5cd3 dcbe
000000b0: 1a68 a23c dd4b 2dbd 3a5b fabe 8053 c4bc

weight f4 [4, 4, 3]
0.008368762 0.21756008 0.043154612 0.4684446 -0.081718236 0.10470044 0.15816437 0.1807215
-0.20317252 0.46384224 0.007363356 0.1553799 -0.16985184 0.15497516 0.13929324 -0.17075346
-0.068084426 0.15749122 0.009118387 -0.08107184 -0.1734223 -0.044901695 0.07457248 -0.1414159
-0.06282335 0.10316585 -0.10357209 0.06834756 0.095200926 0.20544077 -0.02286391 -0.08649834
-0.018790273 0.1544485 0.13794716 -0.11138956 -0.07944086 -0.109858565 0.06917332 0.11906533
0.13123131 -0.0860277 -0.12602484 -0.12210417 0.0056126094 -0.011977892 -0.138433 -0.0067848335
00000000: 221d 093c 12c8 5e3e e4c2 303d f8d7 ef3e
00000010: e45b a7bd 2f6d d63d d7f5 213e 0f0f 393e
00000020: 750c 50be bb7c ed3e 4f48 f13b e91b 1f3e
00000030: a4ed 2dbe cfb1 1e3e e3a2 0e3e ffd9 2ebe
00000040: d96f 8bbd 6145 213e 4965 153c fe08 a6bd
00000050: 9e95 31be d7ea 37bd 75b9 983d 54cf 10be
00000060: 87a9 80bd 9e48 d33d 9b1d d4bd cef9 8b3d
00000070: b4f8 c23d 115f 523e 184d bbbc 0b26 b1bd
00000080: 0fee 99bc bf27 1e3e 0542 0d3e 3620 e4bd
00000090: e4b1 a2bd 87fd e0bd beaa 8d3d 86d8 f33d
000000a0: 8061 063e 4a2f b0bd a80c 01be c011 fabd
000000b0: fbe9 b73b ec3e 44bc 61c1 0dbe 4f53 debb

bias f4 [4]
-0.2587462 -0.40860718 -0.3176821 -0.341315
00000000: 627a 84be f634 d1be 3aa7 a2be d7c0 aebe

weight_g f4 [4, 1, 1]
0.6133583 0.5105685 0.54067063 0.42045954
00000000: 0d05 1d3f 9eb4 023f 6469 0a3f 7946 d73e

weight_v f4 [4, 4, 3]
-0.22728796 -0.26378918 -0.04306564 -0.3473672 0.017231816 -0.043753408 -0.067338616 0.1431404
0.120906964 -0.10279435 -0.28817657 -0.3458936 -0.34388083 -0.3185454 -0.14441064 -0.34478074
-0.3678168 -0.20685421 -0.13386391 0.12732452 0.20760375 -0.06169482 -0.020371713 -0.086756
0.5641735 -0.039945967 0.27678668 -0.17070074 0.9175575 -0.0038866778 -0.13072799 0.020289993
-0.051722262 0.7834594 0.07200525 0.16368784 -0.3166738 -0.3604207 -0.2909411 -0.33732685
0.13311614 -0.1209648 -0.21751246 -0.020539919 -0.10830726 0.049314845 -0.2961827 0.012661911
00000000: 2dbe 68be 600f 87be 9965 30bd 1dda b1be
00000010: bd29 8d3c c636 33bd d4e8 89bd 6693 123e
00000020: 129e f73d d885 d2bd e18b 93be f718 b1be
00000030: 2611 b0be 6218 a3be 62e0 13be 1a87 b0be
00000040: 7c52 bcbe 97d1 53be 9f13 09be 5c61 023e
00000050: 1496 543e b5b3 7cbd 94e2 a6bc 21ad b1bd
00000060: ad6d 103f 629e 23bd fcb6 8d3e 2dcc 2ebe
00000070: 0ce5 6a3f a2b7 7ebb 8fdd 05be 3337 a63c
00000080: b9da 53bd cc90 483f 7d77 933d c99d 273e
00000090: 1123 a2be 1089 b8be 3bf6 94be 1bb6 acbe
000000a0: 994f 083e 65bc f7bd 96bb 5ebe 5543 a8bc
000000b0: 32d0 ddbd 5dfe 493d 42a5 97be e773 4f3c

weight f4 [4, 4, 3]
-0.19737694 -0.2290746 -0.037398215 -0.30165377 0.014964115 -0.037995473 -0.058476873 0.12430317
0.104995646 -0.08926664 -0.2502526 -0.3003741 -0.22181869 -0.20547618 -0.0931514 -0.22239916
-0.23725846 -0.13343032 -0.08634827 0.082130075 0.13391382 -0.039795946 -0.013140676 -0.05596154
0.21936649 -0.015532113 0.10762244 -0.066373244 0.3567721 -0.0015112493 -0.050830714 0.007889318
-0.020111065 0.304631 0.027997661 0.06364643 -0.1703739 -0.1939102 -0.15652943 -0.18148546
0.07161791 -0.06508036 -0.117024034 -0.0110506965 -0.058270466 0.026531914 -0.15934947 0.0068122437
00000000: 2e1d 4abe 8892 6abe df2e 19bd 5d72 9abe
00000010: 0c2c 753c 24a1 1bbd 7285 6fbd a992 fe3d
00000020: f507 d73d 6ed1 b6bd 1c21 80be a2ca 99be
00000030: 7024 63be 5968 52be 29c6 bebd 9bbc 63be
00000040: e2f3 72be f5a1 08be 5dd7 b0bd d033 a83d
00000050: b420 093e 1301 23bd fd4b 57bc ee37 65bd
00000060: 9ca1 603e 677a 7ebc 2769 dc3d b2ee 87bd
00000070: d5aa b63e 1d15 c6ba de33 50bd 3342 013c
00000080: f6bf a4bc 98f8 9b3e 5a5b e53c 0f59 823d
00000090: 7f76 2ebe 6590 46be 4049 20be 53d7 39be
000000a0: 69ac 923d da48 85bd 4caa efbd fb0d 35bc
000000b0: 03ad 6ebd 7559 d93c 822c 23be 3e39 df3b

weight f4 [60, 60]
-0.02196049 0.060216893 0.04103646 0.0004177368 0.0002970354 0.019259065 0.025793906 -0.052267022
-0.0068589263 0.01869705 -0.034365267 0.09940682 -0.149615 0.019333914 -0.018866338 -0.026278168
0.044562597 0.03014718 -0.01862849 0.06786668 0.0025956002 -0.04271864 0.08763088 0.069517195
-0.20518216 0.079141475 -0.08188094 -0.045078367 0.046378516 0.0050184513 0.03663173 -0.015536012
0.01738042 -0.045546904 0.093078256 0.14357577 -0.30751014 0.12704682 -0.075695075 0.00853548
0.11504203 -0.030338878 0.0060646893 0.041159175 -0.044666708 -0.017528528 0.052010495 0.097879395
-0.39281994 -0.031962764 -0.08252766 0.0967977 0.044142924 0.013555202 0.06641623 0.045642443
0.063812174 0.1324309 0.27848566 0.3773329 0.02050205 0.020566199 0.09881047 0.028800936
-0.030065214 0.010336652 0.017290045 0.02859938 -0.067994915 -0.021429587 0.025228383 0.0028008067
0.059312783 -0.13817115 -0.0070839035 -0.010457109 0.018585304 0.038784437 -0.0065408507 0.02045061
0.057070132 0.013106738 0.0043493975 0.10944457 -0.035669547 -0.15622512 0.080653995 -0.101933956
-0.035696167 0.062074628 0.017798055 0.03771345 -0.029776167 0.0060781683 -0.0040188977 0.13692237
0.02924865 -0.24544641 0.08133018 -0.08365622 0.025652422 0.11118575 -0.0060648746 0.019355558
0.018928492 -0.06856591 0.023950605 0.106759705 -0.03689615 -0.37480384 -0.05466887 -0.06626525
0.119292416 0.055368807 0.038424794 0.09529348 0.06009055 0.087355606 0.22473814 0.41121086
0.00050866295 0.077431574 0.04565732 0.11943251 -0.007634584 -0.02416644 0.021573467 0.0057073124
0.020300122 -0.054208014 -0.023313247 0.05235043 -0.074317634 0.09442454 -0.14520007 0.005853417
0.00819558 0.014690316 0.011233239 0.018531272 0.022810692 0.06419861 0.04056254 0.010927231
0.020259371 0.03757357 -0.17214537 0.054278135 -0.07982919 -0.03158894 0.08045724 0.024368942
0.021692399 -0.036169596 0.022711392 0.029891947 0.01953009 0.094005324 -0.28473654 0.09351445
-0.08259383 0.028407367 0.15391731 0.012688858 0.0028181423 -0.0060637505 -0.037486564 0.072388686
-0.032541014 -0.025966857 -0.4020275 -0.029602747 -0.05799848 0.12155069 0.0799657 0.075285345
0.095372535 0.076611884 0.18836787 0.37650836 0.025579443 0.035808623 0.08926731 0.008886432
0.08189156 0.013454195 0.006148391 -0.0045047207 0.014848337 0.022684159 -0.043142945 0.03187642
0.01337086 -0.059515413 0.07777732 -0.15588872 0.014729415 -0.0013771191 0.0062696696 0.029310588
0.014264447 0.037045978 0.09573235 0.05264386 -0.05811056 0.0681311 0.043692823 -0.21564065
0.07699269 -0.08931627 -0.047493048 0.07562129 0.033949703 0.010203982 -0.008253713 0.035576105
-0.04510508 0.054808415 0.031739853 -0.27948558 0.11512282 -0.073679864 0.066933945 0.14544605
0.01495369 -0.037286352 0.03935695 0.020923844 -0.040500104 -0.036968075 -0.038262386 -0.3990093
-0.005013435 -0.053308923 0.15500148 0.10003943 0.09996238 0.09165684 0.16427326 0.34303474
0.041644376 0.059778966 0.039205994 0.09019513 -0.0018013197 0.09680611 0.007947242 -0.02808988
0.001061769 0.023622619 0.029723432 -0.008892541 -0.027527554 0.018000228 -0.06680459 0.109692805
00000000: 7ce6 b3bc fda5 763d d915 283d af03 db39
00000010: 6bbb 9b39 30c5 9d3c be4d d33c f215 56bd
00000020: d8c0 e0bb 8e2a 993c 98c2 0cbd ce95 cb3d
00000030: ad34 19be 2862 9e3c 948d 9abc 5045 d7bc
00000040: 4587 363d 38f7 f63c c69a 98bc b0fd 8a3d
00000050: f21a 2a3b bef9 2ebd d277 b33d 085f 8e3d
00000060: 461b 52be ed14 a23d 32b1 a7bd 18a4 38bd
00000070: 66f7 3d3d d271 a43b 270b 163d c28a 7ebc
00000080: 6261 8e3c 648f 3abd d09f be3d 8705 133e
00000090: f871 9dbe 9018 023e 0506 9bbd 66d8 0b3c
000000a0: 289b eb3d 3d89 f8bc 4dba c63b 8696 283d
000000b0: 70f4 36bd fd97 8fbc f508 553d fe74 c83d
000000c0: b21f c9be 63eb 02bd 4304 a9bd df3d c63d
000000d0: 36cf 343d a316 5e3c 3b05 883d 92f3 3a3d
000000e0: f5af 823d f79b 073e ac95 8e3e c731 c13e
000000f0: eaf3 a73c 727a a83c 255d ca3d f1ef eb3c
00000100: 534b f6bc 105b 293c daa3 8d3c 3f49 ea3c
00000110: eb40 8bbd 1a8d afbc c1ab ce3c bd8d 373b
00000120: f6f1 723d bd7c 0dbe 1720 e8bb 4b54 2bbc
00000130: 3540 983c 6edc 1e3d a254 d6bb 0a88 a73c
00000140: 5fc2 693d a5bd 563c 6485 8e3b 7a24 e03d
00000150: 3b1a 12bd 7af9 1fbe ec2d a53d c0c2 d0bd
00000160: 2536 12bd f741 7e3d 3acd 913c 6b79 1a3d
00000170: 26ed f3bc 5f2b c73b f5b0 83bb 6135 0c3e
00000180: dd9a ef3c 4e56 7bbe 7090 a63d f453 abbd
00000190: 0725 d23c 5bb5 e33d dbbb c6bb 8c8f 9e3c
000001a0: ed0f 9b3c 496c 8cbd 0f34 c43c d5a4 da3d
000001b0: 6b20 17bd 4ae6 bfbe 77ec 5fbd 13b6 87bd
000001c0: 954f f43d 67ca 623d 5163 1d3d 3a29 c33d
000001d0: 8221 763d 7fe7 b23d c121 663e 3b8a d23e
000001e0: cb57 053a 7294 9e3d 2c03 3b3d 0899 f43d
000001f0: 882b fabb b3f8 c5bc d7ba b03c 6804 bb3b
00000200: 714c a63c 3909 5ebd 6cfb bebc 686d 563d
00000210: d833 98bd a761 c13d 54af 14be 05ce bf3b
00000220: c146 063c a7af 703c 9f0b 383c e5ce 973c
00000230: 7ddd ba3c 907a 833d e824 263d 2108 333c
00000240: fbf6 a53c bee6 193d e046 30be c052 5e3d
00000250: 7d7d a3bd 6863 01bd c4c6 a43d 60a1 c73c
00000260: 42b4 b13c 9226 14bd 3e0d ba3c f5df f43c
00000270: 91fd 9f3c dd85 c03d fdc8 91be 8184 bf3d
00000280: f426 a9bd 91b6 e83c 809c 1d3e eee4 4f3c
00000290: 95b0 383b 6db2 c6bb 838b 19bd 8540 943d
000002a0: ba49 05bd 72b8 d4bc 8cd6 cdbe 7681 f2bc
000002b0: d08f 6dbd 91ef f83d 0fc5 a33d 342f 9a3d
000002c0: ad52 c33d b1e6 9c3d 82e3 403e b4c5 c03e
000002d0: fb8b d13c 10ac 123d c8d1 b63d 6698 113c
000002e0: c3b6 a73d fc6e 5c3c 7178 c93b 569c 93bb
000002f0: 7046 733c 21d4 b93c a8b6 30bd d990 023d
00000300: 7411 5b3c 6fc6 73bd b749 9f3d 4ba1 1fbe
00000310: a553 713c 7380 b4ba cd71 cd3b c21c f03c
00000320: 6db5 693c 86bd 173d 530f c43d 17a1 573d
00000330: 5705 6ebd 5188 8b3d 3ff7 323d e7d0 5cbe
00000340: 58ae 9d3d 73eb b6bd 1288 42bd 56df 9a3d
00000350: d80e 0b3d 9a2e 273c 953a 07bc 40b8 113d
00000360: 1bc0 38bd ca7e 603d a601 023d bc18 8fbe
00000370: 83c5 eb3d 78e5 96bd aa14 893d cfef 143e
00000380: 5200 753c 93b9 18bd c134 213d 7b68 ab3c
00000390: 70e3 25bd d66b 17bd 05b9 1cbd f24a ccbe
000003a0: be47 a4bb 755a 5abd b5b8 1e3e 79e1 cc3d
000003b0: 14b9 cc3d 95b6 bb3d 4037 283e 40a2 af3e
000003c0: 4b93 2a3d cada 743d 7796 203d 39b8 b83d
000003d0: 421a ecba 4842 c63d 2635 023c bf1c e6bc
000003e0: 0e2b 8b3a 3984 c13c 8e7e f33c 05b2 11bc
000003f0: 7781 e1bc 3775 933c d8d0 88bd 9fa6 e03d

bias f4 [60]
6.176793e-05 0.0035006714 0.000908355 -0.0010384555 -0.00040974855 0.014741995 0.0036498394 0.005066825
0.005159567 0.00579288 0.00874174 0.0089182 0.0071184454 0.0047172685 0.0038478642 0.001140553
-0.0010556672 -0.00019134146 -0.0026657397 -0.004932694 -0.0025802897 -0.0047503044 -0.0045462507 -0.0110647455
-0.008731682 -0.012118118 -0.02185779 -0.006099329 -0.008701942 -0.010258309 -0.005199619 -0.010428452
-0.008804176 -0.0053278855 -0.0046650604 -0.004869928 -0.0057357727 -0.004386629 -0.0072247563 -0.0064887176
-0.007135418 -0.007819463 -0.009804268 -0.005671059 -0.005310778 -0.011296042 -0.009195754 -0.0065389974
-0.008025799 -0.00939706 -0.0039693736 -0.005325818 -0.0041843783 -0.003562353 -0.00393839 -0.007277404
-0.00057258486 0.0012913371 0.0017839668 0.0023638508
00000000: 6889 8138 856b 653b ac1e 6e3a c91c 88ba
00000010: 85d3 d6b9 6988 713c 2532 6f3b 9c07 a63b
00000020: 9611 a93b 33d2 bd3b 8439 0f3c a41d 123c
00000030: d941 e93b 5193 9a3b 732c 7c3b 9c7e 953a
00000040: 505e 8aba d5a2 48b9 b1b3 2ebb 70a2 a1bb
00000050: 141a 29bb 71a8 9bbb b7f8 94bb e848 35bc
00000060: 540f 0fbc 128b 46bc 1c0f b3bc e1dc c7bb
00000070: 9792 0ebc 7712 28bc 9161 aabb 19dc 2abc
00000080: 643f 10bc 8b95 aebb 5ddd 98bb eb93 9fbb
00000090: 26f3 bbbb b6bd 8fbb a6bd ecbb 4f9f d4bb
000000a0: 39d0 e9bb 341d 00bc 15a2 20bc 4ad4 b9bb
000000b0: 0906 aebb 0913 39bc caa9 16bc 1645 d6bb
000000c0: a47e 03bc 20f6 19bc 8511 82bb 3384 aebb
000000d0: 1c1d 89bb 5e76 69bb 9c0d 81bb 4a77 eebb
000000e0: 8519 16ba 1542 a93a fed3 e93a d6ea 1a3b

weight f4 [60, 60]
0.3592544 0.38101658 -0.04021001 0.15860027 0.03309699 0.2883087 -0.25768983 -0.031897567
-0.037428565 -0.013571927 0.18762174 -0.03281341 0.04076436 -0.10982049 0.11163059 -0.026150895
-0.05162501 0.16196035 0.10586548 -0.15041147 0.06066136 -0.13190442 0.079344876 0.21779482
0.12242221 -0.21608815 0.23584087 -0.08337435 0.101005025 0.06847799 0.054652322 -0.054920096
-0.045919992 0.15873297 0.05339144 0.23829813 0.20957011 -0.07549157 -0.053692304 -0.12032557
-0.13104387 -0.099189535 0.012186996 -0.17408127 -0.062196948 0.15393205 -0.057899684 0.428879
0.3588287 -0.11540934 0.014513082 -0.12950441 -0.0061211786 0.023620943 0.16202727 -0.09021926
-0.2502252 0.084241375 0.035746098 0.08067981 0.35290074 0.2597261 0.19326788 -0.11814703
0.15656625 0.103019446 0.25445113 -0.2878839 -0.0348916 -0.09686712 0.06058935 0.21586016
0.0056189075 0.044388726 -0.11638178 0.021099627 0.21329816 -0.011032965 0.18452364 -0.06261721
-0.09669657 -0.027516527 0.04551915 0.013067495 0.18972245 0.05122482 -0.12589608 0.14467336
0.0024319843 0.017520888 0.08931457 -0.028351068 0.03170241 -0.011450258 0.058833797 0.24892618
0.23500426 0.16577561 0.028405638 -0.14753269 -0.12596528 -0.14993201 -0.10713377 -0.0021396829
-0.10551252 -0.111492656 0.20438416 0.029102731 0.34107625 0.26302007 -0.12547933 -0.03350843
-0.17227724 0.06513316 0.11346356 0.10851212 -0.05072579 -0.24639988 0.12329557 0.049963534
0.43622586 0.2542197 0.03233097 0.2200456 -0.096963346 0.1166212 0.027442994 0.06323766
-0.13160442 -0.06857196 -0.07522875 0.0557611 0.20186687 0.050797306 -0.0782896 -0.074883826
0.15576039 0.2184381 -0.04989598 0.11200046 0.059953727 -0.09831871 -0.01455815 0.047467977
0.010071593 0.06440344 0.005111081 -0.033549346 0.17012519 -0.032664027 0.12599735 0.05882703
-0.017367123 0.09309627 -0.01194043 0.033447135 0.23913597 0.17484342 0.050994437 0.036642235
-0.022414824 -0.14238332 -0.15811913 -0.124862775 -0.03709551 -0.10749853 0.03057589 0.13107187
0.043859597 0.13463977 0.16493031 0.0031251814 -0.05700953 -0.022433618 0.10361057 0.012161126
0.004502185 -0.031009376 -0.11734241 0.09034904 0.328953 0.29074916 0.2525809 0.030531889
0.016550828 -0.14072494 0.12211447 0.05997963 0.1124184 -0.3294847 0.08591713 -0.053720973
0.056258325 0.27926838 0.09334941 -0.081952676 -0.2009698 0.12988468 0.3549025 -0.07306991
0.12235282 -0.09415635 -0.02616043 0.048447356 0.23313911 -0.15795597 0.15428048 0.037069857
-0.25398463 0.14552803 0.12414617 0.006980744 -0.027851429 0.040241722 0.10756986 0.05682402
0.009771924 0.2568683 0.2609838 0.071550265 -0.0131052 -0.12544136 -0.1668351 -0.13885452
-0.19646713 0.17362781 -0.07036732 -0.025617925 0.24949338 -0.1933613 0.08531364 0.33009714
-0.09059753 -0.0854251 -0.022501571 0.11823277 0.027238209 0.027687619 -0.027284356 -0.045307647
0.41478655 0.13975097 0.29840893 0.13704248 0.017124562 -0.051372603 -0.04487421 0.11888563
-0.015337103 0.13817255 -0.18514176 -0.023098221 0.06958887 -0.027567673 0.2519284 0.01658256
00000000: 31f0 b73e 9b14 c33e 40b3 24bd 1c68 223e
00000010: b690 073d 339d 933e ecef 83be 06a7 02bd
00000020: b24e 19bd ca5c 5ebc ea1f 403e 5b67 06bd
00000030: 88f8 263d 91e9 e0bd 949e e43d 673a d6bc
00000040: bf74 53bd efd8 253e 00d0 d83d 7705 1abe
00000050: 0c78 783d f411 07be 917f a23d 9b05 5f3e
00000060: 7fb8 fa3d 3646 5dbe 4580 713e 2cc0 aabd
00000070: b9db ce3d 303e 8c3d 1ddb 5f3d e5f3 60bd
00000080: 9a16 3cbd e58a 223e fcb0 5a3d 6d04 743e
00000090: 8c99 563e 539b 9abd 76ec 5bbd 416d f6bd
000000a0: 5d30 06be e223 cbbd f7ab 473c 5c42 32be
000000b0: 3ac2 7ebd 5da0 1d3e 3828 6dbd 0796 db3e
000000c0: 65b8 b73e bb5b ecbd 47c8 6d3c ce9c 04be
000000d0: 2b94 c8bb b580 c13c 7aea 253e e0c4 b8bd
000000e0: 841d 80be be86 ac3d 806a 123d 753b a53d
000000f0: 68af b43e d2fa 843e 04e8 453e 12f7 f1bd
00000100: e752 203e dcfb d23d 6b47 823e 8565 93be
00000110: 7fea 0ebd 4562 c6bd 8a2c 783d 720a 5d3e
00000120: d01e b83b f4d0 353d 9259 eebd 20d9 ac3c
00000130: d56a 5a3e 9cc3 34bc c4f3 3c3e 743d 80bd
00000140: da08 c6bd 576a e1bc 4a72 3a3d 0c19 563c
00000150: 9a46 423e 1ed1 513d e7ea 00be 4125 143e
00000160: ed61 1f3b f787 8f3c 8fea b63d 8040 e8bc
00000170: 63da 013d dd99 3bbc b5fb 703d 81e6 7e3e
00000180: f5a4 703e 15c1 293e f1b2 e83c cf12 17be
00000190: 0bfd 00be c787 19be f368 dbbd ec39 0cbb
000001a0: f316 d8bd 4356 e4bd 154a 513e da68 ee3c
000001b0: 8ca1 ae3e 91aa 863e a77d 00be 2340 09bd
000001c0: 7269 30be 8964 853d 955f e83d 9a3b de3d
000001d0: d9c5 4fbd 4050 7cbe 6382 fc3d 90a6 4c3d
000001e0: ff58 df3e 1629 823e 7b6d 043d a253 613e
000001f0: b894 c6bd 19d7 ee3d 21d0 e03c bf82 813d
00000200: 4fc3 06be 756f 8cbd 8811 9abd c065 643d
00000210: 30b6 4e3e d610 503d 4c56 a0bd b15c 99bd
00000220: a77f 1f3e 3dae 5f3e ba5f 4cbd 7f60 e53d
00000230: 0a92 753d 525b c9bd 4f85 6ebc c86d 423d
00000240: 5303 253c f3e5 833d db7a a73b 0a6b 09bd
00000250: 4c35 2e3e b7ca 05bd 7305 013e 9df4 703d
00000260: 7f45 8ebc 42a9 be3d cba1 43bc ddff 083d
00000270: 0fe0 743e 270a 333e 8bdf 503d 2b16 163d
00000280: 4b9f b7bc efcc 11be fbe9 21be 0eb8 ffbd
00000290: 76f1 17bd 3028 dcbd 4a7a fa3c b437 063e
000002a0: 1fa6 333d 02df 093e 7ee3 283e d8cf 4c3b
000002b0: d382 69bd b5c6 b7bc c731 d43d 763f 473c
000002c0: 1187 933b 6007 febc 3851 f0bd eb08 b93d
000002d0: 876c a83e 13dd 943e 4952 813e 031e fa3c
000002e0: 9a95 873c 331a 10be 2717 fa3d 33ad 753d
000002f0: 9e3b e63d 38b2 a8be 52f5 af3d 860a 5cbd
00000300: 216f 663d 44fc 8e3e fa2d bf3d ced6 a7bd
00000310: 07cb 4dbe 7d00 053e c8b5 b53e ada5 95bd
00000320: 1e94 fa3d 0bd5 c0bd 664e d6bc bc70 463d
00000330: 05bc 6e3e 36bf 21be b4fb 1d3e 90d6 173d
00000340: 460a 82be 4d05 153e 5940 fe3d babe e43b
00000350: ae28 e4bc 81d4 243d 964d dc3d 4ec0 683d
00000360: 6b1a 203c 3e84 833e ab9f 853e f288 923d
00000370: 31b7 56bc b373 00be d2d6 2abe e12f 0ebe
00000380: ae2e 49be 7dcb 313e be1c 90bd afdc d1bc
00000390: 317b 7f3e 8100 46be ebb8 ae3d 7e02 a93e
000003a0: 338b b9bd 5bf3 aebd 3755 b8bc 0624 f23d
000003b0: aa22 df3c 25d1 e23c 7183 dfbc 8394 39bd
000003c0: e75e d43e e11a 0f3e 0ec9 983e dd54 0c3e
000003d0: cf48 8c3c 146c 52bd 05ce 37bd 4f7a f33d
000003e0: 7948 7bbc 1b7d 0d3e cd95 3dbe 7b38 bdbc
000003f0: 9c84 8e3d 9ad5 e1bc c2fc 803e 26d8 873c

bias f4 [60]
-3.1552885 -3.0992026 -3.0374224 -3.0272143 -2.9839237 -2.899134 -2.9346685 -2.919933
-2.9061759 -2.892206 -3.1951451 -2.9302554 -2.9124303 -2.9035919 -2.9082472 -2.9147182
-2.9418154 -2.9547148 -2.9881535 -2.9994972 -3.0019095 -3.1648355 -3.6902137 -3.1349127
-3.1308467 -3.1316276 -2.4788513 -3.1256363 -3.1196847 -3.121871 -3.1542072 -3.1842499
-3.1962967 -3.2333436 -3.2575843 -3.2694886 -3.2961323 -3.2931256 -3.2956104 -3.3252027
-3.3008804 -3.3236892 -3.3090472 -3.3277905 -3.36002 -3.334946 -3.3293173 -3.3299108
-3.3543484 -3.3500729 -3.380921 -3.3826718 -3.381922 -3.364102 -3.3614132 -3.3957732
-3.4033904 -3.4189165 -3.8041432 -3.423072
00000000: 3ff0 49c0 5659 46c0 2165 42c0 e1bd 41c0
00000010: 9bf8 3ec0 698b 39c0 9cd1 3bc0 2fe0 3ac0
00000020: c9fe 39c0 e719 39c0 427d 4cc0 4e89 3bc0
00000030: 4265 3ac0 73d4 39c0 b920 3ac0 be8a 3ac0
00000040: b446 3cc0 0c1a 3dc0 e83d 3fc0 c3f7 3fc0
00000050: 491f 40c0 aa8c 4ac0 762c 6cc0 69a2 48c0
00000060: cb5f 48c0 966c 48c0 80a5 1ec0 6d0a 48c0
00000070: eaa8 47c0 bccc 47c0 88de 49c0 c0ca 4bc0
00000080: 2090 4cc0 1aef 4ec0 437c 50c0 4d3f 51c0
00000090: d5f3 52c0 92c2 52c0 48eb 52c0 1fd0 54c0
000000a0: a041 53c0 53b7 54c0 6ec7 53c0 85fa 54c0
000000b0: 910a 57c0 c16f 55c0 8913 55c0 421d 55c0
000000c0: a5ad 56c0 9867 56c0 0261 58c0 b27d 58c0
000000d0: 6971 58c0 724d 57c0 6521 57c0 5954 59c0
000000e0: 26d1 59c0 87cf 5ac0 1577 73c0 9d13 5bc0
